model/last_SDNet_2021-07-17_22-56-56.pth (torch, 67255 bytes, 37 tensors)

encoder1.features.0.weight f4 [8, 3, 3, 3]
0	0xbdb0e471	-0.08637322
1	0x3db7ac3a	0.089683965
2	0x3e02b37b	0.12763779
3	0x3d01e83f	0.031715628
4	0xbd2236ea	-0.03960315
5	0xbdaf7568	-0.08567315
6	0xbd847d95	-0.06469265
7	0xbe460f29	-0.1934172
8	0xbceec5d7	-0.029147072
9	0xbe1f4fd6	-0.15557799
10	0xbe0ba8dc	-0.13638633
11	0xbba5a325	-0.0050548487
12	0xbe33b799	-0.17550506
13	0xbcdc63ad	-0.026902998
14	0xbe3c1388	-0.18366826
15	0xbe428493	-0.18995886
16	0xbe5bf14d	-0.21478768
17	0x3db466ce	0.08808671
18	0x3c45c485	0.01207078
19	0xbd0e6902	-0.034768112
20	0xbdf2f34b	-0.11862811
21	0xbd8a7cc9	-0.06762082
22	0xbe1f0998	-0.15531003
23	0xbe59eba5	-0.21281298
24	0x3d71f06b	0.05906717
25	0xbd4b0806	-0.0495682
26	0xbe2f5481	-0.1712208
27	0x3d82858b	0.063731275
28	0xbe35b7bc	-0.1774587
29	0xbdcb8a4a	-0.09938486
30	0x3e3475a0	0.17622995
31	0x3dbdfb52	0.09276451
32	0xbd762310	-0.060092032
33	0x3d3fd524	0.046834126
34	0x3e56da3f	0.20981692
35	0xbe6de4f6	-0.23231873
36	0xbd17c6a9	-0.03705469
37	0xbbfa198e	-0.007632441
38	0x3d8b31b5	0.0679659
39	0x3d2cab98	0.042155832
40	0x3ed97a47	0.42476103
41	0x3e1a36f3	0.15060024
42	0x3cb8ee63	0.02257461
43	0x3e84d73c	0.2594546
44	0x3dc29864	0.095017225
45	0x3e1e3109	0.15448393
46	0x3e5e68eb	0.2171971
47	0xbd93196c	-0.07182583
48	0x3e53c613	0.20681028
49	0x3d4b1655	0.049581844
50	0x3e0cc1b4	0.13745767
51	0x3e8f5dfe	0.28001398
52	0x3e270fc6	0.16314611
53	0xbdd5b37b	-0.10434624
54	0x3e23931c	0.15974087
55	0x3e895543	0.26822862
56	0xbd96d060	-0.07363963
57	0x3e2631ec	0.16229981
58	0x3d139eae	0.03604
59	0xbdf4ccda	-0.11953135
60	0xbdd0eb15	-0.10201088
61	0xbc492eb5	-0.012279202
62	0x3d90fe98	0.0707981
63	0xbdc17d89	-0.09447772
64	0xbdb4f546	-0.08835845
65	0x3e454022	0.19262746
66	0xbc479a94	-0.01218285
67	0x3e5a5c1f	0.21324204
68	0x3e480d27	0.19536267
69	0x3e43808c	0.19092005
70	0x3d9c1211	0.076206334
71	0x3d9bab36	0.07601015
72	0xbd2e8e79	-0.04261634
73	0x3e7527be	0.23940942
74	0xbd3e816f	-0.046510156
75	0xbd6f8564	-0.05847682
76	0x3e4c33be	0.19941613
77	0xbc693fc5	-0.014236395
78	0x3e5e26d6	0.21694502
79	0x3e54592c	0.20737141
80	0x3d3bf616	0.045888983
81	0x3e538c71	0.20659043
82	0x3e08588c	0.13315028
83	0x3c8f2736	0.017474752
84	0xbb014874	-0.0019727023
85	0xbca81120	-0.020515978
86	0xbd2e39fd	-0.04253577
87	0xbdd2a3ad	-0.10285125
88	0xbdb76ac7	-0.08955913
89	0xbd38cecd	-0.045119096
90	0x3dea265a	0.11433096
91	0x3e8ce986	0.27521914
92	0x3e40fca3	0.18846373
93	0xbe19cde0	-0.15019941
94	0x3e5b91db	0.21442358
95	0x3e282d23	0.16423468
96	0x3da0693b	0.07832571
97	0x3d2b12f7	0.041766133
98	0x3da4371a	0.08018322
99	0x3e0d094a	0.13773075
100	0x3ed6b479	0.41934565
101	0x3ea2d5ea	0.31803828
102	0x3d0dacf8	0.034588784
103	0x3cd2a9e8	0.025715783
104	0x3e38a773	0.18032627
105	0x3e1aee8f	0.15130065
106	0x3e11329f	0.14179467
107	0x3e3e804b	0.18603627
108	0xbe68b637	-0.2272576
109	0xbe23acf7	-0.1598395
110	0xbe3c16a5	-0.18368013
111	0x3b9971a1	0.004682735
112	0xbe81896d	-0.2530016
113	0xbd407ced	-0.04699414
114	0xbe3517f2	-0.17684916
115	0xbd67f594	-0.056630686
116	0xbe10fa79	-0.14158048
117	0xbe153ffa	-0.14575186
118	0xbd006f1d	-0.031355966
119	0x3ddc1666	0.1074646
120	0xbe013184	-0.12616545
121	0xbdc18cbc	-0.09450671
122	0xbe281fef	-0.16418432
123	0xbda2d76d	-0.079512455
124	0xbe83ee8b	-0.2576793
125	0x3d1bdea7	0.038054135
126	0xbde61293	-0.112340115
127	0xbdfabcc3	-0.12243035
128	0xbd5d60a8	-0.054047257
129	0x3dec0d30	0.11525953
130	0xbdd2fded	-0.10302339
131	0xbe895a51	-0.26826718
132	0xbe2d1081	-0.16900827
133	0xbd5b622f	-0.053560432
134	0x3d1c5182	0.03816367
135	0xbe02722d	-0.12738867
136	0xbc87015e	-0.016480144
137	0x3e8ac044	0.27099812
138	0x3dcaa910	0.09895527
139	0x3dca6210	0.09881985
140	0xbdb1a76c	-0.08674511
141	0x3e20fb51	0.1572087
142	0xbda4d388	-0.08048159
143	0xbd0be7bb	-0.034156542
144	0xbb006b8c	-0.0019595353
145	0x3d8aad3a	0.067713216
146	0x3d95abee	0.073081836
147	0xbe64c56d	-0.22340937
148	0xbe726671	-0.23671891
149	0xbe6ab36a	-0.22920004
150	0xbe246a84	-0.16056257
151	0x3d349703	0.04408933
152	0xbdce9717	-0.10087412
153	0xbe227611	-0.15865351
154	0xbdb768be	-0.08955525
155	0xbdd6cb59	-0.10488004
156	0x3ba9b30b	0.0051788143
157	0xbe398d5b	-0.18120329
158	0xbe7d1f2b	-0.24718921
159	0xbd68e81f	-0.056861993
160	0xbd990332	-0.074713126
161	0x3d07542d	0.03303926
162	0xbd870f7e	-0.06594752
163	0xbda1b5ae	-0.07895981
164	0x3c7e0289	0.015503534
165	0x3e4330b1	0.19061543
166	0x3deec760	0.116591215
167	0x3ceba39c	0.028764538
168	0x3e3f5ad1	0.18686987
169	0x3c239bee	0.009985907
170	0xbdca7a02	-0.098865524
171	0x3e24a761	0.16079475
172	0xbcf6db26	-0.030133795
173	0x3dc8bcdb	0.09801646
174	0xbc3e6dac	-0.0116228275
175	0x3e5b6e98	0.21428907
176	0x3e512e1e	0.20427749
177	0x3e5bd7b8	0.21469009
178	0xbd773e66	-0.060362242
179	0x3e22a753	0.15884142
180	0xbda54f31	-0.08071745
181	0x3dbb1b63	0.09136083
182	0x3e1e6aaa	0.15470377
183	0xbd03a070	-0.032135427
184	0x3e9b01da	0.3027485
185	0x3e82897e	0.25495523
186	0x3df04f8c	0.11733922
187	0x3e530747	0.20608245
188	0x3c5fbea1	0.013656289
189	0xbdb50a20	-0.08839822
190	0x3e4e0600	0.20119476
191	0x3d720388	0.0590854
192	0x3bff355b	0.007788343
193	0x3e136360	0.14393377
194	0x3db4a361	0.088202246
195	0xbd08e69c	-0.03342305
196	0x3e3adee8	0.18249094
197	0x3d1a883b	0.037727576
198	0xbe00ddd7	-0.12584625
199	0x3d8afb1b	0.06786176
200	0xbe1c86c4	-0.15285784
201	0x3e591579	0.21199597
202	0x3dd07a24	0.101795465
203	0x3e17b161	0.14813758
204	0x3e69691a	0.22794
205	0x3e093467	0.13398896
206	0x3e2e2239	0.17005242
207	0x3cd549ed	0.026036227
208	0x3d6f71dd	0.058458198
209	0x3c8ff028	0.01757057
210	0xbd95f8eb	-0.07322868
211	0x3d5b2b8a	0.05350832
212	0x3e2f3fb2	0.17114142
213	0x3dbbd55f	0.09171557
214	0x3de55479	0.111977525
215	0x3e0df472	0.1386278

encoder1.features.0.bias f4 [8]
0	0xbde97ecf	-0.1140114
1	0x3e7cd7df	0.24691723
2	0xbd726648	-0.059179574
3	0x3e389608	0.18025982
4	0x3da8d063	0.082428716
5	0xbdedca85	-0.11610893
6	0x3df4507e	0.11929415
7	0x3d17d848	0.037071496

encoder1.features.1.weight f4 [8]
0	0x3f57b096	0.84253824
1	0x3f731f52	0.94969666
2	0x3f6d5469	0.92706925
3	0x3f80eedb	1.0072893
4	0x3f78672a	0.97032416
5	0x3f6bc3bf	0.9209556
6	0x3f73bc70	0.9520941
7	0x3f6bb2e9	0.9206987

encoder1.features.1.bias f4 [8]
0	0x3eaa7f6e	0.33300346
1	0xbe9b7d28	-0.30368924
2	0xbebdd0e0	-0.3707342
3	0x3ce5e489	0.028063076
4	0x3e222a9a	0.15836564
5	0x3e9fa96e	0.31183952
6	0xbe51b740	-0.2048006
7	0xbf2fd354	-0.68681836

encoder1.features.1.running_mean f4 [8]
0	0xbf7c36ae	-0.98520935
1	0x3f93700a	1.1518567
2	0x3f467362	0.7751981
3	0x3fa656ba	1.2995217
4	0xbf9616d6	-1.1725719
5	0xbf30441e	-0.6885394
6	0x3f8f3f73	1.1191238
7	0x3f6eafb1	0.93236834

encoder1.features.1.running_var f4 [8]
0	0x3e64abca	0.22331157
1	0x3e87c120	0.2651453
2	0x3e4b6752	0.19863632
3	0x3ed2e129	0.4118741
4	0x3ecd95a3	0.40153226
5	0x3dff2651	0.1245848
6	0x3e9729df	0.29524133
7	0x3e5d7ffb	0.21630852

encoder2.features.0.weight f4 [16, 8, 3, 3]
0	0xbdb2cefb	-0.08730885
1	0x3d83d6cf	0.06437456
2	0xbd716031	-0.058929626
3	0xbd9bc6da	-0.07606287
4	0xbdd05fd7	-0.1017453
5	0x3dbec365	0.09314612
6	0x3d43cd7a	0.04780338
7	0xbd7c3462	-0.061573394
8	0xbde9def9	-0.11419482
9	0xbd8cd678	-0.06876844
10	0xbdfccaf1	-0.123433955
11	0xbe2e4e25	-0.17021997
12	0xbe62ece9	-0.22160687
13	0xbe87dfae	-0.26537842
14	0xbe786a2e	-0.24259254
15	0xbe409e75	-0.18810447
16	0xbe7580fa	-0.23974982
17	0xbd5b91d6	-0.053605877
18	0xbdc482f1	-0.095952876
19	0xbe1c38d6	-0.15256056
20	0xbd8c5700	-0.068525314
21	0xbe46ea3e	-0.19425294
22	0xbe005e20	-0.12535906
23	0xbd5a8a9b	-0.05335484
24	0xbd206658	-0.039160103
25	0xbddf8c4f	-0.109154336
26	0xbd77cdbd	-0.06049894
27	0xbe4e6b12	-0.20158032
28	0xbe5c83f2	-0.21534708
29	0xbe4c9f9b	-0.1998276
30	0xbd5db390	-0.054126322
31	0xbe848545	-0.25882927
32	0xbdec520f	-0.11539089
33	0xbe1275fa	-0.14302817
34	0xbe724eb1	-0.23662831
35	0xbe095028	-0.13409483
36	0x3c917c1b	0.017759373
37	0x3cdfcd53	0.027319586
38	0xbd06ad85	-0.032880325
39	0xbd9f73f3	-0.077857874
40	0x3d850c73	0.06496515
41	0xbe09660f	-0.13417839
42	0xbda30a31	-0.07960928
43	0x3bbf2174	0.0058328453
44	0x3d8375f5	0.06418983
45	0x3dc79583	0.09745314
46	0x3d3d98fa	0.046288468
47	0xbc3baef3	-0.011455285
48	0xbdc4f55a	-0.096171096
49	0xbdbcefd1	-0.09225429
50	0xbda47bb9	-0.08031411
51	0x3c5542ff	0.013016461
52	0x3d44e057	0.04806551
53	0x3ca52a19	0.020161675
54	0xbbef9b27	-0.007312197
55	0xbe41fa28	-0.18943083
56	0xbda03ecd	-0.07824478
57	0xbdd6fa98	-0.10497016
58	0xbd9d19e1	-0.07670952
59	0xbd321812	-0.043479986
60	0xbd36e5cc	-0.044652745
61	0xbdd2d897	-0.102952175
62	0xbdaf8e86	-0.08572106
63	0xbdd6a9fa	-0.10481639
64	0xbdbd0437	-0.092293195
65	0xbe3a3665	-0.18184812
66	0xbe6441a6	-0.22290668
67	0xbe1d395f	-0.15353917
68	0xbd9c1eb4	-0.07623044
69	0xbdbea593	-0.093089245
70	0xbe50140e	-0.2032015
71	0xbe357a35	-0.177224
72	0x3e2b49b2	0.16727331
73	0x3e1ad80f	0.15121482
74	0x3de2cb15	0.11073891
75	0x3dc93d74	0.098261744
76	0xbd209ec6	-0.03921392
77	0x3d2437ab	0.04009215
78	0x3d62bca7	0.055355694
79	0x3e0dad66	0.13835678
80	0x3d81fb38	0.06346744
81	0xbd8d8aab	-0.069112144
82	0xbd8cb47a	-0.06870361
83	0x3da74f3a	0.08169408
84	0x3d2eb23c	0.042650446
85	0x3d650c35	0.055919845
86	0xbe047248	-0.1293422
87	0x3c85f2da	0.016351152
88	0xbd6ae8c2	-0.05735088
89	0xbc9cd18c	-0.019142888
90	0xbe2d4abb	-0.16923039
91	0xbb707a26	-0.00366939
92	0xbe42615b	-0.1898245
93	0x3d123056	0.035690628
94	0xbe320658	-0.17385232
95	0xbda9818b	-0.082766615
96	0xbe2229f5	-0.15836318
97	0xbcc350d5	-0.023842255
98	0xbd68ee2f	-0.056867775
99	0xbc9c08cf	-0.019047169
100	0x3ca4a425	0.020097801
101	0x3d96c0f2	0.0736102
102	0x3c676a7b	0.014124508
103	0xbd65f260	-0.05613935
104	0xbd16d57e	-0.036824696
105	0x3d547c83	0.051876556
106	0xbd03b7d5	-0.032157738
107	0xbc4dbd3b	-0.012557323
108	0x3d2ae571	0.04172272
109	0x3df43a55	0.119251885
110	0x3e2a73f7	0.166458
111	0xbd090405	-0.0334511
112	0x3d74aee2	0.059737094
113	0x3d8a0d2b	0.06740793
114	0x3d8a1a61	0.067433126
115	0x3dd8ef41	0.10592509
116	0xbc5e4c5d	-0.013568011
117	0x3d824e2f	0.063625686
118	0xbc86522d	-0.016396606
119	0x3d2c425b	0.04205547
120	0x3e3a528f	0.18195556
121	0xbce45dcf	-0.027876763
122	0x3da22830	0.079178214
123	0x3deb7993	0.11497798
124	0x3e0d65bc	0.1380834
125	0x3da8659b	0.08222505
126	0x3c1750fc	0.009235617
127	0xbe00364b	-0.12520711
128	0xbdd60797	-0.104506664
129	0xbd84b912	-0.06480612
130	0xbc803a32	-0.01565275
131	0x3d760721	0.060065392
132	0xbd36a865	-0.044594187
133	0xbe229f0d	-0.15880986
134	0xbd563ce5	-0.052304167
135	0x3ae84e94	0.0017723613
136	0x3db976a3	0.09055831
137	0xbd9669dc	-0.0734441
138	0xbd164259	-0.036684368
139	0xbd911211	-0.07083524
140	0xbdb21f6c	-0.086973995
141	0xbe0af3b7	-0.13569532
142	0xbe0e88a8	-0.13919318
143	0x3dce7281	0.10080434
144	0xbdb9b026	-0.09066801
145	0xbe0d3d27	-0.13792859
146	0x3d10c5e6	0.03534498
147	0xbe0e4a15	-0.13895448
148	0xbd61b889	-0.055107627
149	0xbce28757	-0.027652426
150	0x3d92f7e3	0.07176187
151	0xbe04163f	-0.12899111
152	0xbde02e2b	-0.10946306
153	0x3de76767	0.11299019
154	0x3e361a35	0.17783435
155	0x3e5874de	0.21138331
156	0x3d90bba7	0.07067042
157	0x3e46445a	0.19362012
158	0x3e563363	0.2091804
159	0x3e015e27	0.12633573
160	0x3e80a3b3	0.25124893
161	0x3e73ffc4	0.23828036
162	0x3cba2251	0.022721441
163	0x3e8cdbe1	0.27511504
164	0x3dd9be0a	0.1063195
165	0x3e0b457a	0.13600722
166	0x3ea33d60	0.31882763
167	0x3dc77f00	0.0974102
168	0xbd28dc0f	-0.04122549
169	0x3e83d853	0.2575098
170	0x3c8ff737	0.017573936
171	0x3e11748a	0.14204612
172	0x3e71a635	0.23598559
173	0xbd6459c7	-0.05574968
174	0x3dfd6734	0.123732
175	0x3e32f2e8	0.17475474
176	0x3e303e0e	0.17211172
177	0x3e1fb05c	0.1559462
178	0x3e4dfd90	0.20116258
179	0x3e48cd45	0.19609554
180	0x3d90597e	0.07048319
181	0xbdc150e9	-0.094392605
182	0xbd093195	-0.03349455
183	0x3d05993d	0.032616843
184	0x3d7a9cc0	0.061184645
185	0xbd878d68	-0.06618768
186	0x3d67d44f	0.056598958
187	0xbd53d799	-0.05171928
188	0xbca78222	-0.020447794
189	0xbdce5e27	-0.10076552
190	0xbd50a682	-0.050940044
191	0xbdba46fb	-0.0909557
192	0xbd5fcd4b	-0.054639142
193	0xbc67172b	-0.014104645
194	0x3da5d875	0.080979265
195	0x3d4f0697	0.050543394
196	0x3d64b0fa	0.05583284
197	0x3cb2cb04	0.021825321
198	0x3db86cf8	0.09005159
199	0x3e659bdd	0.22422738
200	0xbd94ae58	-0.07259816
201	0x3c9af2b4	0.018914558
202	0x3e92a339	0.28640154
203	0x3e149e71	0.14513566
204	0x3d9d522d	0.076816894
205	0x3e0ddc25	0.1385351
206	0x3e01ff07	0.12694941
207	0x3e367db4	0.1782139
208	0x3e67ca9e	0.22635886
209	0x3d7bf806	0.06151583
210	0x3e376b82	0.17912105
211	0x3e041696	0.12899241
212	0x3d716df0	0.058942735
213	0x3dd0fb78	0.10204214
214	0x3e8fc8c3	0.28082857
215	0x3e20fa12	0.15720394
216	0x3e5b6c3f	0.21428011
217	0x3dc41782	0.09574796
218	0x3defad45	0.117029704
219	0x3dc2026b	0.094731174
220	0x3d85e754	0.06538263
221	0x3de1a574	0.11017886
222	0x3e20147b	0.15632813
223	0x3e922f47	0.28551695
224	0x3e49358c	0.19649333
225	0x3e0d7b28	0.13816512
226	0x3cf76c06	0.030202877
227	0x3e0a3e70	0.1350038
228	0x3d6b20d5	0.057404358
229	0x3e511c51	0.20420958
230	0x3e443e9a	0.19164506
231	0xbe203738	-0.15646064
232	0x3dad2565	0.08454398
233	0x3c94ac68	0.018148616
234	0x3d65b041	0.056076292
235	0x3e00c0fc	0.12573618
236	0x3d979979	0.074023195
237	0x3e35e7f4	0.17764264
238	0x3e12e6bf	0.14345835
239	0x3d44df32	0.048064418
240	0xbcf72bfe	-0.030172344
241	0x3e4df663	0.2011352
242	0x3d66dad1	0.056361023
243	0x3e2447dd	0.16043039
244	0x3e7694b3	0.24080162
245	0x3de55684	0.11198142
246	0x3e26ac8b	0.16276757
247	0x3e8a9686	0.27067965
248	0x3d8ca4fa	0.06867404
249	0x3e2b8ccc	0.16752928
250	0x3e1690a7	0.14703618
251	0xbc553fce	-0.0130157005
252	0x3e66479c	0.22488254
253	0x3e5f4fc5	0.21807773
254	0x3e257767	0.1615883
255	0x3e290c9c	0.16508716

encoder2.features.0.bias f4 [16]
0	0xbd5c458f	-0.053777274
1	0xbdb8fa7c	-0.09032151
2	0xbc9da512	-0.01924375
3	0xbd19e56c	-0.03757231
4	0xbc234aa8	-0.00996653
5	0x3ca54368	0.020173743
6	0x3d1c0fe5	0.038101096
7	0xbdd4ae11	-0.10384763
8	0xbdd8915f	-0.10574602
9	0x3d9dbdba	0.07702203
10	0xbccd6ff5	-0.0250778
11	0xbdeec290	-0.116582036
12	0xbd94c80f	-0.07264721
13	0xbda2885e	-0.07936166
14	0x3dbffa79	0.09373946
15	0x3cfbb3f1	0.030725451

encoder2.features.1.weight f4 [16]
0	0x3f6179b7	0.8807635
1	0x3f7c819c	0.9863527
2	0x3f7d95d0	0.9905672
3	0x3f8deb8c	1.1087508
4	0x3f579808	0.84216356
5	0x3f49446b	0.7862002
6	0x3f802e1f	1.0014075
7	0x3f6e12c8	0.9299741
8	0x3f4c4d8a	0.79805815
9	0x3f578cb9	0.841991
10	0x3f7a3eef	0.9775228
11	0x3f83a4fa	1.0284722
12	0x3f31f8e2	0.6952039
13	0x3f5b5798	0.8568053
14	0x3f4ce3ad	0.80034906
15	0x3f9d7e36	1.2304142

encoder2.features.1.bias f4 [16]
0	0x3dbad481	0.09122563
1	0x3d1f5c66	0.038906477
2	0xbedc33bb	-0.43008217
3	0xbedb08a6	-0.42780036
4	0xbe80c4a4	-0.25150025
5	0xbdcf4da1	-0.101222284
6	0xbbb2e784	-0.0054597277
7	0xbe878904	-0.26471722
8	0xbe776c75	-0.24162467
9	0xbf0f1b11	-0.55900675
10	0x3e73f9aa	0.23825708
11	0x3e03adc1	0.1285925
12	0xbf3f9a17	-0.748445
13	0xbd1faae4	-0.038981333
14	0xbe5eebdc	-0.2176966
15	0xbeb7e96c	-0.35920274

encoder2.features.1.running_mean f4 [16]
0	0xc007b91c	-2.1206732
1	0x3f0c8fb0	0.5490675
2	0x3fbc7d79	1.4725791
3	0x4081f429	4.0610547
4	0x3ec0aa76	0.3763005
5	0x3e9997ca	0.29998618
6	0xbf5c7682	-0.8611833
7	0x3eb17143	0.34656724
8	0xbe0fe2db	-0.14051382
9	0x3f88e03d	1.0693432
10	0xc0059e48	-2.0877857
11	0xbecb53db	-0.39712414
12	0x3ea2cc5c	0.3179654
13	0xbf735cbb	-0.9506337
14	0x3eb008c6	0.34381694
15	0x3f577a23	0.8417074

encoder2.features.1.running_var f4 [16]
0	0x40b31dd5	5.5973916
1	0x4038a492	2.8850446
2	0x4113caa8	9.236977
3	0x40a2a7c3	5.0829787
4	0x3ffe7300	1.9878845
5	0x400b3e0c	2.175662
6	0x409d7ca2	4.921464
7	0x4036ba8d	2.8551362
8	0x4030593d	2.7554467
9	0x3f1756e6	0.5911697
10	0x4014e7f6	2.3266578
11	0x4048a0cf	3.134815
12	0x40ecc1f4	7.398676
13	0x40c3aa3b	6.11453
14	0x3ecb21c8	0.3967421
15	0x3fdc7d1f	1.7225684

encoder3.features.0.weight f4 [32, 16, 3, 3]
0	0x3dd8684d	0.10566769
1	0x3e2731e0	0.1632762
2	0x3d22db72	0.03976006
3	0x3dc8662c	0.09785113
4	0x3c8a71f2	0.016900036
5	0x3dc97256	0.09836261
6	0x3d80445f	0.06263041
7	0x3e00e2b8	0.12586486
8	0x3e10213b	0.14075176
9	0xbd95604e	-0.07293759
10	0xbd86c24d	-0.06580029
11	0xbd7d4cdc	-0.061840877
12	0x3d5eddf8	0.054410905
13	0x3d161ea7	0.036650326
14	0xbdbb4f0c	-0.09145936
15	0x3ca27755	0.019832293
16	0x3d087c5b	0.03332172
17	0xbccb15a1	-0.024790587
18	0xbdd760e6	-0.10516529
19	0x3d51955f	0.051167842
20	0x3cdfb7c2	0.027309302
21	0xbd7581d8	-0.05993828
22	0xbd92cc3e	-0.07167862
23	0xbe17f2d6	-0.14838728
24	0xbcf9b90d	-0.030483747
25	0xbd29dbe3	-0.041469466
26	0xbc5ddafb	-0.013540979
27	0xbd3f5a17	-0.046716776
28	0xbd813e37	-0.06310695
29	0xbd03d7e0	-0.032188296
30	0xba74715a	-0.0009324752
31	0xbd5add4a	-0.053433694
32	0xbd8a604b	-0.06756648
33	0xbd792b25	-0.06083216
34	0xbd9ea48a	-0.07746227
35	0xbc174d6e	-0.009234769
36	0xbd4012d5	-0.04689296
37	0x3cefdc7b	0.029279938
38	0x3ca369fa	0.019947995
39	0xbdbad087	-0.09121805
40	0xbd9fce91	-0.07803071
41	0xbddad0b3	-0.106843375
42	0xbdfc4ea2	-0.123196855
43	0xbd3605d3	-0.04443915
44	0xbcdcf975	-0.02697442
45	0x3da53516	0.08066766
46	0x3d908e20	0.07058358
47	0x3d8d43b5	0.0689768
48	0x3d1a54d1	0.037678543
49	0x3d9afbdb	0.07567569
50	0x3df4743d	0.11936233
51	0x3e0e2b92	0.13883808
52	0x3d17998c	0.037011668
53	0x3de9eb04	0.11421779
54	0xbd17db65	-0.037074465
55	0xbd0ac1d2	-0.033876248
56	0x3d269b8d	0.04067569
57	0xbdee2f5f	-0.11630129
58	0x3c9becc2	0.019033793
59	0xbdcc4acd	-0.099752046
60	0xbbb56d76	-0.0055367304
61	0xbdcf28b7	-0.101151876
62	0xbd458bd2	-0.048229046
63	0xbc94b57c	-0.018152945
64	0x3b9c8506	0.0047766
65	0x3b6f37b4	0.0036501708
66	0xbd5fc6e0	-0.05463302
67	0xbd8e5fc3	-0.06951859
68	0xbc8d76f8	-0.017268643
69	0xbd903e3c	-0.0704312
70	0x3cb32bbe	0.021871444
71	0x3d4183f8	0.047244996
72	0xbd3fc8e5	-0.046822447
73	0x3cb6a9bf	0.022297738
74	0x3c9841f2	0.018586133
75	0xbdd60327	-0.1044982
76	0xbdfcb509	-0.12339217
77	0xbce2f113	-0.027702844
78	0xbdf20383	-0.11817076
79	0xbd1ae158	-0.03781256
80	0x3d6f0884	0.05835773
81	0x3c347f91	0.011016742
82	0xbd77047e	-0.06030702
83	0xbdf284a7	-0.11841708
84	0xbe1c05ed	-0.15236636
85	0xbdcceb9b	-0.10005876
86	0xbe2f13e1	-0.17097427
87	0xbd43857b	-0.04773472
88	0x3b795435	0.0038044576
89	0xbd92a4a4	-0.07160309
90	0x3e2e70e2	0.17035249
91	0x3cf03c54	0.029325642
92	0x3e147323	0.14497046
93	0x3cfce653	0.030871546
94	0x3e3ab9a7	0.18234883
95	0x3e2ea04d	0.17053337
96	0x3d053f3c	0.032531008
97	0x3e16f825	0.14743097
98	0x3e280e72	0.1641176
99	0x3d98d2ec	0.07462105
100	0x3d91073e	0.070814595
101	0x3d5c3d60	0.05376947
102	0xbd9010de	-0.07034467
103	0xbd968bfd	-0.073509194
104	0x3ce7df18	0.028304622
105	0xbcead104	-0.02866412
106	0xbd2f9f1c	-0.042876348
107	0xbd645265	-0.05574264
108	0xbd3e5389	-0.046466384
109	0xbd3cc8ae	-0.04608982
110	0x3aafcf93	0.0013413302
111	0xbe09b904	-0.13449484
112	0xbd783517	-0.060597505
113	0x3b1517fa	0.0022749887
114	0xbc55f8c1	-0.013059796
115	0x3db8b5d2	0.090190545
116	0x3da0ab44	0.07845166
117	0xbd8dd6f4	-0.06925765
118	0xbdfd07d1	-0.123550065
119	0xbd6c93cf	-0.05775815
120	0xbbd80999	-0.006592941
121	0xbde626d7	-0.11237877
122	0xbd0d0862	-0.034431823
123	0xbdbdd20b	-0.09268578
124	0x3b0d51fd	0.0021563761
125	0xbcd47570	-0.025934905
126	0xbda0da73	-0.07854166
127	0xbda8eb5c	-0.08248016
128	0xbd750093	-0.059815
129	0xbcb689b7	-0.022282464
130	0xbdd0f073	-0.10202112
131	0xbd628511	-0.055302683
132	0xbdaefb07	-0.085439734
133	0x3cfb7760	0.03069657
134	0xbcd74ed8	-0.026282713
135	0xbd32318e	-0.04350429
136	0x3d42f5a4	0.047597542
137	0xbd8ca8b6	-0.068681166
138	0xbd67cb19	-0.056590173
139	0xbdf2042b	-0.11817201
140	0xbabf27b3	-0.0014583975
141	0x3d08e777	0.033423867
142	0x3dcd8348	0.100348055
143	0x3d8ce4f3	0.06879606
144	0xbc70560d	-0.014668954
145	0xbd5704ad	-0.052494694
146	0xbe0a6610	-0.13515496
147	0xbd9ef3bf	-0.07761335
148	0x3cfc3784	0.03078819
149	0xbd8561fa	-0.06512828
150	0xbd21fc55	-0.039547283
151	0xbd9f68b2	-0.07783641
152	0xbda31fc1	-0.07965041
153	0xbe1991b8	-0.14996994
154	0xbe0cbbd4	-0.13743526
155	0xbdd369a9	-0.103228875
156	0xbe0287d6	-0.1274713
157	0xbdb1f8e8	-0.08690053
158	0xbdcf25b7	-0.101146154
159	0xbddb3b84	-0.10704711
160	0xbd202dec	-0.039106295
161	0xbd8b223e	-0.067936406
162	0xbbd7db24	-0.006587403
163	0xbd92cead	-0.071683265
164	0xbe2c7648	-0.16841996
165	0xbdb0b0be	-0.08627461
166	0xbdd9ab0b	-0.10628327
167	0xbc9ff34f	-0.019525198
168	0xbd92c4d3	-0.071664475
169	0xbd8ef3f0	-0.06980121
170	0xbcfd8170	-0.03094551
171	0xbc1462a1	-0.009056718
172	0xbd18e3fe	-0.037326805
173	0xbd97f8aa	-0.07420476
174	0xbe0f85dd	-0.14015909
175	0xbd654ae4	-0.055979624
176	0x3be82d33	0.0070854663
177	0x3abed1e1	0.0014558398
178	0xbd8f0d89	-0.069850035
179	0x3c5bdfc9	0.013420054
180	0xbdf8302f	-0.12118565
181	0xbdeb6da4	-0.11495522
182	0xbd0c746a	-0.03429071
183	0xbe050000	-0.12988281
184	0xbe1cb4d0	-0.1530335
185	0xbd525b83	-0.051356804
186	0xbe151798	-0.14559782
187	0x3a6fa219	0.0009141281
188	0xbc989649	-0.018626349
189	0xbdbe8019	-0.093017764
190	0xbcc691b9	-0.024239408
191	0xbda1a109	-0.07892043
192	0xbdaa2914	-0.08308616
193	0xbd91281a	-0.07087727
194	0xbd1f038d	-0.038821746
195	0x3b7cf6a5	0.003859916
196	0xbe0ac266	-0.1355072
197	0x3b77679e	0.003775097
198	0xbdf064a8	-0.11737949
199	0xbd2d534c	-0.042315766
200	0xbcc5eac9	-0.024159806
201	0xbd4cf197	-0.050035086
202	0xbddcb6cf	-0.107770555
203	0xbdeae309	-0.11469085
204	0x3d63a0fa	0.05557344
205	0xbd28b129	-0.041184578
206	0xbc016c05	-0.007899289
207	0xbd4eb155	-0.050462086
208	0xbd275bf5	-0.04085918
209	0xbd667ba5	-0.05627026
210	0x3d88eba4	0.0668557
211	0x3d003997	0.031304922
212	0x3d270127	0.040772583
213	0xbcad69f5	-0.021168688
214	0xbd77c70b	-0.060492557
215	0x3d546c4c	0.051861092
216	0xbe1b6e9e	-0.15178916
217	0xbdea4c59	-0.114403434
218	0xbe285907	-0.16440211
219	0xbe1412c7	-0.14460288
220	0xbd8c9410	-0.06864178
221	0xbbd8d5f3	-0.0066173016
222	0xbdfd73ed	-0.12375627
223	0xbd98696e	-0.07441984
224	0x3b85ba44	0.0040810425
225	0xbcec4ed1	-0.028846176
226	0xbe2c71d6	-0.168403
227	0xbdf41451	-0.119179375
228	0xbd03bda0	-0.032163262
229	0xbbbafc40	-0.00570634
230	0xbdeb7850	-0.11497557
231	0xbd92d6c8	-0.071698725
232	0xbce662a4	-0.028123207
233	0xbc70ce9e	-0.014697699
234	0xbd315f07	-0.043303516
235	0xbe01372d	-0.12618704
236	0xbd1420fd	-0.036164273
237	0xbc690a2f	-0.014223619
238	0xbdb1c1c2	-0.086795345
239	0xbdb21b33	-0.08696594
240	0xbd865edb	-0.06561061
241	0xbdb33417	-0.0875017
242	0x3c9a8fe5	0.018867442
243	0xbe09efff	-0.13470457
244	0xbdc05708	-0.093916
245	0x3cced266	0.02524681
246	0x3cc074c8	0.023493186
247	0xbdada523	-0.08478763
248	0x3c56221b	0.013069655
249	0x3bf982a9	0.007614453
250	0xbd38b57a	-0.045094945
251	0xbd45f538	-0.048329562
252	0xbd7618af	-0.060082134
253	0x3da1a41f	0.07892632
254	0x3d8ab3bb	0.06772562
255	0x3dc60ff5	0.09671012

encoder3.features.0.bias f4 [32]
0	0x3bf4484d	0.007454908
1	0x3d8eac30	0.06966436
2	0x3c9c29c1	0.019062879
3	0x3b4cab2d	0.0031229958
4	0x3bfb67ff	0.0076723094
5	0x3da1b9c5	0.07896761
6	0x3d052381	0.032504562
7	0xbd514a4c	-0.051096246
8	0xbd543b31	-0.05181426
9	0xbbd51bd0	-0.0065035596
10	0xbd9ae396	-0.0756294
11	0xbd879675	-0.06620494
12	0xbcfd5828	-0.030925825
13	0xbaaf1698	-0.0013358174
14	0x3d643eca	0.055723943
15	0x3c9c872c	0.019107424
16	0x3b9d740b	0.004805093
17	0x3d174598	0.036931604
18	0x3c0a9916	0.00845935
19	0xbd81bc1c	-0.06334707
20	0x3d763400	0.060108185
21	0xbda1249c	-0.07868311
22	0x3c26c570	0.010178909
23	0x3d9e393a	0.07725759
24	0xbce784b1	-0.028261514
25	0xbd935fa4	-0.071959764
26	0xbd79cf22	-0.060988553
27	0x3d3317ff	0.043724056
28	0x3d631f5e	0.055449836
29	0x3d916e37	0.071011
30	0xbd1fb056	-0.038986526
31	0x3d8b0034	0.06787148

encoder3.features.1.weight f4 [32]
0	0x3f68c14f	0.90919966
1	0x3f6b1f8b	0.91845006
2	0x3f99c109	1.2012035
3	0x3f4fdfe5	0.8120101
4	0x3f6ce70a	0.9254004
5	0x3f861631	1.0475522
6	0x3f6f7594	0.93538785
7	0x3f8c1a11	1.0945455
8	0x3f86527c	1.0493922
9	0x3f748ec7	0.9553036
10	0x3f59da4f	0.8509874
11	0x3f90555f	1.1276053
12	0x3f83c78e	1.0295274
13	0x3f6bc7e5	0.9210189
14	0x3f791e92	0.9731227
15	0x3f67c5d8	0.9053626
16	0x3f567530	0.83772564
17	0x3f8338d4	1.0251718
18	0x3f6516d3	0.8948795
19	0x3f533a61	0.82510954
20	0x3f84b514	1.0367761
21	0x3f8a3533	1.0797485
22	0x3f9c8820	1.2229042
23	0x3f3e5df0	0.7436209
24	0x3f9dabcf	1.2318057
25	0x3f629fbb	0.8852498
26	0x3f6a7925	0.915911
27	0x3f8f5d87	1.1200417
28	0x3f9326fd	1.1496273
29	0x3f3e7d23	0.74409693
30	0x3f398482	0.72467816
31	0x3f877b73	1.0584549

encoder3.features.1.bias f4 [32]
0	0x3e141da1	0.14464428
1	0xbe82380f	-0.25433394
2	0xbee46594	-0.44608748
3	0xbea6894c	-0.32526624
4	0x3e2e1093	0.1699851
5	0x3d6f8af7	0.058482137
6	0xbd365e91	-0.04452378
7	0xbed2fbda	-0.41207772
8	0xbef3eba3	-0.47640714
9	0x3e24a114	0.16077071
10	0xbea344ea	-0.31888515
11	0x3d428ec3	0.04749943
12	0x3efba5ef	0.49150035
13	0x3e52f841	0.20602514
14	0xbe9001ae	-0.28126281
15	0x3e0929a3	0.1339479
16	0xbd92d305	-0.07169155
17	0x3edb06a5	0.42778507
18	0xbe5e6133	-0.21716766
19	0xbe296eaa	-0.16546121
20	0x3e54df10	0.20788217
21	0xbdad6adf	-0.0846765
22	0xbeb0f41a	-0.34561235
23	0xbde05992	-0.10954584
24	0xbf15eb44	-0.5856211
25	0xbd870a82	-0.06593801
26	0xbe4c76cf	-0.19967197
27	0x3ec0a8e0	0.3762884
28	0xbd765990	-0.060144007
29	0xbda8496b	-0.08217128
30	0xbe5ad483	-0.2137013
31	0x3f692b71	0.9108191

encoder3.features.1.running_mean f4 [32]
0	0xbdbf5643	-0.09342625
1	0xc0209107	-2.5088518
2	0x3fd10263	1.6328853
3	0x3f8f49fc	1.1194453
4	0xbfbd65cd	-1.4796692
5	0xbf86c863	-1.0529903
6	0xbeccbf51	-0.39989713
7	0x405ffd6f	3.4998434
8	0x3fe3070a	1.7736523
9	0xbf30be46	-0.69040334
10	0xbf6d256c	-0.92635226
11	0xbfa4e985	-1.2883765
12	0xbfc767c6	-1.5578544
13	0x3f2027bf	0.6256065
14	0x3fe16879	1.7610008
15	0x3e77b333	0.24189453
16	0xbf07068e	-0.52744377
17	0xbefec256	-0.49757642
18	0xbf59ee4c	-0.8512924
19	0xbf243d1a	-0.64155734
20	0xbe8763ed	-0.26443425
21	0x3f32eb6f	0.69890493
22	0x3f754808	0.95813036
23	0x3f868349	1.0508815
24	0x40325dce	2.7869754
25	0x3e907ae0	0.28218746
26	0x3e9d2f6e	0.30700248
27	0xbf7d56ce	-0.9896058
28	0x4063929d	3.5558236
29	0x3f9025a4	1.1261487
30	0xbff0eb50	-1.8821812
31	0xc045d23c	-3.0909567

encoder3.features.1.running_var f4 [32]
0	0x407aaaad	3.9166672
1	0x4000575f	2.0053327
2	0x3f527022	0.8220235
3	0x3f968d2e	1.1761835
4	0x400c910a	2.1963525
5	0x40ab845c	5.359907
6	0x3f3bd856	0.7337698
7	0x40a4dd39	5.1520047
8	0x40a4f1fb	5.1545386
9	0x40deb0a0	6.9590607
10	0x407ee34f	3.9826238
11	0x400e6a51	2.225239
12	0x412bb2f9	10.7311945
13	0x4022eb49	2.5456107
14	0x403a619d	2.9122078
15	0x4034c038	2.824232
16	0x40f0183f	7.5029597
17	0x40a59a06	5.1750517
18	0x4000ecc5	2.0144513
19	0x4035abee	2.8386188
20	0x403ce41d	2.951423
21	0x4071bee4	3.777276
22	0x3f68a640	0.9087868
23	0x40867ea2	4.202958
24	0x40e8deb5	7.277186
25	0x400c0e15	2.1883595
26	0x40a754fb	5.2291236
27	0x410e1dae	8.882246
28	0x4137897a	11.471064
29	0x3fff99a4	1.9968762
30	0x40e6c844	7.2119465
31	0x410f7861	8.966889

decoder3.features.1.weight f4 [16, 32, 3, 3]
0	0xbd23155e	-0.0398153
1	0xbde13219	-0.109958835
2	0xbd97f9d1	-0.074206956
3	0xbd185e28	-0.03719917
4	0xbc9b1099	-0.018928813
5	0xbd2adba6	-0.04171338
6	0xbd04d235	-0.03242703
7	0xbd12a888	-0.035805255
8	0xbce96ffc	-0.028495781
9	0x3df1b70f	0.11802494
10	0x3d12ba46	0.035822175
11	0x3dae136f	0.084998004
12	0x3e047e29	0.12938751
13	0x3ddcef4a	0.10787828
14	0x3df9625e	0.12176965
15	0x3d92043f	0.07129716
16	0x3d327ccd	0.04357605
17	0x3df3757f	0.11887645
18	0xbdc56882	-0.09639074
19	0xbdbf155b	-0.09330245
20	0xbb7a7c4e	-0.0038221064
21	0xbd35fbe7	-0.044429686
22	0xbd5337c3	-0.05156685
23	0xbdbba170	-0.09161651
24	0xbd5b789f	-0.05358183
25	0xbda3cda4	-0.07998207
26	0xbde14f73	-0.11001482
27	0xbddcb17a	-0.107760385
28	0xbd94ffba	-0.072753385
29	0xbcf6e3d3	-0.030137932
30	0xbddea58e	-0.10871421
31	0xbc63f604	-0.013913635
32	0xbda2e745	-0.079542674
33	0xbd83fdd2	-0.06444897
34	0xbd8adde7	-0.06780606
35	0xbd256ac8	-0.040385038
36	0xbcaaa283	-0.020829445
37	0xbcdd545a	-0.027017761
38	0xbd49b723	-0.04924692
39	0xbda8131e	-0.08206771
40	0xbd98d652	-0.07462753
41	0xbb82f31e	-0.003996267
42	0xbc1ef45b	-0.009701814
43	0xbd1d8fbe	-0.03846716
44	0xbd1df3ee	-0.038562708
45	0xbdcfc269	-0.10144503
46	0xbd971495	-0.073769726
47	0xbd419872	-0.047264524
48	0xbd66a05c	-0.056305274
49	0xbd903975	-0.07042209
50	0xbc804b16	-0.015660804
51	0xbdaadddb	-0.08343097
52	0xbd473728	-0.048636585
53	0xbc9fdd1a	-0.01951461
54	0x3dab35b9	0.08359856
55	0x3de4c218	0.11169833
56	0x3db8a34f	0.09015524
57	0x3cfd3f73	0.030914044
58	0x3dcf9cce	0.1013733
59	0x3def58bf	0.11686849
60	0x3cb9b30f	0.02266839
61	0x3d844a6a	0.06459506
62	0x3dc048d7	0.09388893
63	0xbd76eba3	-0.060283314
64	0xbc426e58	-0.011867128
65	0xbd146c50	-0.036236107
66	0xbdbd57af	-0.0924524
67	0xbd8c5157	-0.06851452
68	0xbde16b91	-0.11006845
69	0xbdda55e7	-0.10660916
70	0xbde4045f	-0.11133646
71	0xbe008569	-0.12550892
72	0xbe0e297a	-0.1388301
73	0xbe0123f2	-0.12611368
74	0xbe0f25eb	-0.13979308
75	0xbd51bede	-0.051207416
76	0xbe1296c5	-0.14315327
77	0xbdc46c02	-0.09590913
78	0xbd4fcbfd	-0.050731648
79	0xbd20daa7	-0.039271023
80	0xbdf557d8	-0.119796455
81	0xbd6c8f08	-0.057753593
82	0xbcd73741	-0.026271464
83	0xbce39d70	-0.027785033
84	0xbddabc1b	-0.106804095
85	0xbd3aa4a2	-0.045567162
86	0xbdafe9c0	-0.08589506
87	0xbdbc3fe8	-0.09191877
88	0xbd89f6cd	-0.06736527
89	0xba815d3d	-0.0009869706
90	0x3d50ab20	0.050944448
91	0xbc8d7b48	-0.0172707
92	0x3d7d98e7	0.061913397
93	0xbc3f3778	-0.01167094
94	0x3db4c9a9	0.08827526
95	0x3da4e506	0.08051495
96	0x3d809370	0.062781215
97	0x3c12761a	0.00893929
98	0x3d4c52b8	0.049883574
99	0x3c9f7599	0.019465255
100	0x3c00d0ea	0.007862309
101	0x3cf474d0	0.029840857
102	0x3d5e2a63	0.054239642
103	0x3d9a7229	0.075413056
104	0x3de25c4e	0.11052762
105	0x3d82bc85	0.063836135
106	0x3cbe19f6	0.023205739
107	0x3d3dfe89	0.04638532
108	0xbcf79227	-0.030221058
109	0x3c48ffbb	0.012268002
110	0x3bdf7c08	0.0068202056
111	0xbd432746	-0.047644876
112	0xbdb2bec5	-0.08727793
113	0x3a3c37ea	0.00071799627
114	0xbd2ee2fc	-0.042696938
115	0xbd8885b2	-0.06666125
116	0xbbcdb74b	-0.0062779537
117	0xbda1c64a	-0.07899149
118	0xbcaf0dff	-0.021368979
119	0xbc1d24bc	-0.009591278
120	0xbdc08e2e	-0.094021186
121	0xbdbeadb8	-0.09310478
122	0xbd88cc7b	-0.066796266
123	0xbccb98d1	-0.024853142
124	0xbde67a2f	-0.112537734
125	0xbcf79f14	-0.030227222
126	0xbdcdbcb9	-0.100457616
127	0xbdf0f7d5	-0.1176602
128	0xbd7d3570	-0.06181854
129	0xbd83100f	-0.06399547
130	0xbda11d9b	-0.07866975
131	0xbd6cf0c4	-0.0578468
132	0xbd44c7c9	-0.048042092
133	0xbc8c43d6	-0.01712219
134	0xbcef43be	-0.029207107
135	0xbd8a851b	-0.06763669
136	0xbd9f9029	-0.07791168
137	0xbd95dcb8	-0.073174894
138	0xbd49b77e	-0.049247257
139	0xbe0a822b	-0.13526218
140	0xbe0de8f1	-0.13858391
141	0xbde7f5eb	-0.11326202
142	0xbdb9a98f	-0.09065544
143	0xbd2ea494	-0.042637423
144	0x3d614f14	0.055007055
145	0x3c54129e	0.012943892
146	0x3d8c6994	0.06856075
147	0x3db9e877	0.09077542
148	0x39f1cbf7	0.00046119068
149	0x3db239e6	0.087024495
150	0x3c474262	0.012161823
151	0x3d83e83e	0.06440781
152	0x3d890819	0.06690998
153	0xbd67e8a2	-0.05661834
154	0xbda0691d	-0.07832549
155	0xbcd0a72f	-0.025470344
156	0xbd58abb3	-0.05289812
157	0xbc5f8f65	-0.013645028
158	0xbcc38e5f	-0.023871599
159	0xbd502dcb	-0.05082492
160	0xbdadf8b7	-0.08494704
161	0xbde3164b	-0.110882364
162	0xbc6653a8	-0.014058031
163	0xbc9f93db	-0.019479683
164	0xbd804248	-0.06262642
165	0xbce3ec9b	-0.027822783
166	0xbd34cc23	-0.044139992
167	0xbc693734	-0.014234353
168	0xbd48a9f5	-0.04899021
169	0xbd49edad	-0.04929893
170	0xbc4b1725	-0.012395655
171	0x3c8870b8	0.016655311
172	0x3d8271f5	0.06369392
173	0x3d982108	0.07428175
174	0x3cdfa85a	0.027301956
175	0x3d924cde	0.071435675
176	0x3c97fba8	0.018552616
177	0x3d9d4ccd	0.07680664
178	0x3da73aac	0.08165488
179	0xba3370d9	-0.0006845124
180	0xbd45a74b	-0.048255246
181	0xbd927c70	-0.07152641
182	0xbd1690f9	-0.03675935
183	0xbd912fa0	-0.07089162
184	0xbd8a600c	-0.06756601
185	0xbdba0420	-0.09082818
186	0xbc3e01cd	-0.011597109
187	0x3ba99c7c	0.005176125
188	0xbbc99a53	-0.00615243
189	0xbdf539ae	-0.11973892
190	0xbd4f953a	-0.050679423
191	0xbdb1d4bb	-0.08683153
192	0xbd571baf	-0.052516636
193	0xbd9632c3	-0.07333901
194	0xbd828715	-0.06373421
195	0xbdff58b6	-0.12468092
196	0xbd67fd73	-0.056638192
197	0xbd28863c	-0.04114364
198	0xbdc865f5	-0.09785072
199	0xbcfd1451	-0.030893477
200	0xbdc5984e	-0.096481904
201	0xbdb07224	-0.086155206
202	0xbdeb869a	-0.115002826
203	0xbd7a3778	-0.061088055
204	0xbdc510b5	-0.09622327
205	0xbd2a7431	-0.041614715
206	0xbde4ec38	-0.11177868
207	0x3d3e3a5e	0.046442382
208	0x3bbf8622	0.0058448473
209	0x3d97cefe	0.074125275
210	0x3db813ed	0.089881755
211	0x3d68d12a	0.0568401
212	0x3d840b69	0.06447489
213	0x3da20dff	0.07912826
214	0x3b1044bb	0.0022013623
215	0x3caddf4b	0.021224638
216	0xbdc400b5	-0.09570447
217	0xbd886a57	-0.06660908
218	0xbdea3ec5	-0.114377536
219	0xbd54f94d	-0.051995564
220	0xbda9eed7	-0.08297508
221	0xbdb9b5f0	-0.09067905
222	0xbddd5ecc	-0.10809097
223	0xbdda7f73	-0.1066884
224	0xbdebad1b	-0.115076266
225	0x3d8801e5	0.06640986
226	0x3dc2996d	0.0950192
227	0x3d93d642	0.07218601
228	0x3d87800a	0.066162184
229	0x3d0b2c0b	0.03397755
230	0x3dc6c87b	0.09706207
231	0x3bb7ef01	0.0056132083
232	0x3c73cbb8	0.014880113
233	0x3db96ee3	0.09054353
234	0x3db0d0f7	0.08633607
235	0x3d057d8a	0.032590427
236	0xbd14bf11	-0.036315028
237	0xbcd3b5b0	-0.025843471
238	0xbd9ec7cb	-0.07752951
239	0xbc431ad0	-0.011908248
240	0xbda5197a	-0.080615
241	0xbd89abd1	-0.067222245
242	0xbdb179c2	-0.086658016
243	0xbd852120	-0.06500459
244	0xbc580793	-0.0131854
245	0xbb49127f	-0.003068119
246	0xbd69f089	-0.057114158
247	0xbda21389	-0.07913882
248	0x3c89020e	0.016724613
249	0xbc109313	-0.008824128
250	0x3bc5aefe	0.0060328236
251	0xbc730c54	-0.014834482
252	0xbdef8e5a	-0.11697073
253	0xbd6a6842	-0.057228334
254	0xbd9943f5	-0.07483665
255	0xbde1b769	-0.11021311

decoder3.features.1.bias f4 [16]
0	0x3a37cf0e	0.00070117495
1	0x3d4f60f9	0.05062959
2	0x3c541af9	0.012945884
3	0xbd4e8896	-0.050423227
4	0xbd27c7bf	-0.040961977
5	0xbd0c26ea	-0.0342168
6	0x3d1223dd	0.035678733
7	0xbd43b4ab	-0.04777972
8	0xbd6eafcc	-0.05827312
9	0x3c0b76b3	0.008512187
10	0x3cedcc9a	0.029028226
11	0x3d06894a	0.032845773
12	0xbccecc47	-0.025243891
13	0x3d720bf4	0.05909343
14	0xbd101640	-0.03517747
15	0xbc8396f1	-0.016063185

decoder3.features.2.weight f4 [16]
0	0x3f87e2cd	1.0616089
1	0x3f62f3b7	0.8865313
2	0x3f50a0f3	0.8149559
3	0x3f67cd76	0.90547884
4	0x3f888778	1.0666342
5	0x3faf8deb	1.3715185
6	0x3f4c3348	0.7976575
7	0x3f8317ae	1.0241601
8	0x3f8e4eed	1.1117836
9	0x3fb75012	1.432131
10	0x3f9f2133	1.2432007
11	0x3f6b8e0f	0.9201364
12	0x3f6b7754	0.91978955
13	0x3f96405f	1.1738394
14	0x3f86324e	1.0484102
15	0x3f81de75	1.0146013

decoder3.features.2.bias f4 [16]
0	0x3e1d65a6	0.15370807
1	0xbec602f4	-0.38674128
2	0xbe8d5800	-0.276062
3	0xbdb18edc	-0.086698264
4	0x3d958da8	0.073024094
5	0xbeccb958	-0.39985156
6	0xbdf8379b	-0.12119981
7	0xbdfdf389	-0.12399966
8	0x3ee2eba4	0.44320405
9	0xbf2cad86	-0.67452276
10	0xbf271d2a	-0.65278876
11	0xbe8c890d	-0.2744831
12	0x3e457bdd	0.19285531
13	0x3e30591f	0.17221497
14	0xbdebf8b0	-0.11522043
15	0x3d18e2fd	0.037325848

decoder3.features.2.running_mean f4 [16]
0	0xc07d6b64	-3.9596796
1	0x4105573d	8.333798
2	0x40b55531	5.6666493
3	0xc09134b5	-4.537684
4	0xc0d165c0	-6.5436707
5	0x40ce63fc	6.449705
6	0xc0872195	-4.2228494
7	0xc087f6b7	-4.2488666
8	0xc08efd20	-4.468399
9	0x41253bf1	10.327134
10	0x404e002b	3.2187603
11	0x41282fbb	10.511653
12	0x40b8ad6c	5.7711697
13	0xc11b1da5	-9.694737
14	0x3fdb10d1	1.7114507
15	0xbf523889	-0.82117516

decoder3.features.2.running_var f4 [16]
0	0x4096d1a1	4.7130895
1	0x41cee99c	25.864067
2	0x418a59fc	17.293938
3	0x412d02ef	10.813216
4	0x411f3416	9.950216
5	0x410704dd	8.438687
6	0x40aabc34	5.335474
7	0x407b787e	3.9292293
8	0x41cce425	25.611399
9	0x41df23f7	27.892561
10	0x40f2b791	7.584908
11	0x41982fef	19.023405
12	0x4117eb77	9.494987
13	0x41a57d04	20.686043
14	0x408b3f88	4.3515053
15	0x4174cebe	15.300474

decoder2.features.1.weight f4 [8, 16, 3, 3]
0	0x3cb9cc7d	0.022680515
1	0x3e256695	0.16152413
2	0x3e298055	0.16552861
3	0x3d81f4d1	0.06345523
4	0x3d92fca8	0.071770966
5	0x3db02c54	0.08602205
6	0x3ceab85e	0.028652366
7	0x3d648e30	0.055799663
8	0x3dec0121	0.11523653
9	0x3cd6a04f	0.026199488
10	0x3d772487	0.06033757
11	0x3dc49d3b	0.09600302
12	0x3d401b50	0.046901047
13	0x3cd566b8	0.026049957
14	0x3d86f1f9	0.06589121
15	0x3ce86126	0.028366636
16	0xbd8a962b	-0.067669235
17	0x3d0bc751	0.03412563
18	0xbaa81367	-0.0012823165
19	0x3e093060	0.1339736
20	0x3e23a43f	0.15980624
21	0x3db76051	0.08953918
22	0x3d14e4b9	0.03635094
23	0x3cde15aa	0.02710994
24	0x3c2cf726	0.010556972
25	0x3d2f55a1	0.04280627
26	0x3da37e47	0.0798307
27	0x3d27c366	0.04095783
28	0x3e145aec	0.14487809
29	0x3dc2fcb4	0.095208555
30	0x3cb2c870	0.021824092
31	0x3de3dbe7	0.111259274
32	0x3e31aba3	0.1735063
33	0x3e2b6916	0.16739306
34	0x3e244108	0.16040432
35	0x3d36f7c1	0.04466987
36	0x3e7af654	0.24508029
37	0x3deddd38	0.1161446
38	0x3e417b5e	0.18894717
39	0x3e1705ef	0.14748357
40	0x3d7c6c84	0.061626926
41	0x3db8f092	0.0903026
42	0x3dec3a01	0.11534501
43	0x3e44a3af	0.19203065
44	0x3e60ad22	0.21941045
45	0xbe19032b	-0.14942615
46	0xbddc0d28	-0.10744697
47	0xbdbf520c	-0.09341821
48	0x3bf66892	0.00751979
49	0xbda16043	-0.078796886
50	0x3cfd79e8	0.030941918
51	0xbd16cb66	-0.03681507
52	0xbc318f37	-0.010837368
53	0xbda38f29	-0.0798629
54	0x3e4b70fd	0.1986732
55	0x3e13284a	0.14370838
56	0x3e487c5b	0.19578688
57	0x3e0962b9	0.13416566
58	0x3e5ab355	0.21357472
59	0x3e59cb98	0.21269071
60	0x3dfec894	0.12440601
61	0x3dbed664	0.093182355
62	0x3e606848	0.2191478
63	0x3d95446d	0.07288442
64	0x3d8eb2a0	0.06967664
65	0x3e1e3a69	0.15451969
66	0x3d65cb20	0.05610192
67	0x3e287b96	0.16453394
68	0x3dd4223a	0.10358091
69	0x3e1455f9	0.14485921
70	0x3e235abb	0.1595258
71	0x3d74d51a	0.059773542
72	0xbd84ff60	-0.064940214
73	0x3cd84534	0.026400186
74	0xbbb8b289	-0.0056365174
75	0x3d9388e4	0.07203844
76	0x3c3ea5a9	0.011636176
77	0x3cf81d32	0.030287359
78	0xbd889e2e	-0.066707954
79	0x3d81dc0e	0.063408
80	0x3d8516bb	0.06498476
81	0x3d4e41ea	0.05035583
82	0xbd1a6bc7	-0.03770044
83	0xbc399d0b	-0.011328946
84	0xbbee6a70	-0.007275872
85	0x3d4d41e6	0.050111674
86	0x3a481576	0.00076325925
87	0xbd355d38	-0.044278353
88	0xbd9af5ce	-0.07566415
89	0xbdc727e9	-0.09724409
90	0xbd7d07c4	-0.061774984
91	0xbd1dbbd2	-0.038509198
92	0xbe0f6dbb	-0.14006703
93	0xbdea50fa	-0.11441226
94	0xbd571335	-0.05250855
95	0xbd806ac6	-0.062703654
96	0x3c9c9273	0.019112801
97	0xbd857cd3	-0.06517949
98	0xbd50ce6e	-0.050978117
99	0x3d0561e0	0.032564044
100	0x3d1580b3	0.03649969
101	0x3d2b77e5	0.041862387
102	0xbcf65d8d	-0.030073905
103	0x3d867a5a	0.065663055
104	0xbd6d6f75	-0.05796762
105	0x3d50cb9c	0.050975427
106	0x3b4669ca	0.0030275458
107	0xbce7601b	-0.028244069
108	0xbcdc1da0	-0.026869595
109	0xbd1aa888	-0.03775838
110	0xbc60ab5e	-0.013712732
111	0xbd9ae9a2	-0.07564093
112	0xbbcb9307	-0.0062125954
113	0xbce0f8fc	-0.027462475
114	0xbd9b25af	-0.07575547
115	0xbd0b39e1	-0.033990745
116	0xbc5a1d39	-0.013312631
117	0x3e2a2de9	0.16619076
118	0x3daa313e	0.083101735
119	0x3e59550b	0.21223848
120	0xbd72041a	-0.059085943
121	0x3dd4599e	0.103686556
122	0x3dfe641f	0.1242144
123	0x3d1931ff	0.037401196
124	0x3dd0f538	0.10203022
125	0x3c700ece	0.014651967
126	0xbde8a6c2	-0.113599315
127	0xbd3bbbbb	-0.04583333
128	0xbe099caa	-0.13438669
129	0xbde45f03	-0.111509345
130	0xbda22966	-0.079180524
131	0xbccbbb4c	-0.024869584
132	0xbd0ba829	-0.034095917
133	0xbdec0cfd	-0.11525915
134	0xbd87738a	-0.06613834
135	0xbde41284	-0.11136344
136	0xbcaeef61	-0.02135438
137	0xbdb677be	-0.08909558
138	0x3b961663	0.0045803054
139	0xbd91b791	-0.07115091
140	0xbc1ba311	-0.009499327
141	0xbdcd556a	-0.10026057
142	0xbd4a565f	-0.049398776
143	0xbcc1fdfd	-0.023680681
144	0xbcfe2616	-0.03102402
145	0xbdd0fd89	-0.10204608
146	0xbd828b91	-0.063742764
147	0x3ce2873e	0.02765238
148	0xbdcfa9ee	-0.101398334
149	0xbd7ccb01	-0.061717037
150	0xbd79738b	-0.060901206
151	0xbd8a53e3	-0.06754281
152	0xbd2af309	-0.041735683
153	0xbe010075	-0.1259783
154	0xbccd1049	-0.02503218
155	0xbd80662a	-0.06269486
156	0xbdddd041	-0.10830737
157	0x3bce44ed	0.0062948377
158	0xbce1fb0a	-0.027585525
159	0x3bc9ee0f	0.006162412
160	0xbdf77a14	-0.120838314
161	0xbd9b8a1c	-0.07594702
162	0xbe029381	-0.12751581
163	0xbe0ba490	-0.13636994
164	0xbd6ba4e1	-0.057530288
165	0xbd19a5ed	-0.037511755
166	0x3c0308a8	0.007997669
167	0xbde600ca	-0.11230619
168	0xbdfe3b7c	-0.124136895
169	0xbcb38a6a	-0.021916587
170	0xbe0574a8	-0.13032782
171	0xbdc6091c	-0.09669706
172	0xbcb92dc8	-0.022604838
173	0xbd51bce1	-0.05120552
174	0xbe034786	-0.12820253
175	0xbc3363c6	-0.010949081
176	0xbe08d612	-0.13362911
177	0xbccac06d	-0.024749959
178	0x3c2829d7	0.010263882
179	0x3c2fc6f8	0.01072859
180	0xbd8b4a62	-0.06801297
181	0xbd21caa0	-0.03949988
182	0xbd5e50ae	-0.05427616
183	0xbdaf41ce	-0.08557473
184	0xbd0389e2	-0.032113917
185	0xbe1053fb	-0.14094536
186	0xbdc4aff6	-0.096038744
187	0xbd921b53	-0.07134118
188	0xbdae6485	-0.08515266
189	0xbd28f5e8	-0.04125014
190	0xbdf86a1e	-0.12129615
191	0xbb178468	-0.0023119692
192	0xbde38761	-0.11109806
193	0xbcf6523e	-0.030068513
194	0x3b7ab4aa	0.0038254657
195	0xbc839ece	-0.016066935
196	0xbd868883	-0.06569006
197	0x3b1d3a97	0.002399122
198	0x3c558916	0.013033172
199	0xbd8a18d2	-0.06743015
200	0xbd2e34ce	-0.042530827
201	0x3c860ff9	0.016365038
202	0x3ce5a92b	0.028034767
203	0xbd96c121	-0.07361055
204	0xbcb51a60	-0.022107303
205	0xbce3d907	-0.027813448
206	0xbcd6d6f8	-0.026225552
207	0xbdda8b3b	-0.10671087
208	0xbde57af9	-0.11205096
209	0xbc290a96	-0.010317465
210	0xbd1cf07c	-0.03831528
211	0xbddc85af	-0.107676856
212	0xbd11f00c	-0.035629317
213	0xbd1c2a1a	-0.03812609
214	0xbc5ccdcb	-0.013476799
215	0xbdfdb0d6	-0.123872444
216	0xbdb3e389	-0.08783633
217	0x3c36a4b0	0.011147663
218	0xbbf1e78e	-0.00738234
219	0xbb2ad1a4	-0.0026064897
220	0x3c86505c	0.01639574
221	0xbdab6bbd	-0.08370159
222	0xbdd5244d	-0.104073144
223	0x3d28df27	0.04122844
224	0xbd964383	-0.073370956
225	0xbd4db901	-0.05022526
226	0xbde8077e	-0.11329554
227	0xbd0870d2	-0.03331072
228	0x3c8b157b	0.016978016
229	0xbcca5abc	-0.024701469
230	0x3cb49c8a	0.0220473
231	0xbd7a0139	-0.061036322
232	0xbdb9bb87	-0.09068971
233	0xbd52bdd7	-0.051450577
234	0x3d98980a	0.07450874
235	0xba7b1d2f	-0.0009579239
236	0x3daace72	0.083401576
237	0x3c41a2ab	0.011818568
238	0x3cbfa2a4	0.023392983
239	0xbccc5b12	-0.02494577
240	0x3dbfa7ca	0.09358175
241	0x3dcf53ce	0.10123406
242	0x3e22b400	0.15888977
243	0x3db352c3	0.0875602
244	0x3d90deb2	0.07073726
245	0x3db642b0	0.088994384
246	0x3ca6edae	0.020377006
247	0xbcd648d2	-0.02615777
248	0x3d8d6cef	0.06905543
249	0x3b959e58	0.004565995
250	0x3cd5e866	0.026111793
251	0x3c8ba5b8	0.017046794
252	0x3d184d9f	0.0371834
253	0x3c99e81d	0.018787438
254	0xbd7cc3e2	-0.061710246
255	0x3de27a95	0.11058537

decoder2.features.1.bias f4 [8]
0	0x3d7285b6	0.059209548
1	0xbd8166aa	-0.0631841
2	0x3d62dd13	0.055386614
3	0xbd6d7f8c	-0.057982966
4	0xbc324565	-0.010880803
5	0x3d6bc63f	0.05756211
6	0x3d5a3f3a	0.053282954
7	0xbcdcf8cf	-0.02697411

decoder2.features.2.weight f4 [8]
0	0x3f3d8ab0	0.74039745
1	0x3f90e214	1.1318994
2	0x3f76c1be	0.9638938
3	0x3f8974c9	1.0738765
4	0x3f7d6004	0.98974633
5	0x3f8dbafa	1.1072686
6	0x3f76f368	0.9646516
7	0x3fc64b46	1.5491722

decoder2.features.2.bias f4 [8]
0	0xbebf0632	-0.37309414
1	0x3eec999f	0.46210954
2	0xbdec1a08	-0.115284026
3	0x3e7871b1	0.2426212
4	0x3dd7a5d0	0.10529673
5	0x3d98cb05	0.07460598
6	0xbec516b0	-0.38493872
7	0xbedce0f1	-0.43140367

decoder2.features.2.running_mean f4 [8]
0	0x40721895	3.7827504
1	0xc032f3be	-2.7961268
2	0x4068afd0	3.6357307
3	0xc0242ebd	-2.5653527
4	0xc0e5a8db	-7.1768622
5	0xbf99ca06	-1.2014778
6	0x3f475776	0.7786783
7	0xbb1a19c9	-0.0023513904

decoder2.features.2.running_var f4 [8]
0	0x4206848c	33.62944
1	0x41957e56	18.686687
2	0x41869960	16.82489
3	0x42100bf0	36.011658
4	0x4143b474	12.231556
5	0x418f2d72	17.89719
6	0x4038ea6f	2.8893087
7	0x40bcd7af	5.9013286

decoder1.features.1.weight f4 [4, 8, 3, 3]
0	0xbe12072c	-0.14260548
1	0xbe3bc51c	-0.1833691
2	0xbe712430	-0.2354896
3	0xbdbad455	-0.0912253
4	0xbdabc495	-0.083871044
5	0xbdf86638	-0.12128872
6	0xbb495575	-0.0030721102
7	0xbce25c3e	-0.027631875
8	0xbd485e38	-0.04891798
9	0xbe58be64	-0.21166378
10	0xbe127376	-0.14301857
11	0xbe301b31	-0.17197873
12	0xbc032b67	-0.008005953
13	0xbd7a9a20	-0.06118214
14	0xbe19c5ee	-0.1501691
15	0xbe173fc6	-0.14770421
16	0xbe5db4a7	-0.21650945
17	0xbe2c7bbf	-0.1684408
18	0xbe87f1e4	-0.26551735
19	0xbe6fcba0	-0.2341752
20	0xbe464b63	-0.19364695
21	0xbe9c1cb0	-0.30490637
22	0xbe3923dc	-0.18080086
23	0xbe92cfe3	-0.2867423
24	0xbe3267f5	-0.17422469
25	0xbe8270e4	-0.25476754
26	0xbe87fad5	-0.26558557
27	0x3de81928	0.11332923
28	0x3e455138	0.19269264
29	0x3e243637	0.16036306
30	0x3e46d54c	0.19417304
31	0x3e670496	0.22560343
32	0x3d05961c	0.03261386
33	0x3e0f1f9d	0.13976903
34	0x3dc86ddf	0.09786581
35	0x3e846d6f	0.2586474
36	0xbe7a0516	-0.24416003
37	0xbe5ed636	-0.21761402
38	0xbeb3b829	-0.3510144
39	0xbe4d7e11	-0.20067622
40	0xbddca145	-0.10772947
41	0xbe00eac3	-0.12589554
42	0xbe7a5815	-0.24447663
43	0xbe85d6f6	-0.26140565
44	0xbeacb5c8	-0.33732438
45	0xbe156f84	-0.14593321
46	0xbea55829	-0.32293823
47	0xbe2dfa00	-0.16989899
48	0xbe9c101a	-0.30481035
49	0xbead7ea9	-0.33885697
50	0xbeab7449	-0.33487156
51	0xbebe8d30	-0.37217093
52	0xbe7057cb	-0.2347099
53	0xbe82714d	-0.25477067
54	0xbe181e09	-0.14855208
55	0xbe2b9fe3	-0.1676021
56	0xbd2cfaf1	-0.042231504
57	0xbe026e74	-0.12737447
58	0xbc88cf1a	-0.016700316
59	0xbdc96d20	-0.09835267
60	0x3c21760e	0.009854807
61	0x3d4ef316	0.050524794
62	0xbc76f7d6	-0.015073737
63	0x3c8554fe	0.016275879
64	0x3de778e6	0.113023564
65	0xbd8f3d88	-0.06994158
66	0xbd991e68	-0.07476503
67	0xbd003ad9	-0.03130612
68	0x3d80b89f	0.06285214
69	0x3c1d7f40	0.009612858
70	0x3d1da257	0.038484897
71	0x3e0e7bf3	0.1391447
72	0x3b6b0b08	0.003586473
73	0x3e13c66c	0.1443116
74	0xbda8728a	-0.082249716
75	0xbd3c0edf	-0.04591262
76	0x3b76c34f	0.0037653034
77	0xbc9ff7eb	-0.019527396
78	0xbd5a1bdd	-0.05324923
79	0x39450474	0.00018789043
80	0x3d987404	0.07444003
81	0xbe308c0b	-0.17240922
82	0x3bfbb5a5	0.007681566
83	0xbd926363	-0.07147863
84	0xbe192510	-0.14955544
85	0x3cf83b59	0.030301737
86	0x3ba5a94e	0.005055583
87	0xbd7e93fb	-0.062152844
88	0xbd52b852	-0.051445313
89	0xbd8f0e9f	-0.069852106
90	0xbc852fcd	-0.016258145
91	0xbdaff11f	-0.08590912
92	0x3d77ec93	0.06052835
93	0xbc150192	-0.009094613
94	0x3c7bf627	0.0153785115
95	0xbd18ce8c	-0.037306353
96	0x3dd63cbe	0.104608044
97	0x3c5f3ba7	0.013625062
98	0x3bc63577	0.006048854
99	0xbec35a2f	-0.38154742
100	0xbec6452d	-0.38724652
101	0xbea6e6a1	-0.3259783
102	0xbede93c4	-0.4347211
103	0xbeb8aef9	-0.36070994
104	0xbe8d2a82	-0.27571493
105	0xbeab8ddd	-0.3350667
106	0xbe633246	-0.22187147
107	0xbe30d2b9	-0.17267884
108	0x3b8c5663	0.004282759
109	0x3e2018bf	0.1563444
110	0x3d3ce31f	0.046115037
111	0x3dbc46a6	0.091931626
112	0x3e413257	0.1886686
113	0xbd446c35	-0.047954757
114	0x3ded7f2c	0.11596522
115	0x3e0c7861	0.13717796
116	0x3d873efc	0.0660381
117	0x3e5005d3	0.20314722
118	0x3dab9b38	0.08379215
119	0x3c3ab22a	0.011395017
120	0x3cc21328	0.023690775
121	0x3e197d6e	0.14989254
122	0x3ded05a3	0.11573341
123	0x3d7f2c8a	0.062298335
124	0x3dfc49bb	0.123187505
125	0x3ccfd51f	0.025370179
126	0xbe655a4b	-0.22397725
127	0xbe00e355	-0.1258672
128	0xbdc7429b	-0.09729501
129	0xbe5f5745	-0.21810634
130	0xbe4bd197	-0.19904171
131	0xbe230669	-0.15920414
132	0x3d9040d6	0.070436165
133	0x3d8ab9fd	0.06773756
134	0xbcaaa982	-0.02083278
135	0xbe067a3f	-0.1313257
136	0xbdadfe0a	-0.0849572
137	0x3dd08d23	0.1018317
138	0x3d6749c7	0.056466844
139	0xbcd734a5	-0.02627022
140	0xbdeeed18	-0.11666316
141	0x3de049bf	0.10951566
142	0x3e07a36f	0.13245939
143	0x3cb68e58	0.022284672
144	0xbc854c7b	-0.01627182
145	0x3c49e2fe	0.012322186
146	0x39a0d543	0.0003067647
147	0xbdc6f524	-0.097147256
148	0x3de74ab0	0.112935424
149	0x3cfc71ac	0.030815922
150	0xbdc8bac5	-0.098012485
151	0xbe394c4a	-0.18095508
152	0xbdd45684	-0.10368064
153	0x3cf9e73e	0.030505773
154	0xbdfcb8dc	-0.12339947
155	0x3ce2e7bf	0.027698396
156	0xbc3cb712	-0.011518257
157	0x3d3f3a3c	0.046686396
158	0xbdd02849	-0.10163934
159	0x3cb614da	0.02222674
160	0x3cb01dd4	0.021498598
161	0x3b94c998	0.0045406334
162	0xbe251bf0	-0.16123939
163	0x3cf6923d	0.030099029
164	0xbe02cb05	-0.12772758
165	0xbc804e1f	-0.015662251
166	0xbdf0606c	-0.11737141
167	0xbd3f4f48	-0.046706468
168	0xbda59533	-0.08085098
169	0xbd2e43a0	-0.04254496
170	0xbd924855	-0.071427025
171	0xbe2bc660	-0.16774893
172	0xbddceb69	-0.107870884
173	0xbdeb4869	-0.114884205
174	0x3d1bcc68	0.038036734
175	0x3bb871d0	0.005628802
176	0xbdd884c5	-0.10572199
177	0xbe06a2d5	-0.13148053
178	0xbdd158d8	-0.10222024
179	0xbd9645af	-0.0733751
180	0xbd139ade	-0.036036365
181	0x3ca4d0d9	0.020119118
182	0x3d483c55	0.048885662
183	0xbd5c1378	-0.053729504
184	0x3d0baa2c	0.034097835
185	0x3da3be51	0.07995284
186	0x3d050647	0.03247669
187	0xbd327a66	-0.04357376
188	0xbc9f1552	-0.019419346
189	0x3dec7804	0.11546329
190	0xbc4c612f	-0.012474342
191	0xbc888274	-0.016663767
192	0x3dc1f2f9	0.094701715
193	0x3e0be281	0.13660623
194	0x3e552ef6	0.20818695
195	0x3e3d6023	0.18493704
196	0x3e7c139b	0.24616854
197	0x3e418739	0.1889924
198	0x3e0b060e	0.13576528
199	0x3cb59558	0.02216594
200	0xbdaaf9a3	-0.08348396
201	0xbb8f22ff	-0.0043681855
202	0xbe0363ea	-0.12831083
203	0xbbdecf88	-0.006799642
204	0xbe1245db	-0.1428446
205	0xbe02507f	-0.1272602
206	0xbd4b869d	-0.049688924
207	0xbc14345e	-0.009045688
208	0x3c339d6c	0.010962825
209	0xbe0af8b7	-0.1357144
210	0xbe1e454b	-0.1545612
211	0xbca93507	-0.020655168
212	0x39ed0420	0.00045207236
213	0xbe1877ae	-0.14889404
214	0x3ce6847c	0.028139345
215	0xbd1d2ce3	-0.038372885
216	0xbc210f3d	-0.009830293
217	0x3d497272	0.04918141
218	0x3dfc8ef0	0.12331951
219	0x3df94739	0.12171788
220	0xbdb050fc	-0.086091965
221	0xbd1895eb	-0.037252348
222	0xbdc973d4	-0.098365456
223	0x3b865ec7	0.004100654
224	0x3d79617b	0.06088398
225	0x3dda5af7	0.106618814
226	0xbdabc7a1	-0.083876856
227	0x3d74b1ed	0.059739996
228	0xbe07b2ba	-0.13251773
229	0x3cf0d941	0.02940047
230	0xbe404866	-0.18777618
231	0xbd0c016e	-0.03418105
232	0xbe15236f	-0.14564298
233	0xbe2b1de4	-0.16710621
234	0xbda4d44e	-0.080483064
235	0xbd80ccc3	-0.06289055
236	0xbd9449ef	-0.07240664
237	0xbd82b97e	-0.06383036
238	0x3d042629	0.032262955
239	0xbd72dc93	-0.059292387
240	0xbd333748	-0.043753892
241	0x3cd8a3fe	0.026445385
242	0xbda3efcc	-0.08004722
243	0xbd639aec	-0.055567667
244	0x3d19fc0c	0.037593886
245	0x3e076fec	0.13226289
246	0xbc4cc875	-0.012498965
247	0x3e0c216b	0.13684623
248	0xbd155e42	-0.036466844
249	0x3e0a55ce	0.13509294
250	0xbc91fe4d	-0.017821455
251	0x3d89a4b4	0.06720868
252	0xbc22aeca	-0.009929368
253	0xbdc4799c	-0.09593508
254	0xbd75ac97	-0.059979048
255	0xbe1d6cb4	-0.15373498

decoder1.features.1.bias f4 [4]
0	0x3e056199	0.13025512
1	0xbdeb71c6	-0.1149631
2	0x3d7d1b46	0.061793588
3	0xbd30a8d5	-0.04312976

decoder1.features.2.weight f4 [4]
0	0x3f58e8b8	0.847301
1	0x3f696294	0.91166043
2	0x3f4c3643	0.79770297
3	0x3f7e0a14	0.9923413

decoder1.features.2.bias f4 [4]
0	0x3f0e235c	0.55522704
1	0x3f34359b	0.70394295
2	0xbc73dbdd	-0.014883962
3	0xbdb4580f	-0.08805858

decoder1.features.2.running_mean f4 [4]
0	0xc0ceb889	-6.4600263
1	0xc0225c28	-2.5368748
2	0xbf344b42	-0.70427334
3	0xbfadd30c	-1.3580031

decoder1.features.2.running_var f4 [4]
0	0x41c79966	24.949902
1	0x41f21954	30.262367
2	0x40e7a4ae	7.2388525
3	0x3fc4265e	1.5324209
