model/SRNet_2021-07-18_21-46-53.pth (torch, 201431 bytes, 78 tensors)

encoder1.features.0.weight f4 [4, 3, 3, 3]
000000 1e 10 5b 3e 2d 78 68 3e 02 7d f1 3d 82 27 3b 3d
       0.21392867 0.22702093 0.117914215 0.045691974
000010 ba 2a 66 3e 3a 65 73 3e 4d 55 c9 3d 0d f3 8f 3d
       0.22477236 0.23769084 0.09830723 0.0702878
000020 79 24 ca 3d 7a d4 02 bf 98 27 03 3e ff cc e7 be
       0.09870238 -0.51105464 0.12808073 -0.45273587
000030 e6 45 93 3e 03 07 43 3f 46 41 17 3e e6 33 3b be
       0.28764266 0.76182574 0.14770994 -0.18281516
000040 fd c2 5c be b8 c5 3b be 64 ca 66 bd bf f1 49 3e
       -0.21558757 -0.18337142 -0.05634536 0.19721125
000050 b7 fe 1a be 18 b1 91 3d 30 3e 09 3f 18 a9 40 bd
       -0.15136229 0.07113856 0.53610516 -0.04703626
000060 2e 11 bb bd 9a 0e 76 3d 62 52 99 3d 11 d8 f6 3d
       -0.09134136 0.06007252 0.074864164 0.1205293
000070 36 56 18 3e ef df 96 3c 1e c2 4c 3b f8 f0 80 3c
       0.14876637 0.018417327 0.0031243633 0.015739903
000080 1b 78 0e 3e 7e d8 3d 3e f2 4d 14 bd 29 17 f7 3d
       0.13913004 0.18539616 -0.036207147 0.12064964
000090 b6 4c c6 3d b8 8c 89 3d 6f 61 f3 3c 1c f7 98 bd
       0.096826 0.06716293 0.029709546 -0.074690074
0000a0 89 1b 51 3e 2c f4 eb 3d 85 e0 f8 3d bd 6b 09 3d
       0.2042066 0.115211815 0.12152199 0.033550013
0000b0 0c 21 70 3e ed c6 1e bc 83 1d 00 3d 43 cc 0d 3e
       0.23450106 -0.009690982 0.031278145 0.13847451
0000c0 a7 67 37 3d c2 30 22 bd 22 39 c3 3d 91 5e 57 bd
       0.044776585 -0.03959728 0.095323816 -0.05258042
0000d0 9c 6d 05 3e c0 a3 f1 3c 49 02 df bd bf ae 30 be
       0.13030094 0.029497027 -0.10889108 -0.1725416
0000e0 d2 e0 8a be 99 dd 3e be 75 a1 34 3e 4b f8 04 be
       -0.2712465 -0.1863922 0.17639716 -0.12985341
0000f0 61 6b 2d be a9 3d 3b be 41 3c 97 be 4d d6 b4 be
       -0.16935493 -0.1828524 -0.29538158 -0.3531975
000100 46 81 7a be 4f 24 9f be 23 9a af bd a8 19 7f be
       -0.24463376 -0.3108239 -0.08574321 -0.24912131
000110 69 1c c7 be 22 58 d8 be 1d 67 82 be ce 38 3e be
       -0.38888863 -0.4225474 -0.25469294 -0.18576357
000120 46 8b bf bd 60 0d 7c bd 06 4a ce bc cc 87 4d be
       -0.09352736 -0.061536193 -0.025181782 -0.20071334
000130 89 6b 22 be 8d 36 9f bd 1c 1d 99 3d 02 14 4b be
       -0.15861334 -0.077740766 0.07476255 -0.19831851
000140 48 47 7a 3c 1c 75 30 be 67 20 3d be 19 56 08 be
       0.015275784 -0.17232174 -0.18469392 -0.13314094
000150 74 f8 65 be 07 da 7e be 59 0a 08 bd 38 dd 0c be
       -0.22458059 -0.24887858 -0.033212993 -0.13756263
000160 a1 cf 68 be 23 61 5b be f3 ac 1d be 48 75 dc 3c
       -0.22735454 -0.21423773 -0.15398006 0.026911393
000170 5d 82 23 be f5 d1 b7 bd 55 f4 98 3b 77 96 00 bd
       -0.15967698 -0.08975593 0.0046677985 -0.031393494
000180 62 9e 6e bd c1 6c 1e bd 16 55 f2 bd 37 86 62 bd
       -0.058256514 -0.038677935 -0.11832635 -0.05530378
000190 52 56 c7 bd 00 40 4a 3d 35 99 92 bd 80 ec e0 3d
       -0.09733261 0.04937744 -0.07158128 0.10982609
0001a0 15 a2 3d be 32 9a d9 3d f6 8f 5c be 21 57 18 bd
       -0.1851886 0.106251135 -0.21539292 -0.037192468

encoder1.features.0.bias f4 [4]
000000 4a 0d 64 bd 67 5b e5 bd 5a 87 3e 3c 33 10 1b bd
       -0.055676736 -0.11199074 0.01162895 -0.037857246

encoder1.features.1.weight f4 [4]
000000 f6 f7 6a 3f 41 23 34 3f 6d 7f 92 3f 31 84 90 3f
       0.9178461 0.70366293 1.1445137 1.1290342

encoder1.features.1.bias f4 [4]
000000 89 44 42 bf b9 6f a1 be b8 64 2b bf 06 69 9e be
       -0.75885826 -0.3153055 -0.6695056 -0.30939502

encoder1.features.1.running_mean f4 [4]
000000 d1 99 1f 3f 1a 4d 54 3f 26 65 0c c0 cd 88 ac bf
       0.6234408 0.8293015 -2.1936736 -1.3479248

encoder1.features.1.running_var f4 [4]
000000 de 2f ae 3d 3e ad 23 3e ff 54 62 3f d5 ad 98 3e
       0.08505224 0.15984055 0.88410944 0.29820123

encoder2.features.0.weight f4 [8, 4, 3, 3]
000000 54 c2 4f be cd f6 5d be b3 c9 45 bb 00 be b3 3c
       -0.20288974 -0.21676178 -0.0030180037 0.021941185
000010 0d b2 4b 3c 00 b7 89 be 5c 37 89 3d 65 3c 31 be
       0.012432587 -0.2689743 0.06700012 -0.17308195
000020 15 84 08 bd 6a 47 a8 3d 01 19 88 be 6e d3 a0 bd
       -0.03332909 0.08216746 -0.26581576 -0.07852827
000030 26 35 81 be ad 2a 8d be 0a 05 a8 bd d1 1f 82 be
       -0.25235862 -0.27571622 -0.08204086 -0.254149
000040 72 89 3b be cf 0f 8e be 79 9e 67 be 7f 0c d4 be
       -0.1831415 -0.27746436 -0.22619046 -0.41415784
000050 fa 43 31 be a5 14 1f be 5d 76 b0 be 07 16 19 be
       -0.17311087 -0.15535219 -0.34465304 -0.14949809
000060 8b e9 05 be af 24 93 be c6 b6 6d be 7e d2 7e be
       -0.13077371 -0.28738925 -0.23214254 -0.24884984
000070 e2 61 7f be d3 1b ed bd ec 83 46 be c0 7f aa be
       -0.24939683 -0.11577573 -0.19386262 -0.3330059
000080 76 31 73 bd cb 62 d3 bd 17 c0 d7 bd 28 16 83 be
       -0.05937334 -0.10321578 -0.10534685 -0.2560284
000090 d6 04 19 3e bf 04 f1 bc 06 16 2a 3e 4d b7 7d 3e
       0.14943251 -0.029421208 0.16609964 0.24776955
0000a0 ee b0 43 3d c3 85 0c bd 72 11 64 3e 61 aa 1b 3d
       0.047776155 -0.034307253 0.2227228 0.038004283
0000b0 d5 57 0a 3e 34 97 da 3c c1 33 59 3d a6 54 0b be
       0.13510068 0.026683427 0.053027872 -0.1360651
0000c0 9f 3a 9b 3d 94 23 44 bd 33 2a 06 3d 7c fb 2e be
       0.075795405 -0.047885492 0.032755088 -0.17088121
0000d0 78 bc c9 3d 9e 94 d8 bb 34 78 d5 bd 7d 24 47 be
       0.09850401 -0.0066095134 -0.104233176 -0.19447513
0000e0 2f 67 89 be be f0 37 be ae 3b 86 bd b6 18 c3 bc
       -0.26836535 -0.1796293 -0.06554352 -0.023815494
0000f0 cf d7 27 3d 1c 24 b3 bd 4c 7c 48 bd 3a 7f 63 be
       0.040977295 -0.08747122 -0.048946664 -0.22216502
000100 90 42 e0 bd 29 50 63 bd 9b dd 74 be 53 b8 99 be
       -0.10950196 -0.05549637 -0.23912661 -0.3002344
000110 45 1a 2d be 76 a7 88 bd 1b 6a 90 be c8 00 6e be
       -0.16904552 -0.06672566 -0.28205952 -0.23242486
000120 e5 03 07 3d 71 58 55 3e 4c f9 92 3d 35 67 90 3c
       0.0329627 0.20834519 0.07176456 0.017627338
000130 6b fd 8a 3c 78 15 70 3c d2 2c 1d 3e 80 2b 47 3e
       0.016966542 0.014653556 0.15349129 0.19450188
000140 24 6a 86 3e 5d 96 5c 3d d8 b4 d1 3d 7e 81 8a 3d
       0.26252854 0.053854335 0.10239571 0.0676298
000150 e9 0c 6a bb 87 f6 79 3e f7 73 0b 3e 85 72 f5 bc
       -0.0035713261 0.24410449 0.13618456 -0.029961834
000160 82 b5 f3 3d 29 64 19 bd 1b e6 92 3d 4d 52 0d 3e
       0.11899854 -0.037449036 0.071727954 0.13800927
000170 0c 1b 27 3e 1f 7c 4f 3e 10 a5 7e 3e 5d 43 e8 3d
       0.16318911 0.20262192 0.24867654 0.113409735
000180 d9 ba cb 3d d6 87 b4 3e 8a 97 b9 3e 81 24 71 3d
       0.09947748 0.35259885 0.36248428 0.058872703
000190 8f 74 b7 3d d4 3e bf 3c 3e dc 36 3d b7 7f 68 bd
       0.08957779 0.023345388 0.044643633 -0.056762423
0001a0 49 02 61 3e 65 f6 6c 3d 04 2d dc 3d 1b bd 52 3d
       0.21973528 0.057852168 0.107507735 0.051449876
0001b0 e9 55 81 bd 75 cc 9e bc 5e 87 d5 bd 3e 75 0d be
       -0.06315214 -0.019384602 -0.1042621 -0.13814256
0001c0 ac 46 07 be 9c 47 a3 bd 2d 79 5a be 10 b0 33 be
       -0.13210553 -0.07972643 -0.21335287 -0.17547631
0001d0 49 d8 2e 3d 37 36 e7 bb df 40 32 bc 2d f4 aa bd
       0.042686734 -0.0070560235 -0.010879724 -0.08347354
0001e0 22 0a 81 bd 80 9e a7 3d 31 b8 08 bd 76 3b 02 3d
       -0.06300761 0.08184528 -0.033378784 0.031794988
0001f0 7d d8 11 be 50 22 84 3b b7 59 c0 3e 29 77 89 3e
       -0.1424274 0.0040324107 0.37568447 0.26848724
000200 d8 95 40 3e 9b 5e 60 3e f9 e9 b4 3e 12 4a c2 3e
       0.18807161 0.21911089 0.35334757 0.37947136
000210 8b 8d 94 3e 63 a9 78 3e b2 0d 3b 3e 62 54 56 3e
       0.2901424 0.24283366 0.18266943 0.20930627
000220 44 85 3e 3e d3 32 67 3e 6d 95 a0 3e f1 87 bf 3e
       0.18605524 0.22577982 0.31364003 0.37408403
000230 ca 05 86 3e ae ab cd 3e 28 46 d8 3e 8f 29 d3 3e
       0.26176292 0.40170044 0.42241025 0.41242644
000240 ac fe ab bc d6 d8 0b 3e 66 90 0e 3e a7 f4 87 3d
       -0.02099546 0.13656935 0.13922271 0.066384606
000250 11 53 4b 3d c6 5f 63 bc 6b 83 16 3e 43 81 3e 3e
       0.049639765 -0.013877815 0.1469857 0.18603997
000260 9f c9 73 3d da 70 42 bc b5 7b 25 bd 65 5d f6 bd
       0.059518453 -0.011867726 -0.04040118 -0.12029532
000270 25 1f 79 bd 21 d6 f6 bd 94 52 da 3b 2b a2 27 be
       -0.060820717 -0.120525606 0.006662676 -0.16370456
000280 7a 32 48 bd 72 c9 06 be 23 a4 14 be 05 82 39 be
       -0.048876263 -0.13162783 -0.14515738 -0.18116005
000290 e7 d3 67 be f5 eb 8d be cf 82 9e be 6b e8 0f bd
       -0.22639428 -0.27719083 -0.30959174 -0.03513376
0002a0 51 d3 0d be 93 3a 9b be b3 5f 1b bd 3d cf 4f be
       -0.13850142 -0.30318126 -0.037933063 -0.20293899
0002b0 e2 1d cc bd e8 e1 00 be 59 a4 90 bc 30 8b 66 be
       -0.09966637 -0.12586176 -0.017656492 -0.22514033
0002c0 02 c1 85 be 52 fb 37 bd 22 ea 5b be c8 00 97 be
       -0.26123816 -0.044917412 -0.21476033 -0.29492784
0002d0 d6 09 f8 bd 1d 8a 95 be 87 0e 9d be 19 02 15 be
       -0.12111251 -0.29206935 -0.30675146 -0.14551581
0002e0 58 7a 96 bd ab aa 11 be 3e 8f 60 bd 7e eb b3 be
       -0.07347554 -0.14225261 -0.054824106 -0.35140604
0002f0 32 5f ba bc ee 98 52 be c6 68 cb bb 4b 98 0f bd
       -0.02275047 -0.2056615 -0.0062075583 -0.035057347
000300 08 b6 1d be e8 ab 59 bd 0a 32 4b be ae 88 b2 bd
       -0.1540147 -0.05314246 -0.19843307 -0.08717476
000310 d6 7d 74 3d 6c 96 8c bc 85 a1 0b be 9b 3e 6d be
       0.05969032 -0.01716157 -0.13635834 -0.23168413
000320 c1 fb 69 be 15 48 8f be 9b f3 7c bd 32 cf 02 be
       -0.22849943 -0.27984682 -0.061755758 -0.12774351
000330 f9 ef 85 bd 0c e7 36 bd aa 47 1e be 5d 8e 51 bc
       -0.06539912 -0.044653937 -0.15457025 -0.01279029
000340 bf ca 2b bc b4 4c 18 be 12 f5 31 be 50 6d f4 3c
       -0.01048535 -0.1487301 -0.17378643 0.02983728
000350 91 d8 16 be cd a3 88 be 77 6d 5b 3c 3e 2b 65 be
       -0.14731051 -0.2668747 0.013392798 -0.22379777
000360 75 d4 cc 3c b1 b5 e6 3d fd 5e c5 3c a8 4b bc 3d
       0.025003651 0.11265124 0.024093146 0.09194118
000370 8e 75 a1 3d bf a3 ba 3b 49 51 c4 3d 97 70 aa bc
       0.0788375 0.0056957896 0.095858164 -0.02080564
000380 ff 65 cd 3d 85 39 a6 bd e4 71 f0 3d 80 a2 e0 bd
       0.1002922 -0.0811644 0.11740473 -0.109684944
000390 e2 0c ed bd 31 68 e4 bc a9 44 02 bd e7 6d d1 bd
       -0.11574723 -0.027881714 -0.03180376 -0.1022604
0003a0 ea 74 d9 3d 23 23 04 be 47 92 1f 3c 0b fb 89 3e
       0.10618003 -0.12904029 0.009739465 0.26949343
0003b0 95 2d 04 3e bb 32 26 3c 2d 18 78 3e d0 cb 17 3e
       0.12908013 0.010143931 0.24227972 0.14823842
0003c0 b6 0d 3d 3e e9 4f 50 3e 68 96 8d 3e 9e 3b 82 3e
       0.18462262 0.20342983 0.27653813 0.2543611
0003d0 3b 53 50 3e 43 39 4a 3c 25 bf 04 3c 2f ad 61 3d
       0.2034425 0.012342754 0.008102213 0.0550968
0003e0 93 5c 8a bd 4e 67 3a 3e 8d 96 31 bd 07 09 15 3e
       -0.067559384 0.1820347 -0.043356467 0.14554225
0003f0 cc 1d d3 bd 85 89 42 3e 46 14 83 bd 72 95 dc 3d
       -0.10308418 0.18997772 -0.06400351 0.10770692

encoder2.features.0.bias f4 [8]
000000 5d c8 13 be db 4c 11 be 48 20 d4 3d b2 12 e8 bd
       -0.14431901 -0.14189474 0.1035772 -0.11331691
000010 6b 82 88 bd 6c 62 2e bd 49 e2 35 be f1 9c 0a 3e
       -0.066655 -0.04257433 -0.17762102 0.13536431

encoder2.features.1.weight f4 [8]
000000 f8 0f 79 3f 5a 6f 5e 3f 8f 46 82 3f cf 8f 8a 3f
       0.9728999 0.8688866 1.0177783 1.0825137
000010 de 72 ef 3e c2 cf 4b 3f bb 83 8e 3f 1b 52 87 3f
       0.46767324 0.7961389 1.1133951 1.0571932

encoder2.features.1.bias f4 [8]
000000 c2 4e a3 3e 9f f8 ad 3d 9d 26 92 be 29 12 e9 be
       0.31896025 0.08494686 -0.28545085 -0.45521668
000010 d3 ba 5d bd 1d 74 fc 3d a1 3c 12 3b 1e 5c b6 be
       -0.054133248 0.12326834 0.002231397 -0.35617155

encoder2.features.1.running_mean f4 [8]
000000 da 96 cc bf d6 28 5b bf 64 dd 73 3f fc f5 a7 3f
       -1.5983536 -0.85609186 0.9525969 1.3121943
000010 98 83 80 bf 3a de 7e bf 25 c7 da 3e 46 a6 9e 3f
       -1.0040159 -0.9955784 0.4273006 1.2394493

encoder2.features.1.running_var f4 [8]
000000 58 fa 1f 40 91 26 dd 3f 1f c0 64 3f 63 32 cd 40
       2.4996548 1.7277395 0.89355654 6.4124007
000010 66 12 fa 3f c3 38 7e 3f 06 5d 6c 3f 21 63 0b 40
       1.9536865 0.9930536 0.9232944 2.1779253

encoder3.features.0.weight f4 [16, 8, 3, 3]
000000 6c a5 f4 3d fc c9 fe 3c 4d 66 07 3e f0 bb 57 bd
       0.11945614 0.031102173 0.13222618 -0.052669466
000010 6f 4f 56 be f6 56 5c be f6 5a e1 bd 33 82 64 be
       -0.20928739 -0.21517548 -0.110036775 -0.22315292
000020 2b 99 fa bd d3 b3 d4 3d da e1 45 3e 5e 95 e8 bc
       -0.12236246 0.10385861 0.19324437 -0.028391536
000030 3c 50 4a 3e e3 a7 67 3e c9 20 97 3e e3 49 83 3e
       0.1975717 0.22622637 0.295172 0.2564231
000040 cb b8 5c 3e b6 64 9f 3e 30 c3 bd bc cb d4 5d 3d
       0.21554868 0.31131524 -0.023164362 0.054158013
000050 92 a4 ea 3c dd 3a ff 3d 3e 74 16 bd f6 ea dd 3d
       0.028642926 0.12462399 -0.03673195 0.10835831
000060 17 ec f2 bb 2a cd e9 3d c3 f0 3c 3d 67 9f e4 bc
       -0.007413398 0.11416085 0.046128046 -0.02790804
000070 53 f1 a5 bd d0 8e d7 bd 71 f8 1b 3b b4 6d d3 bd
       -0.081026696 -0.10525286 0.0023799206 -0.103236586
000080 f8 a5 20 bd e7 3b 79 bb 7e ad 00 bd 00 3e d5 3d
       -0.03922078 -0.003803009 -0.031415455 0.10412216
000090 c1 55 2d bc 4f 7e 6e 3c 09 6f 33 3e 56 f6 0c 3e
       -0.010579527 0.0145564815 0.17522825 0.13765845
0000a0 e6 7c 32 3d 27 23 cb 3d 9f 31 10 bd 52 88 35 3e
       0.043576144 0.09918814 -0.035203572 0.17727783
0000b0 d4 8e e6 3b 76 d4 68 3e 44 e9 90 3e ed 36 5d 3e
       0.0070360694 0.22737297 0.28302968 0.21602984
0000c0 9f a4 d8 3d b8 cc f7 3d 71 e1 b3 3d 59 4f 0f 3d
       0.10578274 0.12099594 0.08783234 0.03498778
0000d0 66 69 f0 3d f6 24 8c bc 41 ca 08 be 4a 34 83 bc
       0.11738853 -0.017107468 -0.13358404 -0.016016144
0000e0 bf f9 93 bd 5b 36 3c be a1 3f 74 bd b5 ec 6d bd
       -0.0722537 -0.1838011 -0.059630994 -0.05808707
0000f0 e7 33 13 be f4 9d da bd 4b e4 65 be ec 09 dd bb
       -0.14375268 -0.106746584 -0.22450368 -0.0067455675
000100 dc 2d 1c bd 5b 14 58 bd 0d ed 6f bc 79 3e 9e bd
       -0.038129672 -0.052753787 -0.01464392 -0.077267595
000110 f2 fa 5f bd 67 e3 ea bc 4f 4e fe bc e8 29 20 be
       -0.05468268 -0.028672887 -0.0310432 -0.15640986
000120 12 1a 56 3a b1 76 ec 3c bf 65 c9 3d 79 c0 8e 3b
       0.0008167337 0.02886519 0.0983386 0.0043564406
000130 e2 78 04 3d c8 5d ba 3d 9e 77 c5 3d b4 c2 20 3d
       0.032341845 0.090999186 0.09641956 0.039248183
000140 08 2b d9 3d 78 a5 3d be 7e 6a 29 be ba e8 ca bd
       0.10603911 -0.18520153 -0.1654453 -0.0990767
000150 4c a7 b8 bd ae f0 c3 3c 85 cc 3c be 15 cd b1 bc
       -0.09016284 0.023918476 -0.18437393 -0.021704236
000160 6f 61 7c bc 39 a7 6e bd ed 03 ab 3e 8c d2 8d 3e
       -0.015404089 -0.058264945 0.33401433 0.27699697
000170 e6 e4 b9 3e d3 95 41 3e 74 30 71 3e b4 1f 9d 3e
       0.36307448 0.1890481 0.2355364 0.3068825
000180 66 48 97 3e d2 0d 67 3e 4a ef a8 3e 4a 6d 09 bb
       0.29547423 0.22563866 0.32995063 -0.0020969682
000190 de 91 0a 3d 77 50 bc 3d 70 49 00 3e 95 41 af bd
       0.033830516 0.09195035 0.12528014 -0.08557431
0001a0 a1 c0 c8 3d 69 81 33 3e 6b d1 e4 3d 7e 7e 1f 3d
       0.09802366 0.17529835 0.11172756 0.03893899
0001b0 f7 f3 37 3e 56 f2 94 3e 4e a7 23 3e 2a 35 4e 3e
       0.17964159 0.29091138 0.1598179 0.20137468
0001c0 42 ed 21 3e ac f7 81 3e 01 1a 7c bc 5b e1 fc 3d
       0.15813163 0.2538427 -0.015387059 0.12347671
0001d0 ef 6c ed bc ca a4 4e 3d f4 a9 93 3d 5c b0 32 3e
       -0.028982608 0.050450124 0.0721015 0.17450088
0001e0 70 35 e5 3d d6 02 08 3e 17 a9 28 3d 0e 71 de 3d
       0.11191833 0.13282332 0.04117688 0.10861407
0001f0 0b 49 6e 3e 33 30 11 3e 3e 9e 74 3e ee 21 5b 3c
       0.23270051 0.14178543 0.2388849 0.013374789
000200 2f fc dc 3d 9a e4 5f 3e a2 30 2d 3e dd 96 ff 3d
       0.10790288 0.21864548 0.16913083 0.12479947
000210 3c e6 cb 3d 25 13 02 3e 6a ae 52 3e 9c 8d e8 3d
       0.09956023 0.12702616 0.20574346 0.11355135
000220 d5 10 6b 3b 5e 55 e7 3d 9f e3 d5 3d f0 ae ee 3c
       0.0035868187 0.112955794 0.10443806 0.029136151
000230 11 74 8c bc 23 03 25 3e fa c1 be bc 21 77 2c 3c
       -0.017145189 0.16114478 -0.023285855 0.010526449
000240 25 e2 22 3d ba 43 19 bd ea 76 b0 3c c3 00 34 bd
       0.03976645 -0.037418105 0.021541078 -0.04394604
000250 72 c3 d9 bd 35 98 8c 3d 44 f0 0f be 7b 7c 40 3d
       -0.10632981 0.06864969 -0.14056498 0.046993714
000260 db 06 bf bc 76 54 46 3e 50 40 03 3e bc e2 8a 3d
       -0.023318699 0.19368157 0.12817502 0.067815274
000270 6a 8d 7f 3d 9f 25 0f 3e c4 73 c9 3d 5c a1 03 3e
       0.062390722 0.13979195 0.09836534 0.12854522
000280 63 5f 08 3e 81 a2 c2 3d ab d9 81 bd 27 cd 38 3d
       0.13317637 0.095036514 -0.06340345 0.045117524
000290 47 66 4a bd 08 c4 14 3c d9 b8 80 3d c7 ac 3d bd
       -0.049413946 0.009079941 0.06285257 -0.04630735
0002a0 c6 49 ae 3b 03 58 3b 3c 02 52 15 bc a3 ce 7b 3c
       0.005318853 0.011434558 -0.0091137905 0.01536909
0002b0 6a d7 9e 3c 53 40 0b bd 5e fa 04 3e 7b 83 61 3d
       0.019389827 -0.03399689 0.12986133 0.05505703
0002c0 08 e0 dc 3d e3 1f 5a bc 42 96 09 3d 3f 7b 56 3d
       0.10784918 -0.013313266 0.033590563 0.05236363
0002d0 07 60 0a be 29 f8 a2 bd 0b c9 27 bc a4 6a fd bd
       -0.13513194 -0.07957489 -0.0102408035 -0.12373856
0002e0 9d 77 d9 bd d8 61 f8 bd 70 bb 2d be 7b 59 31 be
       -0.106185175 -0.12128037 -0.16966033 -0.1731929
0002f0 86 92 61 bd e5 e6 ae be 36 a4 cc be e6 b5 a8 be
       -0.055071376 -0.34160534 -0.39969033 -0.32951277
000300 c7 85 b1 be 4f 4d 9d be 04 c9 5e be 2c ba c9 be
       -0.34672377 -0.30723044 -0.21756369 -0.3939985
000310 3f 17 62 be 0c 2c d0 be 5a f2 cb 3d ce 50 85 3d
       -0.2207918 -0.40658605 0.09958334 0.06509553
000320 65 8a 97 3d dd 21 81 bc 28 ef 17 3e 64 64 17 3e
       0.073994435 -0.015763218 0.14837325 0.1478439
000330 72 f5 f0 bc 1f 08 d3 3d e9 79 19 3e 3b 13 62 3d
       -0.029413912 0.10304283 0.14987911 0.05519412
000340 53 ca e5 3d 82 bc 13 bb 49 3a aa 3d d8 81 02 3e
       0.11220231 -0.002254278 0.08311898 0.12744844
000350 05 46 e1 3d 22 11 0c 3e d7 84 41 3e 5f 83 ab 3d
       0.10999683 0.1367841 0.1889833 0.083746664
000360 8d e8 c2 3d 6e d9 2c 3b bd f7 bc 3d b3 7b 1a bd
       0.09517012 0.0026374715 0.0922694 -0.037715625
000370 69 73 09 3c 13 e9 53 3c 2e c1 22 bd 86 98 a0 3c
       0.008389332 0.012933987 -0.03973501 0.019603979
000380 cb 30 97 3d 95 a7 63 3d af 29 d6 bd d4 b9 b8 3b
       0.073823534 0.05557974 -0.10457169 0.005637387
000390 71 c2 a0 bd 17 c0 9d bd 27 fa ec bd d0 82 7e ba
       -0.07849587 -0.07702654 -0.1157115 -0.00097088236
0003a0 c3 92 df bd ad 17 8c bd c5 d0 24 3e b7 de 1f 3e
       -0.109166645 -0.06840453 0.16095264 0.15612303
0003b0 05 b7 0b 3e 71 f4 c0 3d ce 68 38 3d de f0 1b 3e
       0.13644035 0.094216235 0.045021825 0.15228602
0003c0 d9 53 20 3c e9 8a 87 3d c0 04 49 3e 32 36 27 3e
       0.009785616 0.06618292 0.19630718 0.16329268
0003d0 2b bc 4a 3d dd a9 46 3e 85 32 50 3d 09 09 bc 3d
       0.049495857 0.19400735 0.05082943 0.09181411
0003e0 dd b0 bd 3c 20 7a c7 3c 2e 09 46 3e 4a dd 0e 3c
       0.023155624 0.024350226 0.1933944 0.008719752
0003f0 15 f6 4e bd b9 c2 07 be 26 ea c4 3b 96 90 62 bd
       -0.05052765 -0.13257875 0.006009358 -0.05531367

encoder3.features.0.bias f4 [16]
000000 f3 51 f5 3d d3 95 3d bd a6 2e e4 bd 3f 07 ff 3d
       0.11978521 -0.04628546 -0.1114171 0.12452554
000010 b2 12 cb 3c 2b 35 ef bc 02 58 85 3d 22 19 bb 3d
       0.024789188 -0.029200157 0.06510927 0.09135653
000020 42 91 07 bc b2 de e7 3c f7 a8 84 3d 7f dc 85 3d
       -0.008274378 0.028304432 0.0647754 0.06536197
000030 b6 9d 9a bb ad 0d ad bd ff f7 4d bd 42 e5 cb bd
       -0.0047185076 -0.08449874 -0.050285336 -0.09955837

encoder3.features.1.weight f4 [16]
000000 14 66 4f 3f 3e d6 63 3f db 5b 2b 3f be 8a 48 3f
       0.81015134 0.8899878 0.66937035 0.78336704
000010 76 f6 3c 3f 64 bc 3c 3f d0 d4 55 3f 69 46 28 3f
       0.7381357 0.7372496 0.8352785 0.6573244
000020 92 a8 23 3f 01 a7 16 3f 90 c1 51 3f 62 03 41 3f
       0.6392909 0.5884858 0.8193598 0.75395787
000030 d4 88 27 3f e2 b5 30 3f b3 60 77 3f d7 e2 63 3f
       0.6544316 0.6902753 0.96631926 0.89018005

encoder3.features.1.bias f4 [16]
000000 1c 1f f2 be 67 b8 3b bf d6 65 cc be 6c 95 e3 be
       -0.4728936 -0.7332825 -0.39921445 -0.44449937
000010 42 aa 7e 3d 07 3e 2d be da 00 83 bf 5e c3 4e be
       0.06217409 -0.16918193 -1.0234635 -0.20191714
000020 00 95 5b be 04 32 95 bd 86 54 89 bf ad 37 87 bf
       -0.21443558 -0.0728493 -1.072892 -1.0563866
000030 91 4e 2c be a1 ec 95 be 88 84 ea be bd 0c 87 bf
       -0.16826846 -0.29282096 -0.45804238 -1.0550762

encoder3.features.1.running_mean f4 [16]
000000 c6 42 e4 3e e6 b5 1c 40 76 40 e2 be 64 4e c0 3f
       0.44582194 2.4486022 -0.44189805 1.5023923
000010 65 71 78 bf b3 b9 73 bf 5d 87 e5 3f 39 28 0d c0
       -0.97048026 -0.9520523 1.7931935 -2.20558
000020 9f 84 a4 be d6 d8 79 bf 11 22 cc 3f ee 5a fe 3f
       -0.32132432 -0.9759649 1.5947896 1.98715
000030 c8 f6 16 c0 ee 75 af bf 32 82 6d c0 2c da c4 3f
       -2.3588123 -1.3707864 -3.7110715 1.5379081

encoder3.features.1.running_var f4 [16]
000000 cd 9f 21 40 d3 83 1e 41 0e db 9c 40 b8 5b b6 40
       2.5253785 9.907184 4.90174 5.698696
000010 56 85 8d 40 b7 fb a4 40 6b d8 7e 42 48 b1 7b 41
       4.4225264 5.155727 63.711346 15.730782
000020 b3 21 13 40 38 dd f4 40 89 bc 82 42 a0 ec 59 42
       2.2989318 7.6520042 65.36823 54.48108
000030 96 28 8f 41 72 a3 0b 41 b3 cc cb 40 5c 56 45 42
       17.894817 8.727404 6.3687377 49.334335

encoder4.features.0.weight f4 [32, 16, 3, 3]
000000 a7 b8 ba bd f2 ea c4 bd 9c be a5 bd 84 26 40 bc
       -0.09117251 -0.09615125 -0.080929965 -0.011727933
000010 9c 56 d2 3c bf 86 84 bd 2a 83 db bd bf 17 16 bd
       0.025676064 -0.06471013 -0.10718377 -0.03664374
000020 92 8f 4f bd 3c 45 67 3e 91 8d 39 3e f4 bc 82 3e
       -0.05067403 0.22585005 0.1812041 0.25534785
000030 fc 71 82 3e bc 9b d7 3d bb 2b 31 3e 67 0c 50 3e
       0.25477588 0.10527751 0.17301838 0.20317231
000040 71 62 1a 3e c7 d3 57 3e 5e 45 13 3e a3 1b 2c 3e
       0.15076615 0.2107688 0.1438193 0.16807418
000050 f1 f5 d4 3d 48 25 1e 3e 89 e0 ac 3c 1e c4 d2 3d
       0.10398472 0.15443909 0.02110316 0.10291313
000060 a2 4b 3f 3e 63 c1 ea 3d 92 e3 2b 3e 7f 7a 6d 3e
       0.18681195 0.11462667 0.1678603 0.2319126
000070 9d f2 86 3e 4a 41 b3 3e ae 9f 42 3e d1 41 52 3e
       0.26356974 0.3501075 0.19006225 0.2053292
000080 fc a5 a9 3e 6b ee 8b 3e c1 a1 84 3e 02 67 87 3e
       0.3313445 0.27330336 0.25904658 0.26445776
000090 10 0b 3b be 14 c3 fc bd 18 16 ed bd 70 2c f1 bd
       -0.18265939 -0.12341896 -0.1157648 -0.11776054
0000a0 78 0b a0 bd e4 51 cd bd c7 dc 27 be 2f a8 c6 bd
       -0.078146875 -0.10025385 -0.16392814 -0.09700047
0000b0 a3 e4 97 bd 19 5c 03 be 5d bf 1d be a2 d2 1f be
       -0.07416656 -0.12828101 -0.1540503 -0.15607694
0000c0 62 7b 19 be 28 10 29 be ca 7b bc bd 6c d3 53 be
       -0.14988473 -0.1651007 -0.092032984 -0.2068612
0000d0 be f9 36 be 78 72 4d be 0e 49 ae 3e 18 d7 93 3e
       -0.17868707 -0.20063198 0.3404011 0.2887504
0000e0 99 f1 af 3e d3 f7 ad 3e 00 bc 4a 3e ee 3b a1 3e
       0.34364012 0.33978137 0.19798279 0.31491035
0000f0 b8 d2 b5 3e da 15 5b 3e 5c d3 b6 3e 46 0a 24 be
       0.35512328 0.21395054 0.3570813 -0.16019544
000100 e8 68 17 bd 1f 41 87 bd df 86 14 be 71 79 97 bd
       -0.03696528 -0.06604218 -0.14504574 -0.0739621
000110 43 b5 43 bc 2d ff c1 bd 37 44 71 bc 5b 74 76 bd
       -0.011945072 -0.09472499 -0.014725736 -0.06016956
000120 56 3e 3b be 02 5b 41 be 1e 70 6d be c5 84 41 be
       -0.18285498 -0.18882373 -0.231873 -0.18898304
000130 c7 62 4e be 39 74 33 be 57 5a 60 be d5 4b d9 bd
       -0.20154868 -0.17524804 -0.21909462 -0.10610167
000140 51 36 58 be c9 ca 46 be ca 9b 2d be 91 05 14 be
       -0.2111447 -0.19413294 -0.1695396 -0.14455248
000150 f8 5e b8 bd 96 b1 92 bd 21 2f 9f bd 7d b6 6d be
       -0.09002489 -0.07162778 -0.07772661 -0.23214145
000160 b1 7e 3d be 1d 5d 71 be 6a c5 a5 3e 98 f0 99 3e
       -0.1850536 -0.23570676 0.32377177 0.3006637
000170 b3 a8 b3 3e a6 a1 b4 3e 11 99 c4 3e c8 2e 9b 3e
       0.35089645 0.35279578 0.3839803 0.3030913
000180 02 30 b3 3e 4a 09 de 3e 5f 1a b4 3e 30 27 80 3e
       0.34997565 0.43366462 0.3517637 0.25029898
000190 9d 97 a9 3e 4a de 88 3e 47 1f 9e 3e 22 ee 9e 3e
       0.33123484 0.26732093 0.30883238 0.31041056
0001a0 39 dc c3 3e 63 63 93 3e 8c 54 a9 3e 3c 99 90 3e
       0.38253954 0.28786764 0.33072317 0.2824191
0001b0 09 57 bd bd ae d3 80 3d e8 19 b2 bd 6b 98 c3 3d
       -0.09245116 0.06290375 -0.086963475 0.09550556
0001c0 f0 65 82 3e 9f c5 0a bd c0 15 d2 3c 70 98 71 3e
       0.25468397 -0.033879872 0.025645137 0.23593307
0001d0 7d cd 1e bd 75 48 53 be 31 30 af bc b7 cc 38 be
       -0.038770188 -0.20633109 -0.021385284 -0.18046843
0001e0 05 7e c6 bd fd 69 de 3d a1 2d 36 3c 90 4c 28 be
       -0.09692005 0.108600594 0.011119277 -0.16435456
0001f0 07 88 77 3c 8e 61 7d be f5 3e 03 be 88 60 68 bd
       0.015108115 -0.24744245 -0.12816985 -0.056732684
000200 bf d1 f8 bd 1e 64 33 be 74 75 3f bc 31 4e 20 bd
       -0.12149381 -0.1751866 -0.011685718 -0.03913707
000210 2e 22 56 be 09 2d 3d be 9f ad 17 be d7 16 01 3f
       -0.20911476 -0.18474211 -0.14812325 0.50425476
000220 27 41 e1 3e a7 d9 b7 3e e5 91 e1 3e b4 6f b1 3e
       0.4399502 0.35908243 0.4405662 0.34655535
000230 e6 0b e6 3e 13 69 b5 3e 45 a6 f7 3e 2f fe df 3e
       0.44930953 0.35431728 0.4836904 0.43748614
000240 a3 77 1e 3e 72 36 81 bd 74 48 11 3d 8c 13 3e be
       0.15475325 -0.06309213 0.035469487 -0.18562144
000250 d8 5b 91 be 2e 70 c3 bd 5c 31 cc 3d d3 70 46 bd
       -0.28390384 -0.09542881 0.09970352 -0.04844744
000260 5d 3f 75 3e 8e df 98 3d 09 96 49 3d 07 b5 0e bd
       0.23949952 0.07464515 0.04921535 -0.03484061
000270 f8 34 06 3e 5f ca 4d bc 1e 98 c5 3d 3b 2d f9 3d
       0.13106143 -0.012560456 0.09648155 0.1216683
000280 1c 7f d6 bb ab da f4 3d 03 12 55 3d 6f fd 5c 3d
       -0.0065459143 0.1195577 0.05201913 0.05395263
000290 b1 73 0a bd 26 a4 3d bd b5 29 60 3d 3f ab cc 3c
       -0.03380174 -0.046299122 0.054727275 0.024984
0002a0 7f 0e 13 bc d8 e5 10 3d f2 e9 0b 3d 93 96 f4 3c
       -0.008975624 0.035375446 0.034158655 0.029856956
0002b0 25 95 b5 bd 1c 77 8f bd 0e 20 8b bc 18 7f cd 3c
       -0.08866338 -0.0700514 -0.016983058 0.025085017
0002c0 65 2d 89 bd 2c c6 44 bc 98 b7 e4 3c d9 57 52 bd
       -0.066981114 -0.0120101385 0.027919576 -0.05135331
0002d0 9c f3 01 bf b3 c6 80 be fe 79 c4 be b8 9d 8b be
       -0.50762343 -0.25151595 -0.38374323 -0.27268767
0002e0 00 9d c1 bd cd f4 1c be 2d 59 02 bf d2 31 d0 be
       -0.094537735 -0.15327759 -0.5091732 -0.4066301
0002f0 c8 99 0c bf de 29 92 bc a4 3c 01 3c ce 35 49 bd
       -0.5492215 -0.01784223 0.007887993 -0.049123578
000300 20 dc af bc a5 55 dd bc d2 31 59 3c 23 3f d6 3d
       -0.021467268 -0.027018378 0.013256507 0.10461261
000310 8d ea ef 3c 8b 39 a2 3d f0 73 1f 3d 50 87 b5 bd
       0.029286647 0.07921132 0.038928926 -0.088636994
000320 c5 90 a3 3c fd a5 93 3d 0a 1d 9a bd 0e 9b 68 bd
       0.019966492 0.07209394 -0.0752507 -0.056788497
000330 96 d5 26 3a 5e f5 17 3c 48 03 df 3c 31 69 9e bd
       0.0006364224 0.009274809 0.027223244 -0.077349074
000340 69 41 4c bd 15 ce 8a bd ac ac 6e bd d7 3b 92 3c
       -0.049867067 -0.06777588 -0.05827014 0.0178508
000350 d3 fd ba bc b3 4a 44 3d 6d 62 cf 3b f4 b6 97 3c
       -0.022826111 0.0479228 0.006328872 0.018519856
000360 28 84 df be 37 af b3 be 21 f4 ef be 1a 54 8c be
       -0.43655515 -0.35094616 -0.46865943 -0.27407914
000370 99 92 7b 3c 2d 75 6a be d3 c2 0a be 34 ac 98 bd
       0.015354776 -0.22896262 -0.13550882 -0.0745472
000380 71 be 54 be 97 64 56 bd 0f 43 e3 3d 45 a9 e4 3c
       -0.20775773 -0.052342024 0.11096775 0.027912745
000390 84 40 90 3d d5 2e c5 3d 01 5a dd 3d 26 a9 05 3c
       0.070435554 0.09628073 0.108081825 0.008158004
0003a0 8e e2 12 bc 9d e9 07 3d 8f 89 85 bc ea 0c 08 3d
       -0.008965148 0.033181775 -0.016300945 0.03321544
0003b0 8a fa 91 3d cb 5d 95 3d 1d 32 ef 3c e4 b4 b7 3d
       0.07127865 0.0729328 0.0291987 0.08970049
0003c0 49 aa 02 bc 85 cc 1f bc 40 28 06 3b f4 93 cb 3d
       -0.007975169 -0.009753351 0.0020470768 0.09940329
0003d0 5c a1 f3 3c 3e 7d 6b 3d 8d c7 77 3e aa 02 e9 3d
       0.029740028 0.057492487 0.24197216 0.11377461
0003e0 22 bc cb 3d e7 0d ac 3d 64 b7 2f 3e 30 27 ff 3d
       0.09947993 0.08401089 0.17159802 0.12458646
0003f0 76 e3 21 be 92 9c e1 3c 80 d5 1f bd 16 ef 38 3d
       -0.15809426 0.027540479 -0.03902197 0.045149885

encoder4.features.0.bias f4 [32]
000000 c0 a2 97 3d 8f f8 d5 3c e6 29 4a 3d e4 d0 8e bd
       0.07404089 0.026119499 0.049356364 -0.069734365
000010 8c 0e 8f 3d 75 98 9b bc 8c 99 8b bc 25 0d 2c 3d
       0.069851965 -0.018993596 -0.01704099 0.042004723
000020 f3 7b 3a 3b 92 c1 47 3d 84 0a 4c 3d e6 53 97 bd
       0.0028455227 0.048768587 0.049814716 -0.07389049
000030 66 18 ba bc fa 77 ce 3c a9 c7 8f 3d 05 3e 60 3d
       -0.022716712 0.025203694 0.07020504 0.054746646
000040 d6 78 4d 3c 64 7b d3 bb 08 7c 51 3c 48 7b 88 3d
       0.012541017 -0.0064539183 0.012785919 0.06664139
000050 72 2d fc bc 77 61 41 bd 2e 02 94 3b 3e 89 23 3d
       -0.030783389 -0.04721209 0.0045168614 0.039925806
000060 8d 6b 98 3d 6d 55 9c bd 43 64 72 3d 47 79 25 bd
       0.07442389 -0.07633481 0.05917765 -0.040398862
000070 d4 f5 72 bd 70 83 9f bd 76 30 3d bc 0c 2e 62 bd
       -0.05931647 -0.077887416 -0.0115471985 -0.055219695

encoder4.features.1.weight f4 [32]
000000 09 7d 33 3f 8d 78 55 3f e4 88 46 3f ba f3 25 3f
       0.70112664 0.8338707 0.7755263 0.6482502
000010 0f 30 65 3f ce 61 1f 3f 38 e2 23 3f 05 5d 26 3f
       0.89526457 0.62258613 0.6401706 0.64985687
000020 e8 b0 5b 3f 0d 2b 8b 3f ab cd 1e 3f 07 a0 18 3f
       0.8581681 1.0872513 0.62032574 0.5961918
000030 79 8e 52 3f 5e b3 6c 3f db c5 36 3f a1 c5 28 3f
       0.82248646 0.9246119 0.71395653 0.6592656
000040 99 3c 26 3f 8c 03 23 3f 5e 30 5a 3f 40 be 19 3f
       0.64936215 0.6367729 0.8523005 0.60055923
000050 3a 51 26 3f 52 1e 13 3f 01 bc 34 3f 08 c1 08 3f
       0.6496769 0.5746814 0.7059937 0.5341954
000060 8e 0e f3 3e 2b 25 24 3f 1b bf 73 3f 0c 70 65 3f
       0.47472042 0.64119214 0.9521348 0.89624095
000070 2e 85 5e 3f 62 c7 4a 3f 35 01 2b 3f 25 63 2e 3f
       0.86921966 0.79210484 0.66798717 0.6812003

encoder4.features.1.bias f4 [32]
000000 6c 6a d7 bf 30 d3 82 be d5 ad 1d 3f e9 6b c8 bf
       -1.6829352 -0.25551748 0.6159337 -1.5657932
000010 5d c3 27 be 05 8d f1 be f6 6e be bf 26 34 c7 bf
       -0.16383119 -0.47177902 -1.4877613 -1.556279
000020 bc ce 13 bf 4e 47 74 be 82 01 ae bf d6 4e bb bf
       -0.57737327 -0.23855326 -1.359421 -1.4633434
000030 65 69 dd bc 40 5a cf bd 9c 9a 6f bd 60 ab c6 bf
       -0.027027795 -0.10124636 -0.058497056 -1.552105
000040 99 c1 c9 bf 7d 70 c0 bf 06 aa 0a bf 5d 3c 91 be
       -1.5762206 -1.5034329 -0.54165685 -0.28366366
000050 e5 e0 ca bf 45 73 b2 bf d7 84 ac bd cb be 19 bf
       -1.5849882 -1.3941427 -0.08423775 -0.6005675
000060 b0 db 8b bf d1 de a9 bf 41 c5 70 3e f2 9c 21 3d
       -1.0926418 -1.3271123 0.23512746 0.039456315
000070 48 10 88 3e c8 d5 c9 be 95 29 cd bf 88 da bf bf
       0.26574922 -0.39420915 -1.6028315 -1.4988565

encoder4.features.1.running_mean f4 [32]
000000 a7 12 bb 3f 58 3f 1f bf 93 46 94 bf e9 2a a1 3f
       1.4615067 -0.6220603 -1.1584038 1.259122
000010 c5 d2 25 3f a2 b9 56 3f e7 15 99 3f 29 6f 71 3f
       0.64774734 0.83877003 1.1959809 0.9431024
000020 db 4b 8d 3f 3b e5 8c 3f 02 8d e5 3f 74 18 63 3f
       1.1038774 1.1007456 1.7933657 0.8870919
000030 81 fa 2d bf eb bd ac 3f 63 3a c2 bf 01 28 0b 3f
       -0.67960364 1.3495458 -1.5174068 0.54357916
000040 19 2d 21 3f b8 45 7f 3f 47 c5 96 3f 1f cb ef 3e
       0.6295944 0.9971576 1.1778954 0.46834657
000050 b5 96 be 3e 97 09 ff 3e d2 1d c8 3d 69 fb 6d 3f
       0.37224355 0.49812004 0.09771313 0.92961746
000060 a9 be ac 3f 59 91 eb 3f 72 ce bf bf ce 02 0b bf
       1.3495685 1.8403732 -1.4984877 -0.54301155
000070 2a e8 8e bf 23 36 e5 bf c0 d8 2d 3f 8b 85 f8 3f
       -1.1164601 -1.7907146 0.6790886 1.9415754

encoder4.features.1.running_var f4 [32]
000000 94 eb 50 42 34 14 62 40 b2 53 34 42 e6 05 0a 42
       52.230057 3.532483 45.081734 34.50576
000010 c6 1f 0f 41 77 ca 6c 40 c2 48 12 42 09 58 f4 41
       8.945257 3.6998575 36.571053 30.542986
000020 a2 7d 6a 40 04 ae 8c 41 fc af 0e 42 f9 76 84 42
       3.663918 17.584969 35.67186 66.23237
000030 6d a4 29 41 0e 1a e6 40 4f a7 4a 41 23 df 1c 42
       10.602643 7.1906805 12.665847 39.217907
000040 c6 e7 1e 42 e4 f3 1f 42 80 2f a2 40 83 fa 42 40
       39.72634 39.988174 5.0682983 3.04654
000050 3b 55 32 42 9f dd 32 42 dc 08 e1 3e e2 e6 ed 40
       44.583233 44.716427 0.43952072 7.434434
000060 9f 21 1e 41 b7 ce a0 41 0c 53 6c 40 84 b9 89 40
       9.883208 20.100935 3.6925688 4.303896
000070 bc 19 8d 40 9f 45 ec 3f 19 54 65 42 6e 2b a2 41
       4.4093914 1.8458747 57.332127 20.271206

encoder5.features.0.weight f4 [64, 32, 3, 3]
000000 59 00 fc 3c ff a1 2d bd 54 41 60 3d 80 36 af bd
       0.030761885 -0.04239082 0.0547498 -0.08555317
000010 b9 2a 8c bd f5 25 cd bd cc 39 d6 bd 65 4c 15 be
       -0.06844086 -0.10017005 -0.10460243 -0.14579923
000020 13 7e 0e be 0b a0 26 3e 6d 6a 68 3d e1 61 58 bd
       -0.13915281 0.16271989 0.05674212 -0.05282772
000030 42 7c 03 3e a6 ee 7b 3d 74 9f e3 bd f7 f9 23 3d
       0.1284037 0.06150689 -0.11114398 0.040033307
000040 57 23 e6 3d aa 7b e2 bc 8d b3 20 be 88 96 3b be
       0.11237209 -0.027646858 -0.15693493 -0.18319142
000050 a0 c6 e2 3b 36 a6 ad be a6 69 1a be 2f b5 78 3c
       0.0069206506 -0.3391587 -0.15079364 0.015179916
000060 9d 7a b8 be 34 ce 75 be 8a 6b 4e be e1 d0 54 bd
       -0.36031047 -0.24004441 -0.2015821 -0.051957015
000070 c9 d1 f1 bd 33 27 a7 bd b5 ea 84 be a9 d4 75 be
       -0.118075915 -0.081617735 -0.25960317 -0.24006905
000080 0e 2d 31 be 88 c3 88 be 58 ad 75 be b7 89 29 be
       -0.17302343 -0.26711679 -0.23991907 -0.1655644
000090 06 0d f4 3d 58 4e 28 3d d1 36 87 3d d1 0d ac 3c
       0.119165465 0.04109034 0.06602252 0.021002682
0000a0 36 79 cb bc da 61 63 3c 56 d0 8b 3e 29 14 4d 3e
       -0.024838071 0.01387831 0.27307385 0.20027222
0000b0 fe fc de 3d 6e c4 2e 3e eb ca 93 3d 04 03 b3 3d
       0.10888098 0.1706712 0.07216438 0.087408096
0000c0 3f 22 c7 bc ae 5d 85 3c 02 49 38 3d cf 27 7e 3d
       -0.024308322 0.016280022 0.0449915 0.062049683
0000d0 7a 41 af 3d ec de f0 3d 3c d2 89 3a 1f 1d 19 bc
       0.085574105 0.11761269 0.0010514925 -0.009345322
0000e0 95 80 9c bd b2 97 31 be f9 a8 19 be 77 63 0a be
       -0.076417126 -0.17343023 -0.15005864 -0.13514505
0000f0 76 16 81 be 1a 33 74 be 9a ee 0d be a6 34 4b bd
       -0.2521245 -0.23847619 -0.1386055 -0.049610756
000100 e2 74 12 bd b3 70 6b bd b3 bb dd bd f4 fa 05 be
       -0.035756 -0.057480525 -0.108268164 -0.13084012
000110 b7 4f 10 be 0d 82 35 be e7 35 8d be a0 34 67 be
       -0.14092909 -0.17725392 -0.27580187 -0.22578669
000120 37 5e c5 3d a6 bc 74 3d fe 24 eb 3c ec ea 76 3d
       0.09637111 0.05975022 0.028704163 0.060282633
000130 07 a2 78 bd f2 cd 18 bd 09 cb 2c 3e 94 c9 a2 3d
       -0.060701396 -0.03730578 0.16874327 0.07948604
000140 38 09 b7 3d eb 18 49 3d 00 e6 6a 3d af 42 52 3d
       0.08937305 0.04909603 0.05734825 0.051333126
000150 1a f1 dc bc 23 7b e8 bd 2e d0 73 3d da fe 71 3e
       -0.026970435 -0.113516115 0.059524707 0.23632374
000160 23 da a3 3d 80 f8 98 3e 47 23 e9 bc 06 07 c2 bc
       0.08000591 0.2987709 -0.028459204 -0.02368499
000170 96 38 1f be 7b 85 10 be b9 39 b7 be 5a 46 a7 be
       -0.1554893 -0.14113419 -0.35786226 -0.3267086
000180 ca 6f 8f be 4b 1a b3 be 70 76 05 be 93 c0 ff 37
       -0.28014976 -0.34980997 -0.13033462 3.0488043e-05
000190 8a a9 12 bd 13 bc 58 bd 37 4f 12 be ad 7d f8 bd
       -0.035806216 -0.052913737 -0.1428803 -0.12133346
0001a0 20 2e e8 bd 34 af 6c be 1f ca 77 be 49 4f 1a be
       -0.11336923 -0.2311371 -0.24198197 -0.15069307
0001b0 fc 02 10 3c 1d 49 27 bc 2d 9f 1c 3d 77 2c 38 3c
       0.008789774 -0.010210303 0.03823774 0.01124107
0001c0 4f 9c 73 3d c1 b7 92 3d 84 e2 b1 bd 78 c8 da bc
       0.05947524 0.071639545 -0.086857826 -0.02670692
0001d0 8d a2 07 be a0 98 2b 3e d5 69 13 3e ab 6c 22 3e
       -0.13245602 0.1675744 0.1439584 0.15861766
0001e0 ae 72 a3 3d e9 ea c4 3d 1c f8 77 3d cc 46 72 3e
       0.07980858 0.09615118 0.06053935 0.2365982
0001f0 5a 16 19 3e 24 04 33 3e 57 0c 3e bd b9 6b e5 bc
       0.14949933 0.17482048 -0.046398487 -0.028005468
000200 f9 07 19 be cd 3f d6 bd 58 8c 76 bd 6a ca d4 bd
       -0.14944448 -0.10461388 -0.060192436 -0.1039017
000210 b8 f5 08 be 41 e3 9a be 3f 52 2e be ff c8 40 3d
       -0.13374984 -0.30251506 -0.17023562 0.047066685
000220 44 9c 95 bd 44 7c ba bd 04 4c 02 be 49 f0 81 be
       -0.07305196 -0.09105733 -0.1272431 -0.25378636
000230 2e ae 6e be 2e 95 82 be f8 d4 a3 be 53 3d f7 bd
       -0.23308632 -0.2550444 -0.3199842 -0.120722435
000240 97 99 bd bd 05 c8 d8 bd 45 bc a2 bd 34 7a 53 be
       -0.092578106 -0.10585026 -0.07946066 -0.20652086
000250 91 fd 7d be 4b e4 22 be 16 fe 6c be fc ab 86 be
       -0.24803759 -0.159074 -0.23143801 -0.2630309
000260 95 ea 7b be 46 93 f3 bb 27 ff aa bd f4 c3 83 3b
       -0.24601205 -0.007433328 -0.08349448 0.004021162
000270 4c ad 2e be 68 fc 21 be 1c db 91 be 3e a4 20 be
       -0.17058295 -0.15818942 -0.2848748 -0.15687653
000280 fe e8 3b be 6a 66 7e be b7 33 3c 3e 1e cd de 3d
       -0.18350598 -0.24843755 0.18379103 0.10878967
000290 37 cc 26 3d 3a 4a d9 3d 79 fd 9a 3c 97 fd 8c 3c
       0.0407221 0.10609861 0.018919693 0.017210765
0002a0 f0 f3 f3 3d 1d 43 fc 3d c9 03 2d 3e 54 ba c5 3c
       0.11911762 0.12317488 0.16895975 0.0241367
0002b0 ac 36 26 3d 3a 6f 4f bd 37 76 da 3c 76 c9 19 bd
       0.040579483 -0.050643183 0.026667697 -0.037545644
0002c0 18 59 5f bc 68 05 1f 3e 88 e7 a6 3c 70 87 0b 3e
       -0.013632081 0.15529406 0.020374075 0.13625884
0002d0 b0 7f 3a 3e a5 03 92 3d ea 17 f0 3d 0e 7a 36 3d
       0.18212771 0.071296014 0.11723311 0.044549994
0002e0 95 01 83 3d bc 8b b2 3d 73 bf 04 bd 63 73 9f bd
       0.06396786 0.087180585 -0.032409143 -0.0778568
0002f0 a9 cc 82 3d 94 e4 07 bd 7c 9d 51 bd 1f 8e b4 bd
       0.06386692 -0.033176973 -0.05117558 -0.0881617
000300 54 be 3a be bb 7e 17 be 67 67 67 be ee 2c 70 be
       -0.18236667 -0.14794438 -0.22598039 -0.2345464
000310 1e 84 67 be 69 9c 7b be df 99 36 3e dd cd 64 3e
       -0.22608992 -0.24571384 0.17832135 0.22344156
000320 b9 80 8e 3e df 30 37 3e 7e 20 a0 3d 77 a9 22 3e
       0.27832583 0.17889737 0.078186974 0.15884958
000330 14 41 8f 3e 11 a6 a4 3e 76 fa e5 3e eb a0 18 be
       0.27979338 0.3215795 0.4491765 -0.14905135
000340 cf 1b 3d be 71 c6 15 be c6 c2 27 be a4 92 06 be
       -0.1846764 -0.1462648 -0.16382894 -0.13141876
000350 77 e7 4e be d5 fe 08 be 81 e0 4d be 16 12 2d bd
       -0.20205484 -0.1337846 -0.20105173 -0.042253576
000360 d3 3c 17 bd 58 f6 2e be 0f d8 95 bd 94 6c 5b be
       -0.03692324 -0.1708616 -0.073166005 -0.21428138
000370 ca 4b 92 be cc e9 5f be ef a9 f1 bd e1 f4 8f be
       -0.28573447 -0.2186653 -0.117999904 -0.28116515
000380 2a 78 06 be b2 3a 76 3d 95 63 5c bc 7b cd 87 bd
       -0.13131776 0.06011457 -0.013451477 -0.06630989
000390 e3 49 07 be fb 3c ca bd 3f ce b7 bd b9 e9 a2 bd
       -0.1321178 -0.09874912 -0.08974885 -0.07954735
0003a0 7e 56 36 be 39 3c b3 bd 67 fb cf be dc b4 9b be
       -0.17806432 -0.08751721 -0.40621492 -0.30411422
0003b0 17 71 87 be a4 45 8f be 37 23 41 be 16 9b 08 be
       -0.26453468 -0.2798282 -0.1886109 -0.1334041
0003c0 7b 36 4b be be ad f0 bd 77 90 d7 3c dd 34 74 3c
       -0.19845001 -0.11751889 0.026314003 0.014905182
0003d0 76 e5 d0 bd d3 ab 3f be ab 25 57 bc b2 9d fe bc
       -0.10200016 -0.1871789 -0.013131539 -0.031081054
0003e0 86 74 46 bd 5c 6f 4e be 35 0c c3 bd 57 9a 84 bd
       -0.04845097 -0.20159668 -0.09523813 -0.064747505
0003f0 45 27 d8 3d f7 5a c4 3d 85 e6 74 3e 7e c1 cf 3d
       0.10554365 0.09587663 0.23916061 0.101443276

encoder5.features.0.bias f4 [64]
000000 7f d2 28 3d 5d 5a 37 bc c6 26 2d bd a2 0e 50 bd
       0.04121637 -0.011190978 -0.042273305 -0.050795205
000010 ae f4 d5 bc 43 cf 04 3d 94 21 12 bd 99 83 64 3d
       -0.026117649 0.032424223 -0.035676554 0.055789564
000020 cc 55 e2 bc ef 0b 3c bc c8 93 ec bc a3 b8 ea 3c
       -0.027628802 -0.011477455 -0.028879061 0.028652495
000030 52 dc ff bc 2c 67 a1 bc bd cc 3a bd a0 66 53 3d
       -0.031232987 -0.019702516 -0.04560541 0.051611543
000040 7f 00 47 3d 84 37 46 bd f5 0a 9b 3a 41 92 66 3c
       0.048584457 -0.048392788 0.0011828827 0.014072956
000050 91 e4 2e bd a4 cf c2 bc dd af 34 bc 88 89 0e bd
       -0.042698447 -0.023780651 -0.011028257 -0.03479913
000060 05 19 35 3d 88 de ff ba 15 98 0b 3d be 73 32 bd
       0.044213314 -0.0019521276 0.034080584 -0.04356741
000070 1b 65 63 3a 9f a2 07 bd fe 20 19 bd de 61 a8 3c
       0.00086744287 -0.033114072 -0.03738498 0.02055448
000080 17 c2 16 3d c8 7e 70 bd 2d 0d 0a 3d fa 7d 35 3b
       0.036806192 -0.058714658 0.03370397 0.0027693496
000090 07 0e 63 bd b6 e1 1d 3b ef 24 34 bd 50 bf 22 3d
       -0.0554333 0.0024090833 -0.043980535 0.03973323
0000a0 e2 76 9c bc 9c bd 1c bd 60 46 a0 bb ad 05 5b bd
       -0.019099656 -0.038266763 -0.004891202 -0.05347221
0000b0 26 4c 07 3d 6d fa 6d bd 8c c9 3b bd 51 52 ae 3c
       0.033031605 -0.058100153 -0.045846507 0.021279486
0000c0 ec 44 44 3d 99 67 04 3d 0c 70 9c bc 47 e9 27 3d
       0.04791729 0.03232536 -0.019096397 0.040993955
0000d0 28 8e d6 bc 28 a8 4f 3d 5a 9c 15 3d d6 69 ec 3b
       -0.026190832 0.050697476 0.03652606 0.007214765
0000e0 0f 24 07 bd 2a da 4f 3c e8 c8 34 3d dc 36 46 bc
       -0.032993373 0.012686292 0.04413691 -0.01209804
0000f0 5d ff e4 bc cf ec 7f 3c d6 25 1c bd 8a 4c 21 3d
       -0.027953798 0.015620424 -0.03812202 0.039379634

encoder5.features.1.weight f4 [64]
000000 e8 e1 63 3f c6 19 69 3f c4 85 5a 3f 8c 8c 85 3f
       0.8901658 0.9105495 0.8536036 1.0433517
000010 d2 86 b4 3f 2a 66 51 3f 75 1a 71 3f 2c 6a 79 3f
       1.4103644 0.81796515 0.94180995 0.9742763
000020 a5 29 5c 3f 4e 66 32 3f 62 b5 3f 3f b4 fa 6a 3f
       0.86001045 0.69687355 0.74886143 0.9178879
000030 03 b0 3a 3f ba 4b 5a 3f fb 3d 18 3f b3 32 45 3f
       0.7292482 0.852718 0.59469575 0.77030486
000040 cd 06 5f 3f 34 88 22 3f 30 5d 27 3f 1e 8c 6f 3f
       0.8711975 0.6348908 0.6537657 0.93573177
000050 8f b7 7d 3f db 7b a6 3f 86 1a 81 3f c3 a8 1d 3f
       0.99108213 1.3006548 1.0086219 0.61585635
000060 d0 a7 5f 3f ec ac 45 3f c4 17 89 3f fc c6 75 3f
       0.87365437 0.7721698 1.0710378 0.9600675
000070 b3 c3 4d 3f a7 b0 39 3f 23 f3 7e 3f c6 6b 2e 3f
       0.8037674 0.72535175 0.9958975 0.681332
000080 83 5f 5c 3f 0a 0a 1e 3f ec 90 30 3f 9d 31 76 3f
       0.8608324 0.6173407 0.68971133 0.96169454
000090 cb cf 51 3f 33 d5 49 3f 1e ee 70 3f 61 fc 41 3f
       0.8195769 0.7884094 0.9411334 0.75775725
0000a0 ce cc 3b 3f f8 fa 6b 3f 0d 66 48 3f 35 b6 8a 3f
       0.7335938 0.9217982 0.7828072 1.0836855
0000b0 e1 17 47 3f ee cc 5b 3f 97 b5 6c 3f 27 fa 42 3f
       0.7777081 0.8585957 0.92464584 0.7616295
0000c0 5a ac 2b 3f eb 6a 20 3f 3a d3 6c 3f 10 fa 6c 3f
       0.6705986 0.62663144 0.92509806 0.92569065
0000d0 ca 5c 3b 3f 8c c8 61 3f 81 04 3d 3f 0c 33 65 3f
       0.7318846 0.88196635 0.73835 0.89531016
0000e0 f4 7c 5b 3f 09 ec 48 3f 4a f1 41 3f 87 ed 6b 3f
       0.8573754 0.7848516 0.757588 0.9215931
0000f0 31 3a 8a 3f e2 28 49 3f 03 83 2d 3f 07 02 5d 3f
       1.0799009 0.7857801 0.67778033 0.8633122

encoder5.features.1.bias f4 [64]
000000 47 ab 05 3e 59 6c 4e 3e 81 30 4e ba 7c c3 82 3c
       0.13053618 0.20158519 -0.0007865504 0.015962355
000010 40 84 13 bf 71 c5 af be c2 2d 44 bb 8a a3 6d bc
       -0.5762367 -0.34330323 -0.00299345 -0.014504323
000020 d4 df 89 be 24 23 3c bf 5e ff ae 3e 54 4f 6f 3e
       -0.2692858 -0.7349112 0.34179205 0.23370105
000030 48 93 65 3e 5c 21 1a 3d e3 2b 1d be 6a 26 db be
       0.22419465 0.03762947 -0.15348773 -0.42802745
000040 f0 db 22 bd 02 0e 81 be 92 a3 df be 7c 25 c1 be
       -0.03976053 -0.25206 -0.43679482 -0.3772391
000050 58 f0 f0 3d 36 04 2c 3e 55 aa 27 3e 1e d3 26 be
       0.11764592 0.16798481 0.1637357 -0.16291472
000060 25 33 17 be 88 5f f7 bd a3 69 9d 3d f7 82 b1 3e
       -0.14765604 -0.12078768 0.07686164 0.3467023
000070 7e 43 80 bd 82 5a 0c bf e8 60 38 3e 92 d3 d1 be
       -0.06262873 -0.54825604 0.18005717 -0.40981728
000080 49 10 f5 be b4 fa 80 bf 63 12 b2 be c7 9c dc be
       -0.47863987 -1.0076509 -0.34779653 -0.43088362
000090 f5 0e 13 bf 64 11 d8 bd 98 a6 cf bd d4 03 0d bf
       -0.574447 -0.10550192 -0.10139197 -0.55083966
0000a0 78 71 e4 be 82 c4 05 3e d7 e6 84 bd 1f 6a 11 3e
       -0.4461782 0.13063243 -0.06489342 0.14200638
0000b0 c0 6a 11 3e ff c2 d5 be c1 c1 0a bf 13 ac 6b be
       0.14200878 -0.41750333 -0.54201895 -0.2301486
0000c0 cf 94 27 be 89 3e ca be 5a ed 26 3e 99 7c 90 be
       -0.1636536 -0.39500836 0.1630148 -0.2822006
0000d0 6b 47 e2 bd ce 20 3a 3e ca fb d8 be 47 b0 1f 3e
       -0.11048778 0.18176576 -0.423796 0.15594588
0000e0 be d5 80 be 44 b6 1e be 43 af 2e be 05 ec c6 be
       -0.25163072 -0.15499216 -0.17059045 -0.38851944
0000f0 7b 33 10 3e e3 71 14 be 28 67 bd bd 2c 32 24 bc
       0.14082138 -0.1449657 -0.09248191 -0.0100217275

encoder5.features.1.running_mean f4 [64]
000000 b5 fe 2e bf 75 d7 ea 3f bc cb c3 bf 11 66 0a 3f
       -0.683574 1.8347002 -1.529655 0.5406199
000010 40 49 e1 c0 4a b8 e1 bf b6 fc 2d c0 ab 60 cd 3f
       -7.0401917 -1.7634366 -2.7185493 1.6045126
000020 e7 91 73 40 d1 62 07 40 57 cb 18 40 4e 02 7a bf
       3.8057802 2.1154063 2.3874109 -0.97659767
000030 b0 56 71 c0 ce be 98 c0 72 d4 90 c0 aa ad 22 40
       -3.770916 -4.7732916 -4.5259333 2.5418496
000040 e0 aa 8b c0 6d fa cb 3e 5f 4f 81 c0 d4 c5 18 c1
       -4.364609 0.39839497 -4.040939 -9.548298
000050 ec ed 1d bf aa af 90 3e c1 86 6b c0 41 f1 5f c0
       -0.61691165 0.2825902 -3.6800997 -3.4991
000060 67 c1 76 c0 c7 02 1b 3f f5 ae 1f 3e 94 21 8c c0
       -3.8555543 0.6055111 0.15594085 -4.379099
000070 b6 a1 8a c0 89 e5 29 40 91 65 80 c0 e6 f7 bf c0
       -4.33224 2.6546347 -4.0123982 -5.999011
000080 75 95 c7 3f 89 e9 0f 40 3d fc a2 c0 6e a0 f4 c0
       1.5592486 2.2486289 -5.093291 -7.6445837
000090 ef 4a 73 3f 68 2e 35 c0 e0 71 0c c0 c6 fc 06 40
       0.95036215 -2.8309574 -2.1944504 2.109178
0000a0 86 aa 6d 40 a0 fd 06 40 b4 b8 ab 3f 14 c4 c6 bf
       3.713533 2.10923 1.3415742 -1.5528588
0000b0 ae 01 70 c0 f9 9e 5a 40 55 22 54 40 1c 18 a5 c0
       -3.7501025 3.415953 3.3145955 -5.159193
0000c0 b8 f2 3c c0 ce ba b0 3e f1 83 3f c0 18 c2 07 c1
       -2.9523144 0.3451752 -2.992428 -8.484886
0000d0 f2 1b 5c 3f 48 ca 20 c0 27 15 f2 3f f7 e1 83 3e
       0.8598014 -2.5123463 1.8912705 0.25758335
0000e0 9e 1e c0 c0 b3 31 71 3f ca 4d 34 3e 45 e0 8e 40
       -6.0037374 0.9421646 0.17607799 4.4648767
0000f0 ec df 74 bf ed 00 de 3f 56 7c 60 c0 01 a8 b1 bf
       -0.9565418 1.7344033 -3.5075889 -1.3879396

encoder5.features.1.running_var f4 [64]
000000 27 ce 83 41 16 c0 ba 42 b9 fe c8 41 0a fd 3a 42
       16.47566 93.37517 25.124376 46.74711
000010 8a da 53 41 04 a2 01 41 a9 1d 97 41 52 af 5c 41
       13.240854 8.102055 18.889482 13.792803
000020 5b 7a 5d 42 19 d8 9c 41 9b b7 a6 42 53 d6 b9 41
       55.369488 19.605516 83.358604 23.22965
000030 39 c4 32 43 cd b9 ae 42 07 e8 7a 42 21 05 a2 41
       178.7665 87.36289 62.72659 20.252504
000040 8d 8d 40 43 97 ce b7 40 d3 82 8b 42 1f 96 83 43
       192.55293 5.7439685 69.755516 263.17282
000050 39 88 0e 42 d7 68 cd 42 f2 8e 1e 43 7b 70 81 41
       35.63303 102.704765 158.55838 16.179922
000060 c3 8f 1e 41 92 e9 ba 41 04 a3 4f 42 57 09 4e 43
       9.910098 23.364048 51.909195 206.03648
000070 b4 38 40 43 13 41 83 41 dd ac 55 43 68 27 13 43
       192.2215 16.406775 213.67525 147.15393
000080 69 a6 fc 40 71 62 1e 42 b3 07 07 43 7e 08 35 43
       7.8953137 39.596134 135.03008 181.03317
000090 4a 05 2f 40 7d 1e 9f 41 8e ea 90 42 c6 2b b6 40
       2.7346978 19.889887 72.458115 5.6928434
0000a0 54 36 9e 41 07 7f 8d 42 41 8b 41 41 1e 30 ed 40
       19.776527 70.7481 12.096498 7.4121237
0000b0 70 2c c5 42 df 15 c1 41 91 36 9c 41 f3 ba 59 43
       98.58679 24.13568 19.526644 217.73027
0000c0 11 4d fd 41 8e 30 20 41 c1 01 3e 43 cb 60 d3 43
       31.66263 10.011854 190.00685 422.7562
0000d0 5f bb 64 41 9a c4 d5 42 61 6c 5f 41 25 d0 f6 40
       14.295745 106.88399 13.96396 7.7129083
0000e0 b7 9c 5d 43 51 64 a8 41 9d c7 14 41 7b 94 02 42
       221.61217 21.048983 9.298734 32.645
0000f0 94 1a 33 42 b9 cf 9c 42 92 16 76 42 f5 35 56 42
       44.775955 78.40571 61.52204 53.552692
