model/SRNet_2021-07-18_23-16-11.pth (torch, 226039 bytes, 102 tensors)

encoder1.features.0.weight f4 [4, 3, 3, 3]
-0.30398896 -0.32801136 -0.06272728 -0.42035824 -0.32483736 -0.25686106 -0.21297571 -0.42425016
-0.17300102 -0.20071423 -0.11793215 -0.32286116 -0.28261408 -0.026523303 -0.32828313 -0.2998663
-0.22586498 -0.40094972 0.51834214 0.25457937 0.4659954 0.45975137 0.25520298 0.3092485
0.1820922 0.4422513 0.07778056 -0.042342115 -0.22527653 -0.24224076 -0.10255469 0.22336596
-0.102037534 -0.008263245 -0.19529134 -0.22751744 0.016380787 0.5537956 0.37475887 0.0682006
1.293242 1.0281912 0.025027046 0.39452264 0.07780378 -0.2586073 0.19282933 0.07385961
0.080097124 1.3262984 0.9032136 -0.39780706 0.18715839 0.11016343 0.21913587 0.16140018
0.10939454 0.20421486 0.23146334 0.25126234 0.07501434 0.1829817 0.3323244 -0.50066394
-0.07666713 -0.28859937 -0.3231409 -0.15487832 -0.39356634 -0.38921413 -0.14580874 -0.37673014
0.25787392 0.32410133 0.19598864 0.28017125 0.38730854 0.027286084 0.26191857 -0.063885756
0.0149031 0.11625412 0.020713188 -0.074307986 -0.00020190956 0.013190768 -0.0024766163 0.067697875
0.11980343 0.06548255 -0.13546526 -0.004295573 -0.14356512 -0.23103592 -0.17768693 0.029593704
-0.19922163 -0.27019992 -0.07418088 -0.036827073 0.02561625 0.15107477 -0.1618419 -0.25870076
-0.22835459 0.106476195 -0.27380544 -0.16036451
00000000: 71a4 9bbe 1bf1 a7be 2977 80bd 3239 d7be
00000010: 1551 a6be 4b83 83be 4e16 5abe 5137 d9be
00000020: 2e27 31be 0888 4dbe 6986 f1bd 0f4e a5be
00000030: cbb2 90be 6647 d9bc ba14 a8be 1388 99be
00000040: 2649 67be 4849 cdbe 12b2 043f 3a58 823e
00000050: f396 ee3e 8864 eb3e f7a9 823e d255 9e3e
00000060: 6176 3a3e c36e e23e 6a4b 9f3d ed6e 2dbd
00000070: e4ae 66be f60d 78be 3108 d2bd 0cba 643e
00000080: 0ef9 d0bd 9062 07bc 74fa 47be 55fa 68be
00000090: 0031 863c 8cc5 0d3f 65e0 bf3e c2ac 8b3d
000000a0: f488 a53f c59b 833f 8505 cd3c dffe c93e
000000b0: 9757 9f3d 2d68 84be 0d75 453e b543 973d
000000c0: f609 a43d 25c4 a93f 0239 673f 5ead cbbe
000000d0: 73a6 3f3e 5d9d e13d 2765 603e 1746 253e
000000e0: 3f0a e03d b31d 513e ba04 6d3e 75a5 803e
000000f0: 1ea1 993d 8e5f 3b3e 6c26 aa3e 832b 00bf
00000100: a803 9dbd 4cc3 93be b972 a5be 6c98 1ebe
00000110: 8781 c9be 1347 c7be e34e 15be c6e2 c0be
00000120: 0d08 843e 9cf0 a53e 3fb1 483e 9b72 8f3e
00000130: 4e4d c63e 1187 df3c 311a 863e 89d6 82bd
00000140: 222c 743c a416 ee3d b4ae a93c c92e 98bd
00000150: afb7 53b9 171e 583c ba4e 22bb 2fa5 8a3d
00000160: 805b f53d b71b 863d 68b7 0abe e1c1 8cbb
00000170: bc02 13be ae94 6cbe 90f3 35be 7f6e f23c
00000180: c100 4cbe a557 8abe 25ec 97bd fcd7 16bd
00000190: 2bd9 d13c 58b3 1a3e e2b9 25be 6d74 84be
000001a0: c9d5 69be 3110 da3d 3a30 8cbe 9836 24be

encoder1.features.0.bias f4 [4]
0.19394097 0.09607865 0.20342374 -0.0067955563
00000000: 7698 463e e2c4 c43d 504e 503e 42ad debb

encoder1.features.1.weight f4 [4]
1.0301944 1.3013582 0.7381118 1.217196
00000000: 69dd 833f e892 a63f e5f4 3c3f 14cd 9b3f

encoder1.features.1.bias f4 [4]
-0.6057811 0.5655782 -0.51521254 -0.04358121
00000000: 7814 1bbf bcc9 103f f8e4 03bf 3682 32bd

encoder1.features.1.running_mean f4 [4]
-0.9814435 2.3241649 0.5791417 -0.73921484
00000000: e23f 7bbf 1ebf 1440 a142 143f 2f3d 3dbf

encoder1.features.1.running_var f4 [4]
0.31573972 1.3305575 0.051754862 0.1457715
00000000: a3a8 a13e b54f aa3f e8fc 533d 2045 153e

encoder2.features.0.weight f4 [8, 4, 3, 3]
0.04911442 0.05423303 -0.05890896 -0.119466625 0.088771544 0.08208792 0.0073717088 -0.1968446
0.07274524 0.2375935 -0.02728663 -0.0084381 -0.25737846 -0.022003753 -0.037036654 -0.23741524
-0.19017357 -0.087837964 -0.1588025 -0.3823833 -0.32491374 -0.40825808 -0.3151791 -0.25180092
-0.30591357 -0.3006314 -0.31358233 0.0017811478 0.17540261 0.16715923 0.39998809 0.29870015
0.2940685 0.311549 0.086539045 -0.07653638 0.19753046 -0.18423599 -0.2633334 0.15498422
-0.35666505 -0.31527728 0.60404253 -0.19930075 -0.4531387 0.07201876 0.57107663 0.5032191
-0.10924438 0.3479384 0.47150022 -1.0370954 -0.28930014 0.22536366 -0.09361363 0.04971631
-0.018524835 -0.1127541 0.058583066 -0.07790267 -0.31176794 -0.17761423 0.020232208 0.29058936
-0.053810786 0.051964417 0.08456465 0.17233066 0.11338599 0.12913184 0.06766714 0.0840983
-0.13383946 -0.21860722 -0.21335188 -0.29416734 -0.23223367 0.080280885 -0.17270589 -0.14513533
0.14776693 0.30126843 0.28707233 -0.100364685 0.49926448 0.2925428 -0.38286218 0.3491949
0.18399093 0.137919 0.056351986 0.13625777 0.059309058 -0.059848387 0.09333463 0.19142304
0.066753976 -0.045695107 -0.0032098785 -0.18137875 -0.36910844 0.05102622 -0.1474085 -0.2673359
0.03127479 0.09259743 -0.15442435 0.23586226 0.28688 0.13309275 0.17925425 0.09135816
0.18870504 0.3268245 0.08575586 0.2369176 0.32172808 -0.11622775 -0.09403981 -0.09029846
-0.18791215 -0.22767077 -0.036121137 0.027039243 -0.25292984 -0.041275617 0.065957345 0.012320486
-0.055660874 -0.08091824 0.20886229 0.08063224 0.17771399 0.11623183 0.13138224 0.119003214
0.11353981 0.051966842 0.28252524 0.13793398 0.12761632 -0.001649988 0.08292825 0.09658816
0.025333248 0.2298598 0.17619355 -0.23147008 -0.15611579 -0.065763265 -0.24970414 -0.24984707
-0.13837594 -0.0047130077 -0.010758735 -0.6095726 0.41099983 0.5904409 -0.025474919 0.65468955
0.9131769 0.43861628 -0.4629339 -0.16536075 -0.026932416 -0.14981775 -0.18617377 -0.26507595
-0.29340598 -0.107532345 -0.21826246 0.17162612 0.339962 0.7588702 0.13382389 -0.25770545
0.24238577 0.1378967 -0.48552647 0.055260222 -0.24815844 -0.42463702 -0.3038085 -0.29674107
-0.31894934 -0.3693276 -0.4145622 -0.21407613 -0.2945807 -0.27076784 -0.065168545 -0.3250738
0.17686851 -0.17863381 -0.25376073 0.03120415 -0.26426634 0.32821655 -0.044735525 -0.113238394
-0.11469329 0.2740323 0.023561673 -0.06511029 0.07444045 0.14942041 0.33782762 -0.4165525
-0.45540923 -0.57009345 -0.53702897 -0.41168532 -0.74352115 -0.62109756 -0.614875 -0.37557554
0.20426786 0.22875094 0.11943831 0.17604724 0.04469837 0.113257185 0.10792476 0.22749463
0.13758507 -0.09260732 -0.021981195 -0.015404568 -0.14120199 -0.06536518 -0.051976744 0.21346653
0.26657492 0.13235539 0.022731721 -0.108682014 -0.2222251 -0.18458298 0.04907058 0.037047554
0.08884477 -0.11481707 0.10971762 0.2682217 0.0655226 0.22547987 0.3939274 0.3705096
0.04545942 -0.06862097 0.12930207 0.14331044 0.35029083 0.25652456 0.0035404647 0.29792535
00000000: 342c 493d 7423 5e3d 864a 71bd ebaa f4bd
00000010: dbcd b53d b61d a83d 608e f13b a191 49be
00000020: 75fb 943d b64b 733e 3688 dfbc f53f 0abc
00000030: 1cc7 83be 3741 b4bc bfb3 17bd fb1c 73be
00000040: dcbc 42be 64e4 b3bd 1f9d 22be bec7 c3be
00000050: 185b a6be 3407 d1be 285f a1be 0dec 80be
00000060: b4a0 9cbe 5cec 99be dd8d a0be 6775 e93a
00000070: be9c 333e ca2b 2b3e 3dcb cc3e 3aef 983e
00000080: 2590 963e 5a83 9f3e 623b b13d 1bbf 9cbd
00000090: 6d45 4a3e 5ca8 3cbe a3d3 86be 2fb4 1e3e
000000a0: cd9c b6be 066c a1be 88a2 1a3f 7f15 4cbe
000000b0: cc01 e8be 927e 933d 1432 123f f8d2 003f
000000c0: 84bb dfbd fb24 b23e 7a68 f13e 8bbf 84bf
000000d0: 261f 94be bbc5 663e 81b8 bfbd 54a3 4b3d
000000e0: 65c1 97bc 9feb e6bd ccf4 6f3d 6f8b 9fbd
000000f0: 0ca0 9fbe 81e0 35be 04be a53c 21c8 943e
00000100: b368 5cbd a4d8 543d 3b30 ad3d 7377 303e
00000110: ea36 e83d 233b 043e 1295 8a3d bb3b ac3d
00000120: 360d 09be 92da 5fbe ea78 5abe 1a9d 96be
00000130: aace 6dbe 4e6a a43d d0d9 30be 5b9e 14be
00000140: 3750 173e db3f 9a3e 25fb 923e 008c cdbd
00000150: 989f ff3e 2bc8 953e 8306 c4be adc9 b23e
00000160: 1e68 3c3e a33a 0d3e 57d1 663d 2887 0b3e
00000170: 0eee 723d 9523 75bd 3a26 bf3d 6704 443e
00000180: 4fb6 883d cb2a 3bbd d35c 52bb 5abb 39be
00000190: c8fb bcbe df00 513d 41f2 16be 40e0 88be
000001a0: ff19 003d b9a3 bd3d 6b21 1ebe e085 713e
000001b0: efe1 923e 7749 083e 6d8e 373e fd19 bb3d
000001c0: e53b 413e 8a55 a73e c5a0 af3d 879a 723e
000001d0: 8bb9 a43e d108 eebd f297 c0bd 66ee b8bd
000001e0: 0b6c 40be 8722 69be c2f3 13bd 6781 dd3c
000001f0: 0580 81be 9f10 29bd a514 873d dddb 493c
00000200: a8fc 63bd 76b8 a5bd ffdf 553e 8422 a53d
00000210: a8fa 353e f40a ee3d 1189 063e f5b7 f33d
00000220: 8f87 e83d 2fdb 543d 26a7 903e 913e 0d3e
00000230: daad 023e 6944 d8ba 49d6 a93d 03d0 c53d
00000240: ac87 cf3c 5e60 6b3e 156c 343e 7e06 6dbe
00000250: d1dc 1fbe e4ae 86bd 71b2 7fbe e9d7 7fbe
00000260: 6cb2 0dbe 936f 9abb 6845 30bc f30c 1cbf
00000270: 926e d23e 2327 173f c7b0 d0bc bc99 273f
00000280: f6c5 693f 5092 e03e ac05 edbe 5454 29be
00000290: 5fa1 dcbc d369 19be 56a4 3ebe 09b8 87be
000002a0: 4f39 96be eb39 dcbd 3280 5fbe c2be 2f3e
000002b0: 800f ae3e 5145 423f 2109 093e f8f1 83be
000002c0: fa33 783e cb34 0d3e ed96 f8be 8b58 623d
000002d0: 3f1d 7ebe 066a d9be ca8c 9bbe 72ee 97be
000002e0: 544d a3be 8218 bdbe 7f41 d4be c636 5bbe
000002f0: 48d3 96be 15a2 8abe 1677 85bd 1370 a6be
00000300: 051d 353e c8eb 36be edec 81be d89f ff3c
00000310: eb4d 87be 000c a83e 993c 37bd 88e9 e7bd
00000320: 51e4 eabd f64d 8c3e 6904 c13c 8b58 85bd
00000330: 3c74 983d aa01 193e bef7 ac3e 5f46 d5be
00000340: 662b e9be a5f1 11bf bb7a 09bf 6bc8 d2be
00000350: 6757 3ebf 4000 1fbf 7368 1dbf 704b c0be
00000360: 982b 513e b03d 6a3e 139c f43d ba45 343e
00000370: a315 373d 62f3 e73d a807 dd3d 5af4 683e
00000380: 1ae3 0c3e e8a8 bdbd e811 b4bc 7163 7cbc
00000390: 4197 10be 2ede 85bd 91e5 54bd f896 5a3e
000003a0: 827c 883e 2c88 073e e037 ba3c ad94 debd
000003b0: fa8e 63be 5203 3dbe 3cfe 483d 2dbf 173d
000003c0: 3ff4 b53d 3625 ebbd a2b3 e03d 5b54 893e
000003d0: b730 863d 32e4 663e dab0 c93e 6fb3 bd3e
000003e0: a833 3a3d 2789 8cbd c367 043e f9bf 123e
000003f0: 5259 b33e 3057 833e 2407 683b ac89 983e

encoder2.features.0.bias f4 [8]
-0.031192444 0.034140255 -0.15109403 0.091177344 -0.1103956 -0.14295673 0.016919473 -0.17112575
00000000: 4c87 ffbc a7d6 0b3d 65b8 1abe 30bb ba3d
00000010: 1717 e2bd 4063 12be b59a 8a3c 973b 2fbe

encoder2.features.1.weight f4 [8]
1.0862869 0.6146294 0.9635206 1.0156449 0.7781132 0.9768818 0.9543067 0.81218326
00000000: 730b 8b3f 5a58 1d3f 49a9 763f a700 823f
00000010: 6d32 473f ed14 7a3f 724d 743f 3eeb 4f3f

encoder2.features.1.bias f4 [8]
-0.058168214 -0.2748427 0.36118862 -0.74326634 0.24859822 0.19805571 -0.7176158 -0.1635477
00000000: cb41 6ebd 2fb8 8cbe b7ed b83e b446 3ebf
00000010: 8890 7e3e 1ecf 4a3e abb5 37bf 0c79 27be

encoder2.features.1.running_mean f4 [8]
-0.10009095 0.9488024 0.7239408 0.123024695 2.1908019 -3.7741013 1.2371237 -0.94433725
00000000: 7cfc ccbd b7e4 723f 2f54 393f 5ff4 fb3d
00000010: 1936 0c40 e08a 71c0 125a 9e3f 16c0 71bf

encoder2.features.1.running_var f4 [8]
3.1159153 0.7252333 4.5255804 3.4816449 4.3356996 8.950548 1.3052889 1.781045
00000000: 286b 4740 e4a8 393f 8ed1 9040 45d3 5e40
00000010: 0dbe 8a40 7235 0f41 b513 a73f 48f9 e33f

encoder3.features.0.weight f4 [16, 8, 3, 3]
-0.11124091 -0.05798704 -0.11947429 -0.08062787 -0.16167922 -0.073378146 -0.060259137 0.040838867
-0.14279057 -0.1966978 0.050653283 0.044367928 0.012129798 -0.042723235 -0.06368433 0.03265246
0.034762837 -0.023956519 -0.21160334 -0.44025356 -0.34783491 -0.16460668 -0.09345361 -0.07020521
-0.12872824 -0.15786493 -0.093973845 0.20117126 0.21630388 0.108329155 0.33752647 0.10977498
0.227555 0.40168682 0.27232823 0.27384147 -0.14516488 -0.1895202 -0.017539425 0.036443688
0.027148811 0.015889226 0.14324754 0.054702662 0.2165028 -0.6418119 -0.5724127 -0.63142306
-0.43470868 -0.6021085 -0.3736236 -0.26627213 -0.33323088 -0.49737278 -0.121719375 -0.09346557
-0.06654925 -0.02102136 0.119976416 0.008644574 0.0075361445 0.09095426 0.01705678 0.11008185
0.045344256 0.024916945 0.16103308 0.04976866 -0.08742137 0.10271679 0.14951777 -0.012410957
-0.34277886 -0.24391091 -0.16944677 -0.36187813 -0.38110474 -0.4750532 -0.10080302 -0.5042115
-0.4063623 0.8160083 0.54533607 0.6035781 -0.22225203 -0.18200497 -0.032285877 -0.22687273
-0.60308623 -0.6047836 1.2930031 0.58521646 0.32584205 0.27137172 -0.02395794 -0.34033018
-0.2582821 -0.6230495 -0.8354441 -0.17449667 -0.10257843 0.040153347 -0.08384125 -0.0529393
0.008596955 -0.070580006 -0.051413678 -0.0016774557 0.6639005 0.31305233 0.23832025 0.2583341
0.09094104 -0.17988156 -0.42010936 -0.4374908 -0.7435569 -0.14652348 -0.35224286 -0.3647808
-0.030655768 0.10756651 0.2710026 -0.24567336 0.11022748 0.18315247 -0.25247467 -0.019665383
0.020439692 -0.13984625 -0.045999553 -0.07355858 -0.19488095 -0.1771039 -0.15501912 -0.31294158
0.044693343 0.038194124 0.028128855 0.17565267 0.27348194 0.15580224 0.35723487 0.36149576
0.15980648 0.045412283 0.1666449 0.24078965 0.2147202 0.23046862 0.32429856 0.3295323
0.14198251 -0.34813386 -0.35741323 -0.38480258 -0.34020784 -0.21370171 -0.16503137 0.10655275
0.1951686 -0.14051399 -0.3391336 -0.45024908 -0.32292736 -0.19520621 -0.11096044 0.08666311
0.27344358 0.50055087 0.49986532 0.20502685 0.1409917 0.32041067 0.3208886 0.13518085
0.24363856 0.5004462 0.46013722 0.4054945 -0.29239604 -0.34289032 -0.11703173 0.12540066
0.45728207 0.5326851 0.47578704 0.64302015 0.67253494 0.72817904 0.9016856 0.54243
0.46037328 0.6925556 0.6151669 0.2519338 0.28779492 0.12371481 0.18004423 0.002810818
0.05363956 0.03010748 0.04325104 -0.02003244 0.24501568 0.115214035 0.1860086 -0.1609884
-0.21597941 -0.09239364 -0.09739693 -0.030576743 -0.13468084 0.05605457 0.09089753 0.08957433
-0.14541297 -0.007987634 -0.11416824 0.09997691 0.23249166 0.1647414 -0.1324986 -0.1406923
-0.3660513 0.5001763 0.18449199 0.29238304 -0.11432084 -0.21133442 -0.35850462 -0.40456215
-0.55726016 -0.37249747 0.004287478 -0.0978526 0.105370864 -0.5834214 -0.70363224 -0.48726025
-0.38339028 -0.2543869 0.10433146 -0.6989214 -0.45619914 -0.1888316 -0.1259477 -0.18371746
0.017154824 -0.49197966 -0.43708208 -0.19665389 0.09584424 -0.113309525 0.24107309 -0.650255
00000000: 46d2 e3bd d283 6dbd f0ae f4bd 3a20 a5bd
00000010: 3d8f 25be 4847 96bd 49d2 76bd a846 273d
00000020: b137 12be 266b 49be d179 4f3d 25bb 353d
00000030: 0fbc 463c 8ffe 2ebd ee6c 82bd 96be 053d
00000040: 7a63 0e3d 7640 c4bc 8cae 58be ea68 e1be
00000050: 6b17 b2be a78e 28be 9b64 bfbd c0c7 8fbd
00000060: 56d1 03be 58a7 21be 5c75 c0bd d7ff 4d3e
00000070: c47e 5d3e addb dd3d 45d0 ac3e b4d1 e03d
00000080: 2e04 693e e5a9 cd3e 9b6e 8b3e f334 8c3e
00000090: 1aa6 14be 9511 42be d7ae 8fbc fa45 153d
000000a0: 2f67 de3c 1f2a 823c 7caf 123e e60f 603d
000000b0: e9b2 5d3e c94d 24bf a489 12bf f1a4 21bf
000000c0: 2392 debe c823 1abf 984b bfbe d254 88be
000000d0: 3d9d aabe a5a7 febe 0248 f9bd e06a bfbd
000000e0: f94a 88bd fd34 acbc 32b6 f53d f9a1 0d3c
000000f0: c3f1 f63b 3a46 ba3d a9ba 8b3c 9872 e13d
00000100: e6ba 393d 9f1e cc3c dbe5 243e 39da 4b3d
00000110: fa09 b3bd 2e5d d23d 301b 193e 5457 4bbc
00000120: b680 afbe c8c3 79be 7483 2dbe 1748 b9be
00000130: 2920 c3be 2c3a f3be d071 cebd 0114 01bf
00000140: b80e d0be ece5 503f 259b 0b3f 1884 1a3f
00000150: 0996 63be 835f 3abe 323e 04bd 5351 68be
00000160: dc63 1abf 19d3 1abf 2081 a53f bfd0 153f
00000170: c5d4 a63e 3cf1 8a3e 7143 c4bc c23f aebe
00000180: 8d3d 84be 2c80 1fbf aadf 55bf 41af 32be
00000190: a414 d2bd d677 243d f6b4 abbd e1d6 58bd
000001a0: 3eda 0c3c 408c 90bd 2697 52bd 13de dbba
000001b0: 62f5 293f 6548 a03e 390a 743e 5e44 843e
000001c0: 4c3f ba3d df32 38be 9318 d7be cbfe dfbe
000001d0: bf59 3ebf 400a 16be 2d59 b4be 8dc4 babe
000001e0: ce21 fbbc d54b dc3d dac0 8a3e cc91 7bbe
000001f0: f2be e13d 528c 3b3e 5c44 81be 4c19 a1bc
00000200: 2471 a73c db33 0fbe 076a 3cbd e1a5 96bd
00000210: df8e 47be ba5a 35be 55bd 1ebe e139 a0be
00000220: 5e10 373d 7171 1c3d 7c6e e63c 4bde 333e
00000230: d305 8c3e 9f8a 1f3e 7de7 b63e f915 b93e
00000240: 4fa4 233e 3b02 3a3d f6a4 2a3e 9091 763e
00000250: 9ddf 5b3e f7ff 6b3e 760a a63e 75b8 a83e
00000260: dd63 113e 9a3e b2be defe b6be d804 c5be
00000270: b92f aebe 9fd4 5abe fcfd 28be 5438 da3d
00000280: 47da 473e e6e2 0fbe eba2 adbe 0c87 e6be
00000290: bc56 a5be 23e4 47be 3a3f e3bd 6e7c b13d
000002a0: cc00 8c3e 1a24 003f 59ee ff3e 8ff2 513e
000002b0: 2160 103e de0c a43e 834b a43e d96c 0a3e
000002c0: 637c 793e 3e1d 003f 1b97 eb3e fa9c cf3e
000002d0: efb4 95be 528f afbe 55ae efbd 0869 003e
000002e0: e020 ea3e 0d5e 083f 5c9a f33e f89c 243f
000002f0: 402b 2c3f f169 3a3f ded4 663f b1dc 0a3f
00000300: 0cb6 eb3e 534b 313f 947b 1d3f 78fd 803e
00000310: db59 933e 315e fd3d 845d 383e b335 383b
00000320: 28b5 5b3d f6a3 f63c 0128 313d 121b a4bc
00000330: 64e5 7a3e 56f5 eb3d 0a79 3e3e 25da 24be
00000340: b529 5dbe e038 bdbd 0b78 c7bd 147c fabc
00000350: c6e9 09be 7a99 653d 7c28 ba3d bf72 b73d
00000360: 23e7 14be 91de 02bc 0ad1 e9bd b2c0 cc3d
00000370: 4b12 6e3e f8b1 283e b7ad 07be a411 10be
00000380: 136b bbbe 8e0b 003f 78eb 3c3e 3bb3 953e
00000390: 0b21 eabd 0d68 58be eb8d b7be c522 cfbe
000003a0: 9aa8 0ebf fdb7 bebe f97d 8c3b f266 c8bd
000003b0: aecc d73d 1b5b 15bf 3e21 34bf 2d7a f9be
000003c0: bb4b c4be 003f 82be bcab d53d 83ec 32bf
000003d0: ef92 e9be 125d 41be 6ff8 00be 6e20 3cbe
000003e0: 4688 8c3c c2e4 fbbe 39c9 dfbe a35f 49be
000003f0: fc49 c43d d30e e8bd dddb 763e 1d77 26bf

encoder3.features.0.bias f4 [16]
-0.057105023 -0.060304284 -0.008240629 0.08164704 -0.07445348 -0.005658784 -0.057510145 0.040464684
0.06832311 0.031881507 0.06260764 0.030762786 -0.11415102 0.04604725 -0.08852441 0.08313655
00000000: f5e6 69bd a001 77bd b403 07bc 9036 a73d
00000010: 117b 98bd 526d b9bb c28f 6bbd 4cbe 253d
00000020: fdec 8b3d 2f96 023d 6f38 803d 3d02 fc3c
00000030: 03c8 e9bd 0b9c 3c3d 494c b5bd 7f43 aa3d

encoder3.features.1.weight f4 [16]
0.5088664 1.0317987 0.857175 0.8302517 0.83589303 0.62579787 0.73153 1.2370918
1.025985 0.62378514 0.5279058 0.7160733 0.7837695 0.7483559 0.80864936 0.46994027
00000000: 1245 023f fb11 843f d26f 5b3f 608b 543f
00000010: 16fd 553f 4a34 203f 8d45 3b3f 0659 9e3f
00000020: 7a53 833f 62b0 1f3f d624 073f 9450 373f
00000030: 1ea5 483f 4194 3f3f a503 4f3f 039c f03e

encoder3.features.1.bias f4 [16]
-0.27294353 -0.23463064 -0.8708669 0.29436037 -0.15542522 0.26155707 -1.0956396 0.031264283
0.28491935 -1.0023959 -0.4745102 -0.551419 -0.4572559 -0.9157523 -1.0387183 -0.53041834
00000000: 41bf 8bbe 0443 70be 22f1 5ebf 67b6 963e
00000010: ca27 1fbe cfea 853e eb3d 8cbf fa0e 003d
00000020: f3e0 913e 824e 80bf 00f3 f2be cc29 0dbf
00000030: 721d eabe be6e 6abf b9f4 84bf 7fc9 07bf

encoder3.features.1.running_mean f4 [16]
-3.4100268 -1.5015839 4.619441 -5.161327 -1.6451411 -3.1478837 3.1792996 0.32700047
0.433962 5.1909485 -1.1418297 -2.8867273 -4.18497 2.9437704 4.9973946 1.4991488
00000000: e13d 5ac0 e733 c0bf 76d2 9340 9729 a5c0
00000010: fc93 d2bf ed76 49c0 a579 4b40 9b6c a73e
00000020: 4430 de3e 401c a640 7a27 92bf 24c0 38c0
00000030: 46eb 85c0 bc66 3c40 a8ea 9f40 1ce4 bf3f

encoder3.features.1.running_var f4 [16]
8.931651 5.7491646 4.2796917 15.49094 7.5803185 12.268849 1.8349315 5.481458
21.713121 5.773134 9.312353 8.658051 12.497625 5.551345 14.455791 2.5664494
00000000: 0be8 0e41 28f9 b740 3cf3 8840 e4da 7741
00000010: f891 f240 354d 4441 09df ea3f 1b68 af40
00000020: 79b4 ad41 84bd b840 66ff 1441 6087 0a41
00000030: 46f6 4741 9ea4 b140 ec4a 6741 b540 2440

encoder4.features.0.weight f4 [32, 16, 3, 3]
0.17339522 0.23212723 0.27567238 0.34920266 0.11426556 0.24395122 0.65504843 0.1523145
0.24491373 -0.12898311 -0.77456385 -0.98828256 0.5754797 -0.30624416 -0.39478326 0.7274539
0.18786958 0.16523479 -0.98157364 -0.44349834 0.31038696 -0.4779891 -0.24338503 0.16802609
-0.271428 -0.14846003 0.31835186 -0.4449505 0.10486397 0.30193985 -0.19029632 -0.15627743
-0.19711484 0.18406714 0.2774974 -0.05084896 0.19133267 -0.30395913 -0.06531897 0.35367724
-0.31832546 0.08575249 1.1791004 0.2849607 -0.03713859 0.6270925 0.1780194 0.28964382
0.12503073 -0.018039884 0.5962996 0.24703273 0.31372553 0.9096746 -0.1830337 0.21923275
0.6472824 -0.47683668 -0.0117081385 0.45509112 -0.3366885 0.045141656 0.3486312 -0.0048662852
-0.2636047 -0.58593935 0.04336878 0.108542785 -0.37669685 0.5347446 0.86240107 -0.11385201
0.12782526 0.8149794 1.3576118 -0.902084 -0.012156764 0.6728863 -1.5344776 -0.38013685
0.38981438 -0.26599604 -0.14043091 0.42372164 -0.36044705 -0.12677096 0.22429721 -0.014012453
0.07896056 0.16152057 -0.36678937 -0.17683184 0.12174192 -0.2194746 -0.14407954 0.026625538
-0.42454112 -0.43467662 -0.102316104 0.04558251 -0.4087003 -0.7560914 0.5404156 -0.080777645
-0.5013834 0.81595665 0.25024962 -0.3767263 -0.3381396 -0.24135636 0.57861185 -0.5406875
-0.6861535 -0.3577153 -0.042777993 -0.5046821 -0.44775504 -0.05804133 0.31488246 0.8654184
-0.12530099 0.2986618 0.5762214 -0.0480688 0.12348174 0.5796263 -0.05497481 0.15414079
0.5398604 -0.36459294 -0.24154593 0.3906644 -0.12523472 -0.25073987 0.36380497 -0.30544505
0.14010695 0.51544005 -0.4835425 -0.27401793 0.0585172 -0.28658658 -0.17164572 0.06693413
-0.005052223 0.0327211 -0.10512764 -0.107228085 -0.09824754 -0.03797 0.020960912 -0.020471508
-0.12456909 0.4065312 0.26301116 0.31033126 -0.10949537 0.08812673 0.093914494 0.0083418535
0.1769693 0.2777671 -0.078427166 -0.22467476 -0.4248294 -0.108705625 -0.2004472 -0.5657574
-0.4005004 -0.4492274 -0.76504326 0.18436106 -0.09640458 -0.19449124 -0.13182959 -0.53375876
-0.48720375 0.56140286 0.22109243 0.05039996 0.11656197 0.0097891 -0.008273126 -0.21373476
-0.11435586 -0.048885286 -0.46303123 -0.2556751 -0.17108747 0.045061 -0.061894726 -0.15994233
-0.22941133 -0.3448033 -0.4630813 -0.42480996 -0.38349196 -0.39668873 -0.3642899 -0.53951156
-0.37794724 -0.47154015 -0.28551784 -0.31484362 -0.26914176 -0.33788902 -0.40836865 -0.15870887
-0.038551297 0.6229449 -0.8109428 -0.78083813 -0.24999467 -0.5452785 -0.64815426 -0.15713006
-0.17914651 -0.360512 -0.35046756 -0.21758936 -0.35101408 -0.24925287 -0.089015074 0.1038654
0.13230412 -0.32690474 -0.30824208 -0.3552833 -0.2188329 -0.22059943 -0.2568892 -0.021196004
-0.20349823 -0.23063935 -0.14020392 -0.27469832 -0.19396414 -0.2148085 -0.18470335 -0.24205925
0.01483226 0.024243366 -0.1557926 0.2212415 0.3904484 0.4561751 -0.008285516 -0.017402768
0.08036067 -0.26416054 -0.24302903 -0.261102 0.1510231 0.1333459 0.03587643 -0.46617535
00000000: 848e 313e c3b2 6d3e ee24 8d3e b1ca b23e
00000010: 1004 ea3d 59ce 793e 41b1 273f 55f8 1b3e
00000020: aaca 7a3e 2614 04be d149 46bf 1600 7dbf
00000030: a352 133f 09cc 9cbe 0821 cabe 6b3a 3a3f
00000040: e260 403e 4f33 293e 6948 7bbf 3712 e3be
00000050: 0aeb 9e3e fdba f4be ed39 79be 080f 2c3e
00000060: 9cf8 8abe e805 18be 04ff a23e 8dd0 e3be
00000070: ecc2 d63d dc97 9a3e 0add 42be 3107 20be
00000080: 79d8 49be 197c 3c3e 2414 8e3e 0047 50bd
00000090: b6ec 433e 88a0 9bbe f4c5 85bd 2f15 b53e
000000a0: 8efb a2be 009f af3d c3ec 963f 5ee6 913e
000000b0: a21e 18bd 2289 203f b84a 363e 324c 943e
000000c0: 0e08 003e 61c8 93bc 17a7 183f 26f6 7c3e
000000d0: a2a0 a03e 6fe0 683f 306d 3bbe 8d7e 603e
000000e0: 4db4 253f f023 f4be 7ed3 3fbc b401 e93e
000000f0: 6f62 acbe 75e6 383d ca7f b23e 5c75 9fbb
00000100: 32f7 86be 1f00 16bf 76a3 313d ae4b de3d
00000110: 69de c0be 06e5 083f 51c6 5c3f 3e2b e9bd
00000120: a0e4 023e 7da2 503f 39c6 ad3f faee 66bf
00000130: 2a2d 47bc 4742 2c3f c369 c4bf 4ca1 c2be
00000140: c095 c73e a230 88be 1fcd 0fbe 0bf2 d83e
00000150: 848c b8be 3fd0 01be 2bae 653e 7d94 65bc
00000160: 13b6 a13d a665 253e d1cb bbbe 6813 35be
00000170: d453 f93d f3bd 60be 9689 13be cd1d da3c
00000180: 745d d9be ef8d debe 1b8b d1bd bab4 3a3d
00000190: 2a41 d1be 358f 41bf ad58 0a3f c06e a5bd
000001a0: aa5a 00bf 89e2 503f b820 803e 45e2 c0be
000001b0: a220 adbe 1f26 77be e81f 143f 7f6a 0abf
000001c0: c1a7 2fbf 7626 b7be fa37 2fbd d932 01bf
000001d0: 2640 e5be bfbc 6dbd 4638 a13e 0f8c 5d3f
000001e0: e74e 00be 33ea 983e 3f83 133f cae3 44bd
000001f0: ffe3 fc3d 6462 143f 442d 61bd 15d7 1d3e
00000200: 4b34 0a3f edab babe d157 77be 2a05 c83e
00000210: 883d 00be fa60 80be a544 ba3e 4b63 9cbe
00000220: 3278 0f3e e1f3 033f e292 f7be 144c 8cbe
00000230: bbaf 6f3d 7abb 92be e5c3 2fbe c314 893d
00000240: 1e8d a5bb 8f06 063d 294d d7bd 669a dbbd
00000250: 0236 c9bd 6e86 1bbd 38b6 ab3c ddb3 a7bc
00000260: 141e ffbd dc24 d03e 66a9 863e bde3 9e3e
00000270: 1c3f e0bd c97b b43d 3e56 c03d 45ac 083c
00000280: 7137 353e 7d37 8e3e 6c9e a0bd 2411 66be
00000290: 3d83 d9be 0ea1 debd 0842 4dbe 7ad5 10bf
000002a0: 630e cdbe 2201 e6be e0d9 43bf 25c9 3c3e
000002b0: c46f c5bd b628 47be 56fe 06be 6aa4 08bf
000002c0: c572 f9be 19b8 0f3f 0e66 623e 3070 4e3d
000002d0: 0bb8 ee3d 7662 203c 018c 07bc 49dd 5abe
000002e0: 6833 eabd f03b 48bd 6e12 edbe d9e7 82be
000002f0: 8e31 2fbe e291 383d 5385 7dbd ecc7 23be
00000300: ceea 6abe 0f8a b0be fe18 edbe b180 d9be
00000310: 0f59 c4be c91a cbbe 3584 babe 6e1d 0abf
00000320: 4d82 c1be b66d f1be 652f 92be 2f33 a1be
00000330: f3cc 89be caff acbe b215 d1be 9484 22be
00000340: f7e7 1dbd 5179 1f3f f399 4fbf 02e5 47bf
00000350: 9afe 7fbe 5f97 0bbf 70ed 25bf b4e6 20be
00000360: 2f72 37be 0795 b8be 7c70 b3be bfcf 5ebe
00000370: 1eb8 b3be 253c 7fbe 894d b6bd 62b7 d43d
00000380: bb7a 073e 0f60 a7be e8d1 9dbe b1e7 b5be
00000390: bb15 60be d1e4 61be fb86 83be 3ea3 adbc
000003a0: d761 50be b92c 6cbe 9e91 0fbe 42a5 8cbe
000003b0: 899e 46be c2f6 5bbe e022 3dbe 61de 77be
000003c0: 0203 733c 069a c63c 1888 1fbe 228d 623e
000003d0: dae8 c73e c88f e93e f9bf 07bc 4090 8ebc
000003e0: 2394 a43d 0d40 87be 9adc 78be 29af 85be
000003f0: cda5 1a3e d48b 083e 2af3 123d 89ae eebe

encoder4.features.0.bias f4 [32]
0.043246206 -0.029161574 -0.01507655 -0.040526036 -0.024894936 0.05166528 -0.028015533 -0.06528052
-0.05576616 0.008559095 -0.009075698 -0.017329946 -0.001823329 -0.08254352 -0.010086253 0.027609732
0.03114333 0.024897918 -0.0061451094 -0.05470043 -0.06380907 -0.066928566 0.07664363 0.074771
-0.02357924 -0.051278662 -0.008327846 0.081585474 0.018956043 0.0697825 -0.006877522 -0.058726504
00000000: ef22 313d 41e4 eebc a203 77bc a1fe 25bd
00000010: 77f0 cbbc f99e 533d d580 e5bc cbb1 85bd
00000020: 0f6b 64bd 723b 0c3c 3db2 14bc 88f7 8dbc
00000030: c5fc eeba 940c a9bd d040 25bc ce2d e23c
00000040: 4c20 ff3c b8f6 cb3c ea5c c9bb 8f0d 60bd
00000050: 54ae 82bd d811 89bd 56f7 9c3d 8a21 993d
00000060: 4029 c1bc 9309 52bd 8571 08bc 4916 a73d
00000070: b449 9b3c 21ea 8e3d d65c e1bb 348b 70bd

encoder4.features.1.weight f4 [32]
0.9967004 0.35264066 0.9690538 0.36666742 0.8211606 0.78996086 0.51052207 0.70784533
1.2078804 0.76010376 0.9175219 0.63600236 1.3081722 0.83754456 0.5084563 1.0602138
0.71200013 1.2543832 0.5854365 0.82932127 0.6832174 1.2868582 0.59359586 0.45291853
1.1833997 0.28758708 1.0083008 0.6457158 0.32913548 0.6207706 0.39148152 1.0801914
00000000: c227 7f3f 518d b43e e913 783f d5bb bb3e
00000010: 9537 523f e03a 4a3f 93b1 023f 5a35 353f
00000020: d39b 9a3f 2996 423f b7e2 6a3f 0dd1 223f
00000030: 3072 a73f 5269 563f 312a 023f 16b5 873f
00000040: a445 363f a18f a03f 2bdf 153f 664e 543f
00000050: 56e7 2e3f c5b7 a43f e6f5 173f f0e4 e73e
00000060: a479 973f 9d3e 933e 0010 813f a14d 253f
00000070: 7284 a83e d2ea 1e3f 4470 c83e b643 8a3f

encoder4.features.1.bias f4 [32]
0.0018606555 0.40984976 0.08268224 0.2524197 -0.5852392 0.3574923 -0.5034346 -1.4254425
0.0825506 -0.14664176 0.49759865 -0.9836963 -0.14670077 -0.50533426 0.12231746 0.23028028
0.1563835 0.111665785 -0.22103183 -0.81256366 0.62956554 -0.3780816 -0.76100683 -0.855476
-0.011996306 0.093090706 -0.8285699 -0.84508896 0.13310122 -0.48885208 -0.007567906 -0.24114728
00000000: 3de1 f33a d4d7 d13e 4e55 a93d 283d 813e
00000010: 3cd2 15bf 3b09 b73e 17e1 00bf e674 b6bf
00000020: 4a10 a93d 4229 16be 40c5 fe3e 85d3 7bbf
00000030: ba38 16be 965d 01bf 9481 fa3d 98ce 6b3e
00000040: ff22 203e 08b1 e43d 2b56 62be 2c04 50bf
00000050: 352b 213f e993 c1be 58d1 42bf 7a00 5bbf
00000060: 278c 44bc 57a6 be3d 281d 54bf c057 58bf
00000070: b04b 083e d24a fabe 32fc f7bb 50ef 76be

encoder4.features.1.running_mean f4 [32]
1.9097745 -5.4445634 -5.2693295 -2.012101 7.723097 -3.8030517 0.029930403 2.6512775
-6.7197013 8.40511 5.7098393 -1.368549 2.096535 -1.6355661 -0.10569139 -0.18672115
-1.2481863 -3.087277 -6.934344 6.8666425 -3.6996653 -3.0320485 1.8805894 -0.42999518
-8.755904 -3.8574612 0.62629664 2.1344986 -0.2136685 -3.0890539 -1.3597898 1.289844
00000000: 7e73 f43f dd39 aec0 599e a8c0 43c6 00c0
00000010: 9c23 f740 3365 73c0 9b30 f53c 88ae 2940
00000020: cb07 d7c0 557b 0641 01b7 b640 9d2c afbf
00000030: a12d 0640 3b5a d1bf ba74 d8bd d433 3fbe
00000040: 92c4 9fbf f295 45c0 25e6 ddc0 89bb db40
00000050: 51c7 6cc0 150d 42c0 27b7 f03f 5428 dcbe
00000060: 2f18 0cc1 a5e0 76c0 fa54 203f a09b 0840
00000070: eacb 5abe 0fb3 45c0 980d aebf 9c19 a53f

encoder4.features.1.running_var f4 [32]
5.519289 11.206525 15.964023 3.450518 61.816795 10.5231905 8.895433 5.418222
51.08568 35.90552 31.87171 12.817567 16.494167 8.764118 15.496075 22.271212
14.960666 32.11718 7.9081845 22.147713 38.073345 14.783414 10.114018 4.403601
26.317062 10.736533 8.365906 10.416011 10.594189 11.619757 9.135901 9.529469
00000000: 049e b040 ed4d 3341 a36c 7f41 49d5 5c40
00000010: 6644 7742 fd5e 2841 b253 0e41 1362 ad40
00000020: bc57 4c42 419f 0f42 43f9 fe41 c114 4d41
00000030: 0ef4 8341 d439 0c41 ecef 7741 712b b241
00000040: e35e 6f41 fe77 0042 d90f fd40 842e b141
00000050: 1b4b 1842 dd88 6c41 05d3 2141 4dea 8c40
00000060: 5889 d241 d7c8 2b41 c0da 0541 fba7 2641
00000070: cc81 2941 86ea 3941 a72c 1241 b478 1841

encoder5.features.0.weight f4 [64, 32, 3, 3]
-0.16260757 -0.45181623 -0.9093509 0.31702402 0.02350937 -0.44005996 -0.071931235 -0.21184117
-0.6157209 -0.00020559262 -0.22251885 -0.012525947 0.35406882 0.24664797 0.20443504 -0.27741718
-0.5276499 -0.44309098 0.7143629 0.4833735 0.064290985 0.34627536 0.16001374 -0.02257346
-0.350588 -0.38543794 -0.8903095 -0.13441642 -0.32921433 -0.44965997 0.28528222 0.06568285
-0.052912712 -0.096934065 -0.25706083 -0.22311537 -0.17060702 -0.66649216 -0.583501 -0.28934824
-0.6808533 -0.6096755 -0.17332001 -0.52391875 -0.35268673 -0.12126854 -0.0073262253 0.18515901
0.2164216 0.2757548 0.36734024 -0.31483674 0.11224316 -0.17647743 0.020763826 0.08794289
0.17400934 -0.06418114 0.035883028 0.064497225 0.024368132 -0.0315579 -0.023118468 -0.1150607
-0.0810719 -0.029826688 -0.07906371 -0.09332716 -0.03095399 -0.020480098 -0.05482657 0.012542432
-0.37119234 -0.22851522 0.10735388 -0.27372295 -0.35119656 -0.029648196 -0.11848435 -0.42240766
-0.11511357 -0.28530037 -0.66145456 -0.6575196 -0.42638868 -0.67169017 -0.6081731 -0.40141958
-0.7047028 -0.73137546 -0.24590953 -0.2773998 -0.053648144 -0.40523952 -0.33335507 -0.35081175
-0.4954625 -0.22682409 -0.2578985 -0.065142676 -0.0020258904 0.000191139 -0.18577114 -0.12212018
0.010803107 -0.1731492 -0.13617836 0.104368486 -0.036495022 -0.5801867 0.29411817 -0.8440456
-0.75444454 -0.7035208 -0.34796426 -0.6193574 -0.02626536 0.07021078 -0.2786859 -0.233464
0.016579255 -0.22655499 0.040218487 -0.36102983 -0.5863694 -0.4539595 -0.061881237 0.18970552
-0.33541295 0.15846516 0.33843428 0.007286343 -0.46790358 -0.057503954 -0.9339838 -0.46124527
-0.76379263 -0.145841 0.045378193 -0.17813034 0.22506389 -0.18387498 -0.5803614 0.11014298
-0.19998035 0.12618946 -0.63381356 -0.1383428 0.058546975 -0.53063333 -0.8965271 -0.43437687
-1.4165877 0.1060158 0.3397935 0.7103753 0.28282377 0.13805836 -0.07920608 -0.34009004
-0.4363842 -0.76807344 0.05906844 0.117366605 -0.062573664 0.39626327 0.3828023 0.20540218
-0.028569562 -0.044826884 -0.38175464 -0.2755107 -0.34836772 -0.33597505 -0.22806978 -0.3606331
-0.27491134 -0.04835216 -0.13293126 -0.050153315 -0.022298068 -0.12888551 0.47355083 -0.34812447
-0.38496092 0.008258828 0.056828626 -0.24771628 0.22937614 -0.94613564 -0.6959946 -0.59999925
0.33473352 0.29329306 0.54489416 0.027756605 0.48692343 0.5288081 -0.002872971 -0.047862757
-0.06555218 -0.032877237 -0.008457425 -0.099914305 0.018166276 0.051039558 0.015309865 0.020738175
0.08257918 -0.02453677 -0.12888834 0.01667229 -0.010351986 -0.027978571 -0.07507567 -0.06616777
-0.50696534 -0.8531396 -0.28676018 -0.3696144 -0.20157108 0.036066107 -0.19703841 0.0731083
0.4288682 -0.40577564 -0.566818 0.2867488 -0.55371386 -0.20356545 -0.081305005 0.013332172
-0.3178444 0.051320218 -0.029508177 -0.2163453 -0.21819223 -0.19529949 -0.35217974 -0.39586487
-0.16240895 -0.2949393 -0.2638352 -0.07533967 -0.16927281 -0.1735279 -0.22151619 -0.15894578
-0.17186613 -0.13088574 -0.18573157 -0.10234059 -0.27259967 -0.44951487 -0.3289357 0.30488056
00000000: 9982 26be 7554 e7be 38cb 68bf f950 a23e
00000010: b996 c03c 8a4f e1be af50 93bd e4ec 58be
00000020: e39f 1dbf 5994 57b9 fbdb 63be a139 4dbc
00000030: 8248 b53e 4991 7c3e 6b57 513e a009 8ebe
00000040: 1014 07bf d2dc e2be 7de0 363f bb7c f73e
00000050: feaa 833d 014b b13e a4da 233e faeb b8bc
00000060: 4580 b3be 1f58 c5be 53eb 63bf 75a4 09be
00000070: c88e a8be d539 e6be 8310 923e bb84 863d
00000080: 00bb 58bd 5e85 c6bd 7a9d 83be 5b78 64be
00000090: 9bb3 2ebe 3b9f 2abf 5260 15bf 7425 94be
000000a0: 674c 2ebf b213 1cbf cd7a 31be 8a1f 06bf
000000b0: 5b93 b4be a45b f8bd d510 f0bb 539a 3d3e
000000c0: a09d 5d3e bc2f 8d3e 0514 bc3e 4832 a1be
000000d0: bedf e53d 80b6 34be e618 aa3c 671b b43d
000000e0: 812f 323e 6771 83bd 15fa 123d 1f17 843d
000000f0: ad9f c73c db42 01bd f162 bdbc f2a4 ebbd
00000100: 0609 a6bd 1957 f4bc 28ec a1bd 4f22 bfbd
00000110: 3993 fdbc e1c5 a7bc d391 60bd c67e 4d3c
00000120: ec0c bebe e5ff 69be 5adc db3d 6a25 8cbe
00000130: 09d0 b3be c6e0 f2bc eca7 f2bd d145 d8be
00000140: aac0 ebbd e412 92be 1655 29bf 3453 28bf
00000150: 9e4f dabe e3f3 2bbf 3bb1 1bbf de86 cdbe
00000160: 6767 34bf 6c3b 3bbf b5cf 7bbe 5907 8ebe
00000170: 28be 5bbd 8e7b cfbe 84ad aabe 999d b3be
00000180: 43ad fdbe 9344 68be 460b 84be 8669 85bd
00000190: cdc4 04bb 7c6c 4839 ca3a 3ebe 251a fabd
000001a0: 84ff 303c 064e 31be 5772 0bbe 25bf d53d
000001b0: ce7b 15bd 1e87 14bf a896 963e 5f13 58bf
000001c0: 4723 41bf f019 34bf 5f28 b2be 358e 1ebf
000001d0: 742a d7bc abca 8f3d ebaf 8ebe 3011 6fbe
000001e0: 38d1 873c 08fe 67be 24bc 243d e7d8 b8be
000001f0: 4e1c 16bf 616d e8be 2e77 7dbd 2a42 423e
00000200: 3fbb abbe b144 223e 4247 ad3e 46c2 ee3b
00000210: 0f91 efbe 4489 6bbd 9019 6fbf 5728 ecbe
00000220: ea87 43bf 5857 15be 7cde 393d cd67 36be
00000230: 2677 663e b949 3cbe 9192 14bf a592 e13d
00000240: a6c7 4cbe cf37 013e 9b41 22bf bca9 0dbe
00000250: f4ce 6f3d 96d7 07bf cd82 65bf a566 debe
00000260: bf52 b5bf d01e d93d 6af9 ad3e 28db 353f
00000270: 47ce 903e 2c5f 0d3e cc36 a2bd 4820 aebe
00000280: c06d dfbe 76a0 44bf c0f1 713d e75d f03d
00000290: 9f26 80bd 05e3 ca3e aafe c33e f354 523e
000002a0: b70a eabc 659c 37bd 5875 c3be bd0f 8dbe
000002b0: 415d b2be ec04 acbe 208b 69be e7a4 b8be
000002c0: 2ec1 8cbe ea0c 46bd 221f 08be 906d 4dbd
000002d0: 70aa b6bc 90fa 03be 4175 f23e 5f3d b2be
000002e0: 9919 c5be 0950 073c 22c5 683d 56a9 7dbe
000002f0: 94e1 6a3e f235 72bf b42c 32bf 8d99 19bf
00000300: 3162 ab3e 822a 963e 2f7e 0b3f d261 e33c
00000310: 074e f93e f85f 073f 7448 3cbb bd0b 44bd
00000320: 3940 86bd 48aa 06bd 0391 0abc df9f ccbd
00000330: 71d1 943c db0e 513d 3ad6 7a3c 1be3 a93c
00000340: 461f a93d 5601 c9bc 4efb 03be 5494 883c
00000350: 609b 29bc 5133 e5bc 46c1 99bd f882 87bd
00000360: 7bc8 01bf 5b67 5abf 3bd2 92be 193e bdbe
00000370: a668 4ebe 0eba 133d 70c4 49be ceb9 953d
00000380: 9d94 db3e d3c1 cfbe fc1a 11bf bdd0 923e
00000390: 31c0 0dbf 7673 50be 3d83 a6bd 2f6f 5a3c
000003a0: 80bc a2be 2635 523d 22bb f1bc 9f89 5dbe
000003b0: c96d 5fbe 97fc 47be e750 b4be cdae cabe
000003c0: 884e 26be 4902 97be 6815 87be af4b 9abd
000003d0: da55 2dbe 4cb1 31be 24d5 62be afc2 22be
000003e0: adfd 2fbe e906 06be 6b30 3ebe f197 d1bd
000003f0: 2f92 8bbe d026 e6be 436a a8be 4e19 9c3e

encoder5.features.0.bias f4 [64]
0.004674202 -0.02815082 0.02280655 -0.026255338 -0.0067549804 -0.055783577 -0.0028819165 0.032753497
0.025910106 0.023685696 0.02764824 -0.052537512 -0.0100601055 -0.029323012 -0.0176591 0.03058115
-0.037487708 0.024698252 0.031270783 0.02751594 -0.007839119 -0.05865347 -0.031997774 0.044346932
-0.041509476 0.026160706 -0.02268349 -0.052151717 0.0015724823 -0.01671055 -0.026880583 0.05446255
0.04514171 0.022888364 -0.00493799 -0.0050515924 -0.009766341 -0.04617176 -0.040269252 0.025068158
0.058043104 -0.05570349 -0.043598525 0.009382677 -0.05006085 -0.0475336 0.04959357 0.044950947
-0.042935815 0.05464799 0.010281906 -0.0034331342 0.04199594 0.029432215 0.0040619727 -0.050206795
-0.0014770383 -0.023118649 -0.05491596 -0.016001465 -0.033930827 -0.02886449 0.05849656 0.024846021
00000000: 0c2a 993b 8c9c e6bc cdd4 ba3c 6f15 d7bc
00000010: e258 ddbb 527d 64bd 89de 3cbb 8828 063d
00000020: 6e41 d43c 8108 c23c 907e e23c 9331 57bd
00000030: 24d3 24bc d036 f0bc d1a9 90bc 5285 fa3c
00000040: b68c 19bd fd53 ca3c cb15 003d 1c69 e13c
00000050: a66f 00bc 9f3e 70bd 1910 03bd 21a5 353d
00000060: d705 2abd fa4e d63c bad2 b9bc 0a9d 55bd
00000070: c01b ce3a 90e4 88bc ab34 dcbc 1f14 5f3d
00000080: 84e6 383d 6180 bb3c ddce a1bb d487 a5bb
00000090: 0103 20bc 991e 3dbd 5ff1 24bd bd5b cd3c
000000a0: 9bbe 6d3d 5829 64bd 5e94 32bd cdb9 193c
000000b0: 9b0c 4dbd 98b2 42bd a122 4b3d 7c1e 383d
000000c0: 77dd 2fbd 92d6 5f3d 7175 283c 6ffe 60bb
000000d0: ef03 2c3d d41b f13c 4c1a 853b a4a5 4dbd
000000e0: 2e99 c1ba 5263 bdbc 8fef 60bd 8115 83bc
000000f0: 0dfb 0abd 3975 ecbc 179a 6f3d e289 cb3c

encoder5.features.1.weight f4 [64]
0.78152895 1.2715541 0.4996729 1.4139702 1.1859844 0.8411684 0.52514136 0.77053857
1.09221 0.9206142 0.8408009 0.5733109 0.95363104 0.6394806 0.80832237 1.0298572
0.9183965 0.3363418 1.136761 0.7672973 0.7207165 0.96897817 0.4429155 0.35280126
0.9374363 0.77221566 1.0003829 0.41862792 0.98471844 0.76091033 0.9212862 1.292784
0.82546353 1.0237119 0.6085433 0.9658828 1.310897 0.41176605 1.1443391 1.1096362
0.8604179 0.95976615 0.6232927 0.66432834 0.67390835 1.0640503 1.4452903 0.7323261
0.80602384 1.07253 1.2303085 1.1504616 0.938058 1.1628845 0.82884765 1.4342872
0.9094075 0.8502895 0.5757902 1.0322391 1.0344164 0.66014296 0.69120216 1.0702821
00000000: 4812 483f 49c2 a23f 20d5 ff3e fafc b43f
00000010: 56ce 973f d056 573f aa6f 063f 0442 453f
00000020: 8acd 8b3f 5fad 6b3f ba3e 573f 81c4 123f
00000030: 2a21 743f 00b5 233f 37ee 4e3f 5cd2 833f
00000040: 081c 6b3f fe34 ac3e 6281 913f 996d 443f
00000050: e080 383f f40e 783f d2c5 e23e 5ea2 b43e
00000060: d3fb 6f3f edaf 453f 8c0c 803f 6656 d63e
00000070: 8216 7c3f 05cb 423f 6ad9 6b3f f279 a53f
00000080: 9451 533f fe08 833f 7ec9 1b3f 1844 773f
00000090: 79cb a73f 00d3 d23e b479 923f 8f08 8e3f
000000a0: 5944 5c3f 3cb3 753f 1c90 1f3f 6c11 2a3f
000000b0: 4285 2c3f cd32 883f 46ff b83f b979 3b3f
000000c0: 9457 4e3f aa48 893f c07a 9d3f 5342 933f
000000d0: 9224 703f 66d9 943f 5c2f 543f b996 b73f
000000e0: eece 683f 93ac 593f fd66 133f 6920 843f
000000f0: c267 843f 21ff 283f a0f2 303f 01ff 883f

encoder5.features.1.bias f4 [64]
-0.6381011 -1.0378135 -0.18269253 0.86728007 -0.5604672 1.1443988 -0.84719986 -0.14804052
-0.5825486 -0.856697 -0.2875157 -0.748576 0.4986069 -0.6375362 0.71574706 0.1677611
-0.052055683 -0.61990273 -0.25159127 -1.2758147 -0.015297306 -0.6195521 -0.8347955 -0.727515
-0.8208095 -0.80083174 -0.41630673 -0.80228424 0.1003056 -1.1384492 -0.7097426 -0.30047366
-0.4325956 0.132026 0.13590883 0.8664661 -0.13953282 -0.76477796 0.65567046 0.80424446
0.33946642 0.70042294 -0.91701394 -0.5147936 -0.7696715 0.4256369 0.9809575 -1.4528228
1.1719964 0.5692123 -0.19991244 0.85837656 -1.1411488 0.4491088 -0.6218177 0.15262976
-0.20501387 0.0123936795 -0.8899002 -0.26781645 -0.16046464 -0.64641154 0.43322054 -0.08103983
00000000: 985a 23bf 13d7 84bf c013 3bbe 1106 5e3f
00000010: c77a 0fbf a97b 923f 17e2 58bf ef97 17be
00000020: e821 15bf 7f50 5bbf 4235 93be ada2 3fbf
00000030: 6749 ff3e 9335 23bf 333b 373f 91c9 2b3e
00000040: 5738 55bd f2b1 1ebf 92d0 80be e54d a3bf
00000050: 8da1 7abc f79a 1ebf 28b5 55bf 6c3e 3abf
00000060: 9220 52bf 4f03 4dbf 2826 d5be 8062 4dbf
00000070: 066d cd3d b4b8 91bf b1b1 35bf afd7 99be
00000080: 2c7d ddbe d331 073e af2b 0b3e b9d0 5d3f
00000090: b1e1 0ebe 7dc8 43bf 05da 273f f7e2 4d3f
000000a0: 8bce ad3e eb4e 333f 6dc1 6abf 83c9 03bf
000000b0: 3109 45bf 14ed d93e 0820 7b3f 19f6 b9bf
000000c0: fa03 963f e6b7 113f d9b5 4cbe 91be 5b3f
000000d0: 2a11 92bf 97f1 e53e 722f 1fbf fa4a 1c3e
000000e0: 28ef 51be dc0e 4b3c 80d0 63bf 3d1f 89be
000000f0: d850 24be 3a7b 25bf 15cf dd3e 36f8 a5bd

encoder5.features.1.running_mean f4 [64]
-16.32633 -5.823276 2.649375 -3.2248976 -14.907593 10.617986 -7.998852 -8.3164
-5.9087987 -3.682928 -2.751045 -10.355919 0.811032 -10.44605 -1.5805694 -9.288483
-7.782756 0.75676787 -7.8253703 -4.152145 -1.3386369 -6.3290377 0.7801748 -8.065148
3.6142073 -7.2257237 -12.34214 -4.778654 -7.1200857 -1.4180385 -4.1307707 -9.083524
-14.842918 4.0197725 5.135801 9.943658 -14.262267 -5.6221194 -4.9642696 1.4165751
2.7264843 3.0391793 -8.606531 0.884362 -8.550518 -5.807082 -0.8209739 0.80958635
6.727065 -6.683883 -6.8255835 -1.7811935 -2.2401023 -5.4630775 -19.117893 -0.5021686
-13.890583 -9.636919 -10.658349 -6.2004232 -11.403244 1.4002019 5.7255754 -13.441819
00000000: 539c 82c1 4758 bac0 5c8f 2940 b964 4ec0
00000010: 8085 6ec1 45e3 2941 98f6 ffc0 f90f 05c1
00000020: e114 bdc0 18b5 6bc0 1f11 30c0 d8b1 25c1
00000030: cb9f 4f3f 0523 27c1 1950 cabf a09d 14c1
00000040: 560c f9c0 8abb 413f 6f69 fac0 5fde 84c0
00000050: 7458 abbf 7a87 cac0 89b9 473f d90a 01c1
00000060: 2c4f 6740 2139 e7c0 6879 45c1 bcea 98c0
00000070: bed7 e3c0 4982 b5bf 462f 84c0 1d56 11c1
00000080: 987c 6dc1 faa1 8040 7b58 a440 3919 1f41
00000090: 3f32 64c1 67e8 b3c0 4cdb 9ec0 5552 b53f
000000a0: b87e 2e40 ea81 4240 5ab4 09c1 8c65 623f
000000b0: ecce 08c1 9ed3 b9c0 582b 52bf 0d41 4f3f
000000c0: 1e44 d740 5fe2 d5c0 2e6b dac0 26fe e3bf
000000d0: d65d 0fc0 88d1 aec0 72f1 98c1 1f8e 00bf
000000e0: d43f 5ec1 d230 1ac1 9988 2ac1 de69 c6c0
000000f0: b073 36c1 d139 b33f ea37 b740 b111 57c1

encoder5.features.1.running_var f4 [64]
74.33741 78.4475 60.90906 152.24371 71.55209 87.6586 90.902435 40.875263
35.337185 51.694298 71.07928 57.090897 75.738 19.611946 103.07455 154.55103
63.771973 10.906784 57.50143 58.297585 134.08025 45.707565 8.188025 49.09097
73.43915 51.581203 74.12385 13.485285 32.26521 21.743807 29.532442 157.28297
70.957726 138.68846 80.81134 110.25757 114.85534 14.146144 115.939125 80.09937
40.356678 80.85994 36.983883 33.115902 62.513966 72.86073 70.40478 36.72527
78.4355 66.4965 78.84942 140.31496 29.848213 71.44543 94.126785 139.13153
86.76957 101.91413 40.06949 124.408585 77.43804 20.73071 90.09676 181.20518
00000000: c1ac 9442 1fe5 9c42 e1a2 7342 643e 1843
00000010: ac1a 8f42 3451 af42 0cce b542 4580 2342
00000020: 4759 0d42 f6c6 4e42 9728 8e42 145d 6442
00000030: db79 9742 44e5 9c41 2b26 ce42 108d 1a43
00000040: 8016 7f42 3082 2e41 7701 6642 ba30 6942
00000050: 8b14 0643 8cd4 3642 2702 0341 275d 4442
00000060: d8e0 9242 2753 4e42 693f 9442 bac3 5741
00000070: 930f 0142 51f3 ad41 7142 ec41 7148 1d43
00000080: 5bea 8d42 3fb0 0a43 689f a142 e083 dc42
00000090: efb5 e542 9b56 6241 d5e0 e742 e132 a042
000000a0: 3d6d 2142 4ab8 a142 7fef 1342 af76 0442
000000b0: 4d0e 7a42 b2b8 9142 3fcf 8c42 ade6 1242
000000c0: fade 9c42 35fe 8442 e7b2 9d42 a150 0c43
000000d0: 24c9 ee41 0fe4 8e42 ea40 bc42 ac21 0b43
000000e0: 058a ad42 09d4 cb42 2847 2042 32d1 f842
000000f0: 47e0 9a42 7ed8 a541 8b31 b442 8734 3543

decoder5.features.0.weight f4 [64, 32, 2, 2]
-0.039829157 0.06790227 -0.17359787 0.023928437 0.21499684 0.11956953 -0.10377197 0.07243573
-0.17730759 0.10187592 0.020673286 0.046245284 -0.103955716 0.15868 -0.17649919 -0.11171289
0.055984948 -0.052179947 -0.003200571 -0.06276231 0.026182797 0.029993027 -0.07306715 -0.068551816
0.07286691 -0.16636719 0.031530157 -0.10635437 -0.041356046 0.21541703 -0.026068846 -0.1434597
0.37995946 0.047027934 0.09491044 -0.025750294 -0.25662604 -0.029847033 -0.1747186 -0.26401082
0.019293157 0.034315385 -0.13127689 -0.053164054 -0.11494042 -0.0045509636 0.0239977 -0.8823384
0.06816899 0.046231754 0.052508626 -0.08714082 -0.0040721023 -0.042112894 -0.05997427 0.05673659
0.09556126 -0.0029374678 -0.32199195 -0.057458002 -0.04287636 -0.124955244 0.04625174 0.19973859
-0.097651586 0.057360787 -0.0275572 -0.11042359 -0.097920746 -0.025548615 -0.02348161 -0.12527847
-0.12174759 0.2472749 -0.29182783 -0.038213655 -0.16748336 0.014194738 0.08941928 0.11924373
0.031287994 0.01915931 -0.09418764 -0.1328271 0.24421705 0.045373045 -0.08119572 -0.16722643
-0.18030545 -0.082395054 -0.12877223 0.08251667 -0.03976395 -0.059439752 -0.077703975 -0.008797978
0.054599907 -0.11337403 -0.05464333 0.09236615 -0.33879644 0.061469536 -0.077183224 0.057612702
-0.035123207 -0.10519354 -0.07136566 0.34154055 0.06991889 0.015150914 -0.06097482 0.19232836
-0.15251729 -0.378985 -0.07565581 -0.0016778106 0.05850445 0.18140092 -0.34985092 -0.42756638
-0.033777896 -0.04669065 0.1523088 -0.09812087 0.006130788 0.023411985 -0.18489571 -0.033244193
0.081704445 0.5205425 0.4052897 0.078667335 0.5058594 0.6545837 -0.76016396 0.41521642
-0.11712774 -0.041426662 0.0016235583 0.40171686 -0.16945119 0.31423587 -0.0961598 0.025842208
-0.0700344 -0.2866829 -0.015665907 0.047234558 -0.026597207 0.15639909 -0.045509744 -0.27870366
-0.12913784 -0.36206463 -0.6237659 -0.1750895 0.298554 -0.26498985 -0.032236196 -0.1611042
0.32396787 -0.13496684 -0.6967533 -0.20140323 -0.17939796 0.41984755 0.3719847 -0.32306483
0.24555045 0.051021144 -0.061696284 -0.18722606 -0.041137267 0.002039608 -0.25647554 -0.13733621
-0.2912515 0.06604054 -0.032269735 -0.109040834 -0.07612529 0.0052102143 0.0003708987 -0.13961598
0.16646335 0.031076066 0.15003887 0.074053064 -0.25151506 0.07840305 -0.49270582 0.34473872
-0.12737097 0.38978803 0.45391265 -0.27807006 -0.33353567 -0.06747185 -0.01818064 -0.0057098838
0.17476012 0.0509613 0.3827913 -0.2361139 -0.44157374 -0.01555435 0.22381605 0.37283254
-0.358759 0.46690077 -0.06751199 0.75106084 -0.27578497 0.034896526 -0.01031453 -0.022614762
0.03449151 -0.218183 -0.33864674 0.53421587 -0.05727811 0.34503987 -0.052950725 -0.08431087
0.00021345173 -0.098687105 0.007867058 0.20469664 -0.35114312 0.14639626 -1.2037233 0.046922583
-0.29892233 -0.0025291413 -0.6337817 0.5990461 -0.32429233 0.12356388 -0.6073351 0.6704964
0.25097895 -0.6953973 -0.12153583 0.52686024 -0.08846292 0.26949677 0.42567036 -0.44187012
-0.1489312 -0.22816047 -0.121953964 -0.31726047 0.010444236 -0.121260606 0.69308984 -0.008262344
00000000: e623 23bd 5810 8b3d a4c3 31be 9205 c43c
00000010: 2228 5c3e dfe0 f43d 6686 d4bd 2f59 943d
00000020: 1f90 35be 53a4 d03d 065b a93c b26b 3d3d
00000030: bce6 d4bd 037d 223e 34bc 34be bac9 e4bd
00000040: 7950 653d a4ba 55bd acc0 51bb 8789 80bd
00000050: 4e7d d63c f0b3 f53c 3ba4 95bd e564 8cbd
00000060: 3f3b 953d 295c 2abe c425 013d 52d0 d9bd
00000070: f564 29bd 4896 5c3e 558e d5bc 19e7 12be
00000080: 0c8a c23e 5da0 403d 6860 c23d 48f2 d2bc
00000090: 7d64 83be c481 f4bc 6fe9 32be 6d2c 87be
000000a0: af0c 9e3c 4a8e 0c3d 736d 06be 8dc2 59bd
000000b0: e265 ebbd 4020 95bb d396 c43c eee0 61bf
000000c0: 2f9c 8b3d 825d 3d3d 4913 573d e376 b2bd
000000d0: 456f 85bb 927e 2cbd 95a7 75bd a064 683d
000000e0: 9fb5 c33d 8882 40bb 21dc a4be 1559 6bbd
000000f0: 1f9f 2fbd 89e8 ffbd 7772 3d3d 4688 4c3e
00000100: 8efd c7bd 25f3 6a3d a3bf e1bc c325 e2bd
00000110: ac8a c8bd 544b d1bc 815c c0bc 0049 00be
00000120: cd56 f9bd a235 7d3e 756a 95be ec85 1cbd
00000130: c280 2bbe 0c91 683c 7521 b73d 0f36 f43d
00000140: d727 003d fcf3 9c3c 73e5 c0bd d403 08be
00000150: 0914 7a3e 16d9 393d f149 a6bd 683d 2bbe
00000160: fea1 38be bdbe a8bd dedc 03be 80fe a83d
00000170: 86df 22bd 1977 73bd 4323 9fbd 6525 10bc
00000180: 27a4 5f3d a530 e8bd afd1 5fbd 772a bd3d
00000190: ba76 adbe 7bc7 7b3d 3d12 9ebd 4cfb 6b3d
000001a0: 5add 0fbd b66f d7bd 2928 92bd 67de ae3e
000001b0: a331 8f3d 8a3b 783c bcc0 79bd baf1 443e
000001c0: 7e2d 1cbe 520a c2be 6ff1 9abd fbe9 dbba
000001d0: 5da2 6f3d 2ac1 393e a91f b3be fbe9 dabe
000001e0: b15a 0abd b23e 3fbd d7f6 1b3e 98f3 c8bd
000001f0: c7e4 c83b 7eca bf3c 4d55 3dbe 102b 08bd
00000200: a954 a73d 4642 053f 2282 cf3e 571c a13d
00000210: 0080 013f cc92 273f 1b9a 42bf 3f97 d43e
00000220: abe0 efbd 01af 29bd 94cd d43a d5ad cd3e
00000230: 9d84 2dbe 86e3 a03e 6eef c4bd 0ab3 d33c
00000240: 326e 8fbd 1ac8 92be ca55 80bc 0679 413d
00000250: 63e2 d9bc 1527 203e 6d68 3abd 3fb2 8ebe
00000260: b63c 04be 8960 b9be 1faf 1fbf a94a 33be
00000270: 12dc 983e c0ac 87be 1a0a 04bd 80f8 24be
00000280: 1edf a53e bf34 0abe 6d5e 32bf a63c 4ebe
00000290: 19b4 37be 42f6 d63e c774 be3e c168 a5be
000002a0: 9471 7b3e 8cfb 503d 3eb5 7cbd 30b8 3fbe
000002b0: 8d7f 28bd f2aa 053b c350 83be dda1 0cbe
000002c0: eb1e 95be 4340 873d 452d 04bd cd50 dfbd
000002d0: 93e7 9bbd 72ba aa3b 2e75 c239 7ef7 0ebe
000002e0: 5e75 2a3e 3c93 fe3c caa3 193e 22a9 973d
000002f0: 95c6 80be c791 a03d f043 fcbe 9881 b03e
00000300: 896d 02be 4c92 c73e 3d67 e83e 335f 8ebe
00000310: 30c5 aabe ae2e 8abd 91ef 94bc fa19 bbbb
00000320: 51f4 323e ccbc 503d 39fd c33e d8c7 71be
00000330: f415 e2be acd7 7ebc 0930 653e e8e3 be3e
00000340: 42af b7be 9e0d ef3e ba43 8abd 8645 403f
00000350: b033 8dbe a9ef 0e3d 46fe 28bc 9842 b9bc
00000360: f846 0d3d 5d6b 5fbe 1b63 adbe 5fc2 083f
00000370: 749c 6abd 11a9 b03e dce2 58bd 2dab acbd
00000380: 03d2 5f39 771c cabd d5e4 003c ff9b 513e
00000390: 08c9 b3be e7e8 153e 9b13 9abf e531 403d
000003a0: 590c 99be f3bf 25bb 843f 22bf 165b 193f
000003b0: a509 a6be 0f0f fd3d 507a 1bbf a7a5 2b3f
000003c0: 5080 803e 8f05 32bf c7e7 f8bd 50e0 063f
000003d0: 0c2c b5bd 7bfb 893e 77f1 d93e cd3c e2be
000003e0: 6c81 18be e6a2 69be 00c3 f9bd f76f a2be
000003f0: 4d1e 2b3c 7b57 f8bd 566e 313f c85e 07bc

decoder5.features.0.bias f4 [32]
-0.08466211 -0.074182354 -0.025265355 0.036392022 -0.048039276 0.017113002 0.065311655 -0.007733183
0.049116928 -0.032827813 -0.015906341 -0.04897519 0.056671668 -0.030606223 0.05181145 0.0211879
0.06564888 0.015062781 0.019018443 -0.0028701508 -0.008525063 -0.002802793 0.08143161 -0.019352095
-0.05081463 0.06543358 -0.041741002 -0.061396524 0.056121897 -0.03847156 -0.06949738 0.07344267
00000000: 5463 adbd ebec 97bd 4af9 cebc cd0f 153d
00000010: d5c4 44bd 9130 8c3c 1ec2 853d a466 fdbb
00000020: d52e 493d 7576 06bd 044e 82bc 359a 48bd
00000030: 8d20 683d e7b9 fabc 3e38 543d 3f92 ad3c
00000040: ec72 863d e2c9 763c 91cc 9b3c 2419 3cbb
00000050: b5ac 0bbc 10af 37bb 9ec5 a63d 4988 9ebc
00000060: 0023 50bd 0a02 863d 9df8 2abd ec7a 7bbd
00000070: 13e0 653d 5b94 1dbd a454 8ebd 1c69 963d

decoder5.features.1.weight f4 [32]
1.2148718 1.430067 0.84741986 0.41073772 0.9640922 0.41269565 0.6136291 0.9120213
1.1074711 1.2700998 0.85397714 0.3839115 0.68470407 0.39969692 0.5968725 1.1347775
0.8039617 0.58685523 0.8304585 0.48205498 0.6373768 0.5022683 0.57064354 0.46084797
0.52395254 1.424964 1.0592778 1.2108129 1.473896 1.1931275 1.393493 0.5451998
00000000: eb80 9b3f 6f0c b73f 82f0 583f 374c d23e
00000010: bfce 763f d84c d33e cc16 1d3f 3a7a 693f
00000020: 9dc1 8d3f a192 a23f 3f9e 5a3f 0c90 c43e
00000030: c448 2f3f 13a5 cc3e a3cc 183f 6440 913f
00000040: 6fd0 4d3f 253c 163f ee98 543f e9cf f63e
00000050: 202b 233f a894 003f b215 123f 44f4 eb3e
00000060: c121 063f 3865 b63f 6a96 873f ebfb 9a3f
00000070: a0a8 bc3f 67b8 983f fb5d b23f 3792 0b3f
