model/SRNet_2021-07-20_16-37-40.pth (torch, 228103 bytes, 104 tensors)

encoder1.features.0.weight f4 [4, 3, 3, 3]
0	0x3e8ec94d	0.27887955
1	0xbdd40b74	-0.10353747
2	0xbe191267	-0.14948426
3	0x3ec599c9	0.3859389
4	0xbf08c312	-0.53422654
5	0xbd321522	-0.043477185
6	0x3f0347e5	0.5128158
7	0xbef12ca3	-0.47104368
8	0xbd8980c2	-0.06714012
9	0xbe8850cb	-0.2662414
10	0xbf49191c	-0.7855394
11	0xbf375de3	-0.71627635
12	0xbd755cd3	-0.059902977
13	0xbf643040	-0.89136124
14	0xbf87a00d	-1.0595719
15	0xbd817984	-0.063220054
16	0xbf752496	-0.9575895
17	0xbf432aab	-0.7623698
18	0x3f315226	0.69265974
19	0x3eb625b0	0.35575628
20	0x3e7e4b14	0.24833328
21	0x3f12ca77	0.57340187
22	0x3e88079f	0.26568314
23	0x3eff5ca5	0.4987537
24	0x3effefc9	0.4998763
25	0x3e1ee5e6	0.15517387
26	0x3e5c8050	0.21533322
27	0xbddf38f1	-0.108995326
28	0xbe932372	-0.2873798
29	0xbe978e1e	-0.29600614
30	0xbe0d1919	-0.13779105
31	0xbe7e13ee	-0.2481229
32	0xbe76b1fb	-0.24091332
33	0x3d15f248	0.03660801
34	0xbdd024d4	-0.101632744
35	0xbe7f0af6	-0.24906525
36	0x3f1407ab	0.578242
37	0x3f4b2eb3	0.7936813
38	0x3f49f67f	0.7889175
39	0x3f24fcb8	0.6444812
40	0x3f2bee22	0.67160237
41	0x3f07b069	0.53003556
42	0x3e92dc43	0.2868367
43	0x3eef16b7	0.46697018
44	0x3f0a8231	0.54104906
45	0xbe3425f3	-0.17592601
46	0x3db16130	0.08661115
47	0xbd0cd7e9	-0.034385595
48	0xbe89202c	-0.26782358
49	0xbe00e231	-0.12586285
50	0xbcb37175	-0.021904686
51	0xbe9cffc3	-0.3066388
52	0xbe9ac85e	-0.30230993
53	0xbeaa733a	-0.33291036
54	0x3e8baf6f	0.27282283
55	0xbce186b1	-0.027530046
56	0xbda2d2dd	-0.07950375
57	0x3c5b255f	0.013375609
58	0x3ec0b969	0.37641457
59	0x3e4ab2f0	0.19794822
60	0xbdd81374	-0.105505854
61	0x3ed2d39a	0.41177064
62	0x3db7e5e1	0.08979393
63	0xbe1722bc	-0.14759344
64	0xbe2c690c	-0.16836947
65	0xbe827095	-0.25476518
66	0xbedb8969	-0.42878273
67	0x3f29e8dc	0.6637094
68	0x3ed9a907	0.4251177
69	0xbec86768	-0.39141393
70	0x3e00f248	0.12592423
71	0xbece207f	-0.40259168
72	0x3dad39b8	0.084582746
73	0x3dae3771	0.08506668
74	0x3d6a2724	0.057166234
75	0x3e5082e7	0.20362435
76	0x3fba95cf	1.4576968
77	0x3f83e447	1.030404
78	0x3e163280	0.14667702
79	0x3f4b7d08	0.7948766
80	0x3ed8d618	0.4235084
81	0xbe6a14b2	-0.22859457
82	0xbe44bcbc	-0.19212621
83	0xbe9d1a23	-0.30684003
84	0xbeca48dd	-0.39508715
85	0xbeedd2b2	-0.4644981
86	0xbe950f73	-0.2911335
87	0xbeda3763	-0.42620382
88	0xbee92cc1	-0.45541957
89	0xbeee69d9	-0.4656513
90	0x3e8b782d	0.27240124
91	0x3eeca5c2	0.46220213
92	0x3ea53279	0.3226507
93	0x3ebe5119	0.37171248
94	0x3f1172e4	0.56815934
95	0x3f17f745	0.5936168
96	0x3f0916b5	0.53550273
97	0x3f23283e	0.6373328
98	0x3f119691	0.5687037
99	0xbf306aee	-0.6891316
100	0xbf49595e	-0.7865199
101	0xbf5646c8	-0.83701754
102	0xbf253364	-0.6453154
103	0xbf347314	-0.70488095
104	0xbf6c1a66	-0.9222778
105	0xbf1ccd15	-0.6125043
106	0xbf4ff9dc	-0.8124063
107	0xbf5c166e	-0.85971725

encoder1.features.0.bias f4 [4]
0	0xbe03ddf5	-0.12877639
1	0xbe812baf	-0.2522864
2	0x3e18943a	0.14900294
3	0xbdc4e02f	-0.09613072

encoder1.features.1.weight f4 [4]
0	0x3fcf80ed	1.621122
1	0x3f967a3a	1.175605
2	0x3fae5d39	1.3622199
3	0x3f9dcfc9	1.2329036

encoder1.features.1.bias f4 [4]
0	0xbe6dd261	-0.23224784
1	0xbd814a25	-0.0631297
2	0x3f8973c1	1.073845
3	0xbecead3e	-0.40366548

encoder1.features.1.running_mean f4 [4]
0	0xbfb2c73c	-1.3967052
1	0x3f40d59c	0.7532594
2	0x400a7566	2.1634154
3	0xc01f6445	-2.490495

encoder1.features.1.running_var f4 [4]
0	0x3ed03413	0.4066473
1	0x3e9dcdb0	0.3082099
2	0x3f80ee3a	1.0072701
3	0x3fb2b887	1.3962563

encoder2.features.0.weight f4 [8, 4, 3, 3]
0	0xbe1fce23	-0.15605979
1	0xbe1d540a	-0.1536409
2	0xbd456880	-0.048195362
3	0x3e32290c	0.1739847
4	0x3dad5940	0.08464289
5	0x3e76684a	0.2406322
6	0x3dc2a689	0.0950442
7	0x3ddae92e	0.10689007
8	0x3e1a3ccb	0.15062253
9	0xbe3a33b6	-0.18183789
10	0xbee42f4b	-0.44567332
11	0xbe332ab7	-0.17496763
12	0xbed818b6	-0.42206353
13	0xbf02c782	-0.51085675
14	0xbf1045cd	-0.5635651
15	0xbf035f78	-0.5131755
16	0xbec81465	-0.3907806
17	0xbf02a91d	-0.51039296
18	0xbf1d38f6	-0.6141504
19	0xbf16e2a5	-0.5893958
20	0xbf0e63bb	-0.55620927
21	0xbf046bff	-0.5172729
22	0xbedc10d5	-0.42981592
23	0xbf226088	-0.63428545
24	0xbed092b4	-0.40736926
25	0xbe941ddb	-0.28929028
26	0xbeac77ad	-0.33685055
27	0x3eb03c81	0.3442116
28	0x3d2ecf0a	0.042677917
29	0x3c7e3f47	0.015518016
30	0x3f6d6b5f	0.9274196
31	0x3f41b155	0.7566121
32	0x3f48bf7d	0.7841719
33	0x3f33f9e3	0.7030317
34	0x3ed33345	0.41250053
35	0x3f03cab0	0.5148115
36	0x3ecbb844	0.3978902
37	0x3f2edc96	0.6830534
38	0x3ec1cca0	0.3785143
39	0x3ed1e098	0.40991664
40	0x3ee78e72	0.45225865
41	0x3f104225	0.5635093
42	0x3ed0c7fa	0.4077757
43	0x3f0d4b9a	0.55193484
44	0x3f0c5de7	0.54830784
45	0xbe07a540	-0.13246632
46	0xbd50b2a0	-0.0509516
47	0xbe6dc9e6	-0.2322155
48	0xbeb3d719	-0.35125044
49	0xbb7555e2	-0.0037435223
50	0xbdc73c54	-0.097283036
51	0xbe457a0b	-0.19284837
52	0xbe029c46	-0.12754926
53	0xbe8ad9ed	-0.2711939
54	0xbe6886dd	-0.22707696
55	0xbc1e7685	-0.009671812
56	0xbe599de7	-0.21251641
57	0xbcc67495	-0.024225513
58	0xbe853c4a	-0.2602256
59	0xbda46712	-0.080274716
60	0xbe09104f	-0.13385127
61	0x3d34eaeb	0.044169348
62	0x3d4583c4	0.048221365
63	0x3eec08d7	0.46100494
64	0x3f087957	0.5331015
65	0x3ebbe0bd	0.366949
66	0x3ef0759e	0.46964735
67	0x3f2bbd23	0.67085475
68	0x3f18be5a	0.59665453
69	0x3ecfcdb5	0.4058663
70	0x3f124a75	0.5714486
71	0x3ecee0eb	0.40405974
72	0xbf2d8ca0	-0.677927
73	0xbf3bc060	-0.73340416
74	0xbe818606	-0.25297564
75	0xbf4a9430	-0.79132366
76	0xbf488902	-0.7833406
77	0xbeb76c73	-0.35824928
78	0xbf2e984e	-0.6820115
79	0xbf5b6960	-0.85707664
80	0xbec06a3c	-0.3758105
81	0x3ec1093e	0.37702364
82	0x3da28c55	0.079369225
83	0x3eb7f9c2	0.35932738
84	0x3eba788a	0.3642009
85	0x3ebc2791	0.36748937
86	0x3e7209b6	0.23636517
87	0x3f01eb78	0.5074992
88	0x3ea734cb	0.32657465
89	0x3ebc6345	0.36794487
90	0x3e8b1682	0.2716561
91	0x3eb6d10c	0.35706365
92	0x3ed24a02	0.41072088
93	0x3e9e7c1e	0.3095407
94	0x3ee82fe2	0.45349032
95	0x3eda55f0	0.4264369
96	0x3cf6cb35	0.030126194
97	0x3da80fba	0.082061246
98	0x3eabfcb4	0.33591235
99	0x3d803f76	0.06262104
100	0xbe8e3361	-0.27773574
101	0xbeaed5a8	-0.34147382
102	0xbeabf2b5	-0.33583608
103	0xbef7de43	-0.4841176
104	0xbee2c6e3	-0.44292364
105	0xbea57380	-0.32314682
106	0xbee5a09f	-0.44849107
107	0xbebb9ee2	-0.36644655
108	0x3e98dcdf	0.2985601
109	0x3e88e2dc	0.2673558
110	0x3e4d78f7	0.20065676
111	0x3f36c2c3	0.7139093
112	0x3f216bf9	0.6305538
113	0x3f0173ce	0.5056733
114	0x3e84ba0f	0.259232
115	0x3df7ece1	0.12105728
116	0x3e3ed6fb	0.18636696
117	0x3eaa5e93	0.3327528
118	0x3e1f4d2c	0.15556782
119	0x3e97f5d3	0.29679736
120	0x3ce4db07	0.027936472
121	0xbdae6778	-0.08515829
122	0xbd75f709	-0.060050044
123	0x3ddc208b	0.107483946
124	0x3e0e57f5	0.1390074
125	0x3e7b221e	0.24524733
126	0xbe36123c	-0.17780393
127	0xbe5229d2	-0.20523766
128	0xbe1cc76f	-0.15310453
129	0xbddfc0c5	-0.1092544
130	0xbe928dc3	-0.2862378
131	0xbec2856e	-0.37992424
132	0xbdd50a69	-0.10402376
133	0x3cf7541c	0.030191474
134	0xbddef1e3	-0.1088598
135	0x3e51169d	0.20418783
136	0x3eb05c42	0.34445387
137	0x3eaea9d6	0.3411395
138	0x3f2d97c5	0.67809707
139	0x3f6de188	0.9292226
140	0x3f975ad1	1.182459
141	0x3ed5869f	0.4170427
142	0x3f75dc75	0.96039516
143	0x3f94a11e	1.1611669
144	0xbbc2ced4	-0.005945066
145	0x3e2d7073	0.16937427
146	0x3db8aecd	0.090177156
147	0x3ebc6374	0.36794627
148	0x3eaf97e5	0.34295574
149	0x3e7fbaa8	0.24973547
150	0x3da8bed9	0.08239526
151	0x3e7eed99	0.24895324
152	0x3e0f3262	0.13984063
153	0xbeef8ff9	-0.4678953
154	0xbeefe01e	-0.46850675
155	0xbead18fb	-0.3380812
156	0xbf01a8bd	-0.506481
157	0xbed46b71	-0.4148822
158	0xbeab2002	-0.33422858
159	0xbef44b83	-0.4771386
160	0xbe970585	-0.294964
161	0xbed26116	-0.41089696
162	0xbf055132	-0.5207702
163	0xbf1c7d4f	-0.61128706
164	0xbefc31ef	-0.49256846
165	0xbeae5f8e	-0.34057277
166	0xbefa9199	-0.48939207
167	0xbf0f0a3a	-0.5587498
168	0x3e12aa95	0.14322884
169	0xbd8c911b	-0.06863614
170	0xbdf4f6df	-0.119611494
171	0x3f02af8d	0.5104912
172	0x3e9c855d	0.30570498
173	0x3ecadf21	0.3962336
174	0x3ec4960d	0.3839573
175	0x3ef5d21d	0.48011866
176	0x3ed8ee5d	0.42369357
177	0x3eb954e0	0.36197567
178	0x3eabc892	0.3355146
179	0x3f0566e8	0.5211015
180	0x3f479af1	0.77970797
181	0x3f097978	0.5370097
182	0xbeab711c	-0.33484733
183	0x3f928270	1.1446056
184	0x3f9e29c5	1.2356497
185	0x3e1fb02f	0.15594552
186	0x3f1da9ba	0.6158711
187	0x3f304557	0.68855804
188	0xbdd5b76e	-0.10435377
189	0x3e29ceff	0.16582869
190	0xbe728718	-0.23684347
191	0xbe252c3b	-0.16130154
192	0xbe168865	-0.14700468
193	0xbe987d16	-0.29782933
194	0xbd7ec98f	-0.06220394
195	0x3d9c3fda	0.07629366
196	0xbe0cd267	-0.13752137
197	0xbcdfb449	-0.027307646
198	0xbd94d7a0	-0.0726769
199	0xbddab7fd	-0.10679624
200	0x3ef23a37	0.4731004
201	0x3d488daa	0.048963226
202	0x3de7b281	0.11313344
203	0x3e2a83d6	0.16651854
204	0x3eb2439f	0.34817216
205	0x3edde568	0.43339086
206	0x3f267cce	0.65034187
207	0x3edd0d0f	0.43174025
208	0x3ef76da6	0.48325843
209	0x3e436155	0.19080098
210	0x3f2109b1	0.6290541
211	0x3f1287ad	0.57238275
212	0x3eeed903	0.46649942
213	0x3e8e6053	0.27807865
214	0x3e66c702	0.22536853
215	0x3ed826b1	0.4221702
216	0xbe4580f0	-0.19287467
217	0xbe6fd491	-0.23420931
218	0xbe2c0d4d	-0.16801949
219	0x3e57be42	0.21068671
220	0xbb904fbb	-0.004404036
221	0x3e947853	0.2899805
222	0xbe2fc767	-0.1716591
223	0xbe5a5e20	-0.21324968
224	0xbd4d59af	-0.050134357
225	0xbef51529	-0.47867706
226	0xbf152a33	-0.58267516
227	0xbeee1f66	-0.4650833
228	0xbf2a21f0	-0.66458035
229	0xbf27662a	-0.65390265
230	0xbf2859e8	-0.65762186
231	0xbe941453	-0.28921756
232	0xbf1264ef	-0.5718526
233	0xbf2b513c	-0.6692083
234	0xbf0a002d	-0.5390652
235	0xbeb44d21	-0.35215095
236	0xbec4d836	-0.38446206
237	0xbf129b58	-0.57268286
238	0xbf3a0375	-0.72661525
239	0xbf84de05	-1.0380255
240	0x3d1bc94e	0.038033776
241	0xbdc1b1e7	-0.0945776
242	0xbea634b1	-0.32462075
243	0x3e222f61	0.15838386
244	0x3ec231fc	0.3792876
245	0x3d2190e5	0.039444823
246	0x3f0f283d	0.55920774
247	0x3eba5841	0.36395457
248	0x3ef77b17	0.48336098
249	0x3ed4ab3b	0.41536888
250	0x3e09a576	0.13442025
251	0x3cb76bf1	0.022390338
252	0x3e474d02	0.1946297
253	0x3f8ae91b	1.0852388
254	0x3fb13718	1.3844938
255	0xbe5fc8da	-0.21853963

encoder2.features.0.bias f4 [8]
0	0x3ddf5e1f	0.10906624
1	0x3d75f8dd	0.060051788
2	0x3c3e7489	0.011624464
3	0x3d7cbcdf	0.06170356
4	0xbddbfebc	-0.10741946
5	0x3e05901e	0.13043258
6	0x3e1f00c3	0.15527634
7	0xbb6f9632	-0.003655803

encoder2.features.1.weight f4 [8]
0	0x3f6ca5da	0.9244057
1	0x3f5078b7	0.81434196
2	0x3f4eb679	0.8074718
3	0x3f4a6f94	0.79076505
4	0x3f09fe15	0.53903323
5	0x3f6582ed	0.896529
6	0x3f199410	0.5999155
7	0x3f549f3b	0.83055466

encoder2.features.1.bias f4 [8]
0	0xbf0fe754	-0.56212354
1	0xbfac1192	-1.3442862
2	0x3e638c18	0.2222141
3	0xbf151bd6	-0.582456
4	0xbf2429bf	-0.641262
5	0xbf8d491e	-1.1037939
6	0x3ec51039	0.3848894
7	0x3e2f59ca	0.17124096

encoder2.features.1.running_mean f4 [8]
0	0xc0ae5a72	-5.4485407
1	0x401d52d8	2.4581814
2	0x3f0599ee	0.52188003
3	0x40311254	2.7667437
4	0xc05ffdf7	-3.4998758
5	0x40cdf622	6.4362955
6	0xc0dbe303	-6.8714614
7	0x407042da	3.7540803

encoder2.features.1.running_var f4 [8]
0	0x42aadf2a	85.43587
1	0x422a7e70	42.623474
2	0x42b0824c	88.254486
3	0x420cdded	35.216724
4	0x428244ef	65.134636
5	0x4189970b	17.198751
6	0x428f0462	71.50856
7	0x40edf0fb	7.4356666

encoder3.features.0.weight f4 [16, 8, 3, 3]
0	0xbefaa0b0	-0.4895072
1	0xbf513140	-0.81715775
2	0xbf0b95c8	-0.54525423
3	0xbf0c72f2	-0.5486289
4	0xbf0286c0	-0.5098686
5	0xbf0fae95	-0.56125766
6	0x3e609fd8	0.21935976
7	0x3dd36cd2	0.1032349
8	0x3e21077d	0.15725513
9	0xbec75294	-0.3893019
10	0xbee283a2	-0.44241053
11	0xbf00108e	-0.5002526
12	0xbf029327	-0.51005787
13	0xbf036fc1	-0.513424
14	0xbf0c148f	-0.5471887
15	0xbf187787	-0.59557384
16	0xbecabf8a	-0.39599258
17	0xbf074588	-0.5284047
18	0x3de4e6dc	0.111768454
19	0x3ec5d01a	0.3863533
20	0x3e02f6a8	0.12789404
21	0x3e10fff1	0.14160134
22	0x3e85adf7	0.26109287
23	0x3d01ca3b	0.031687003
24	0xbda88eec	-0.08230385
25	0x3d8d0628	0.0688594
26	0xbdbf153f	-0.09330224
27	0xbf5314ac	-0.8245342
28	0xbf861675	-1.0475603
29	0xbf463af1	-0.7743369
30	0xbf62f2ca	-0.88651717
31	0xbf7ccaaa	-0.9874674
32	0xbf4f366b	-0.8094241
33	0xbee9d61b	-0.45671162
34	0xbf09ed19	-0.5387741
35	0xbebf9cfd	-0.3742446
36	0xbf228e0f	-0.63498014
37	0xbf09834c	-0.5371597
38	0xbee6fd65	-0.451152
39	0xbf1f9e01	-0.6235047
40	0xbf10c8f8	-0.56556654
41	0xbf162a43	-0.58658236
42	0xbc3da954	-0.0115760155
43	0xbe002744	-0.12514979
44	0xbba9f917	-0.0051871645
45	0xbf15f6c5	-0.58579665
46	0xbf422a66	-0.75845945
47	0xbf2e42ec	-0.68070865
48	0xbf0be068	-0.5463929
49	0xbf3c1b58	-0.73479223
50	0xbf451722	-0.7698842
51	0xbf265298	-0.6496978
52	0xbef85ec4	-0.485098
53	0xbef710c1	-0.4825497
54	0xbe9e33e8	-0.30898976
55	0xbedef8c4	-0.43549168
56	0xbe9c7469	-0.30557564
57	0xbf064c33	-0.5246002
58	0xbf03cba6	-0.5148262
59	0xbe97eaf6	-0.29671448
60	0xbca40bdd	-0.020025188
61	0xbe2e5eb1	-0.1702831
62	0xbd096f3f	-0.03355336
63	0xbdb93ff1	-0.09045399
64	0xbd99f52c	-0.07517466
65	0xbe98488b	-0.29742846
66	0xbea681cf	-0.3252091
67	0xbee942ab	-0.45558676
68	0xbf207c5f	-0.62689775
69	0xbe80fcbf	-0.2519283
70	0xbee14bc4	-0.44003117
71	0xbeef265b	-0.4670895
72	0xbe36fd74	-0.17870122
73	0xbdc0f7ed	-0.09422288
74	0xbd9eee55	-0.07760302
75	0x3eee7738	0.46575332
76	0x3ee9b5d6	0.45646542
77	0x3f04f0ff	0.5193023
78	0x3f34a06d	0.7055729
79	0x3fa6c659	1.3029281
80	0x3fd760e3	1.6826442
81	0xbeba4753	-0.3638254
82	0xbe2cbb68	-0.16868365
83	0xbd623492	-0.055225916
84	0xbdafdfab	-0.08587583
85	0xbd493952	-0.04912693
86	0x3e1e123a	0.1543664
87	0x3e13f2b5	0.14448054
88	0x3edc76b7	0.43059322
89	0x3f0683eb	0.5254504
90	0x3e8c1371	0.27358583
91	0x3eb3e45d	0.35135165
92	0x3e5ca033	0.21545486
93	0x3ecf96ff	0.40544888
94	0x3e52d7b9	0.20590104
95	0xbd3cad97	-0.046063986
96	0x3eac260b	0.33622774
97	0xbf13fb22	-0.57805073
98	0xbf15a0ab	-0.58448285
99	0xbe55a208	-0.20862591
100	0xbd3eb7e5	-0.046562094
101	0xbe13b644	-0.14424998
102	0x3de339d2	0.11095013
103	0x3e533843	0.20626931
104	0x3ef9a7eb	0.48760924
105	0x3e37ad2c	0.17937154
106	0x3f73e42f	0.95270056
107	0x3f96cb89	1.1780864
108	0xbd0abea2	-0.033873208
109	0x3e5a07f2	0.21292093
110	0x3e59892c	0.21243733
111	0x3e7bf645	0.24605663
112	0x370fe6c5	8.577194e-06
113	0x3e763e32	0.24047163
114	0x3d8852bd	0.06656406
115	0x3f684d7d	0.9074324
116	0x3f982936	1.1887577
117	0xbf0d1fb0	-0.55126476
118	0xbea9f832	-0.3319717
119	0xbdaea6f0	-0.085279346
120	0xbe7c3057	-0.24627815
121	0xbe41afc9	-0.18914713
122	0x3e5375e3	0.20650439
123	0xbb846b89	-0.0040411395
124	0x3e941e5f	0.2892942
125	0x3f391e95	0.7231229
126	0xbf21142a	-0.6292139
127	0xbf124827	-0.57141346
128	0xbedffa78	-0.4374578
129	0xbd18c2a8	-0.037295014
130	0x3c655c23	0.013999018
131	0x3e524afe	0.2053642
132	0x3e05f549	0.1308185
133	0x3f0b2afa	0.5436245
134	0x3f3248c7	0.696423
135	0xbef61f63	-0.4807082
136	0xbe9aed11	-0.30258992
137	0x3e90a73b	0.28252587
138	0xbe9c979d	-0.30584422
139	0xbea99bb9	-0.3312662
140	0xbeae7239	-0.3407152
141	0x3ec619f0	0.38691664
142	0x3eb9f640	0.36320686
143	0x3dc5ad6a	0.09652217
144	0x3d519106	0.051163696
145	0xbe0fc042	-0.14038184
146	0xbddb3378	-0.10703176
147	0x3d301944	0.042992845
148	0x3d90676e	0.07050978
149	0xbcfb144e	-0.03064933
150	0xbc9764d8	-0.018480703
151	0x3dcaed73	0.09908571
152	0x3d08e063	0.033417117
153	0xbe8a3755	-0.2699534
154	0xbe7bd869	-0.24594273
155	0xbedcf822	-0.4315806
156	0xbec6aaa2	-0.38802058
157	0xbe62f4ff	-0.22163771
158	0xbeac856f	-0.33695552
159	0xbec0f976	-0.37690324
160	0xbe7199c1	-0.23593809
161	0xbeac8786	-0.33697146
162	0x3e4b6552	0.1986287
163	0x3e102650	0.14077115
164	0x3e0b9870	0.13632369
165	0x3e17590c	0.14780062
166	0xbb46252a	-0.0030234554
167	0x3d425d9e	0.04745256
168	0xbe2371e3	-0.15961413
169	0xbe41175b	-0.18856566
170	0xbe2a23a7	-0.16615163
171	0xbf158c62	-0.5841733
172	0xbf1185ba	-0.56844676
173	0xbf0d1a8b	-0.55118626
174	0xbf1094ad	-0.5647686
175	0xbef196b1	-0.4718528
176	0xbf04a455	-0.5181325
177	0xbe8f9dda	-0.2805012
178	0xbe6ac7dd	-0.22927804
179	0xbedefd1c	-0.43552482
180	0xbde3c575	-0.11121646
181	0xbe1d14af	-0.15339921
182	0xbdd32cf9	-0.10311312
183	0xbdb8d72e	-0.09025417
184	0xbe30b567	-0.172567
185	0xbe02f830	-0.12789989
186	0xbde34491	-0.110970624
187	0xbd88a55d	-0.066721655
188	0xbe3c601f	-0.18396042
189	0xbeafefc6	-0.3436262
190	0xbef2171f	-0.47283265
191	0xbec3b677	-0.38225147
192	0xbecb1fc7	-0.39672682
193	0xbe476e50	-0.19475675
194	0xbeacb720	-0.33733463
195	0xbe833955	-0.25629678
196	0xbe41a3a5	-0.18910082
197	0xbed2badb	-0.41158184
198	0x3c004344	0.007828537
199	0x3dd48743	0.103773616
200	0x3e3463a3	0.17616133
201	0x3e1316ab	0.14364116
202	0x3dd1a208	0.10235983
203	0x3e051ad6	0.12998518
204	0x3d2f63b0	0.04281968
205	0x3e2042a7	0.15650426
206	0x3d6fbacd	0.058527756
207	0x3d0360c1	0.032074694
208	0x3b220eb9	0.0024728014
209	0xbaf50cd9	-0.0018695846
210	0xbd6d8f5a	-0.05799804
211	0x3d8d06b3	0.068860434
212	0xbe2c2df8	-0.1681441
213	0xbda2f8a1	-0.079575785
214	0x3d6d5c96	0.057949625
215	0xbdfddff0	-0.12396228
216	0xbeb5c552	-0.35502106
217	0xbf4c207a	-0.79737055
218	0xbe9903ed	-0.29885808
219	0xbeeb5223	-0.45961103
220	0xbf5c0ac7	-0.85953945
221	0xbecb42b7	-0.39699337
222	0xbf0d3d06	-0.5517124
223	0xbf16b09e	-0.58863246
224	0xbeac04f5	-0.33597532
225	0xbede31bd	-0.43397322
226	0xbeaceecb	-0.33775935
227	0xbec3891f	-0.38190553
228	0xbce14d6e	-0.027502742
229	0xbe377675	-0.17916282
230	0xbd925199	-0.0714447
231	0xbe5d89e0	-0.21634626
232	0xbe78da30	-0.24301982
233	0xbdb40b8b	-0.08791264
234	0xbeca00a5	-0.39453617
235	0x3d1e8ccc	0.038708493
236	0x3e9af72e	0.30266708
237	0xbd37cc77	-0.044872727
238	0x3f4dbd84	0.803673
239	0x3eec7508	0.46183038
240	0xbb810f27	-0.003938574
241	0x3f380c39	0.7189365
242	0x3f202975	0.6256326
243	0xbd9369b1	-0.071978934
244	0xbf060e44	-0.5236552
245	0xbe836ed2	-0.25670487
246	0xbe78a6d4	-0.2428239
247	0xbeaf7934	-0.34272158
248	0x3d742ecc	0.05961494
249	0xbea37393	-0.31924114
250	0xbe771a84	-0.24131209
251	0x3d96eb7c	0.07369134
252	0xbe3e1405	-0.18562324
253	0xbe8a79a8	-0.2704594
254	0xbe193f6f	-0.14965604
255	0xbe3e6f8a	-0.18597236

encoder3.features.0.bias f4 [16]
0	0x3d66fbda	0.056392528
1	0xbd1bcdc4	-0.03803803
2	0x3d6ce72f	0.05783766
3	0x3d5ca191	0.05386502
4	0xbdf28a82	-0.118428245
5	0x3d8d2e2b	0.068935715
6	0xbd97f636	-0.07420008
7	0xbd2c3d65	-0.042050738
8	0xbda10202	-0.07861711
9	0xbd2bafb3	-0.041915607
10	0x3dcbbda1	0.09948278
11	0xbc640a3e	-0.013918458
12	0xbda6949c	-0.08133814
13	0x3d168c65	0.036754984
14	0x3c0fb44f	0.008771016
15	0xbbbb4f82	-0.005716265

encoder3.features.1.weight f4 [16]
0	0x3eab75bf	0.3348827
1	0x3f24a8a7	0.64319843
2	0x3ed6ac7b	0.41928467
3	0x3f83a085	1.0283362
4	0x3f2d9e18	0.67819357
5	0x3f359652	0.70932496
6	0x3f1affe7	0.60546726
7	0x3e2539fc	0.161354
8	0x3e9c7cf0	0.3056407
9	0x3f7101d7	0.9414343
10	0x3f466f5a	0.7751366
11	0x3f45c4e4	0.77253556
12	0x3f9af130	1.2104855
13	0x3f022986	0.5084461
14	0x3f796c76	0.97431123
15	0x3f1de3d6	0.61675775

encoder3.features.1.bias f4 [16]
0	0x3e05b656	0.13057837
1	0xbea5d1d6	-0.32386655
2	0xbeee04cb	-0.46488032
3	0x3f272df7	0.6530451
4	0x3e450cb8	0.19243133
5	0x3e3c456c	0.18385857
6	0xbec64c50	-0.38730097
7	0xbf574c93	-0.8410122
8	0xbebc516a	-0.36780864
9	0xbeefbf6b	-0.46825728
10	0xbe8e0100	-0.27735138
11	0x3e2f732f	0.17133783
12	0xbf85f124	-1.0464215
13	0x3e39840c	0.18116778
14	0xbee05a8e	-0.43819088
15	0xbfa1d286	-1.2642372

encoder3.features.1.running_mean f4 [16]
0	0xc097a293	-4.7385955
1	0x3f921523	1.14127
2	0xbf28c96a	-0.65932333
3	0xc012e786	-2.295381
4	0xbfc1d551	-1.5143224
5	0xbe0a17a5	-0.13485582
6	0x405a688b	3.4126308
7	0xbee0625a	-0.43825036
8	0xbf92e312	-1.1475546
9	0x3da0c141	0.0784936
10	0xc025e80c	-2.592288
11	0xc078d265	-3.8878415
12	0x40885633	4.2605224
13	0xbfc6adeb	-1.5521826
14	0x40a091c3	5.017793
15	0x4012073c	2.2816916

encoder3.features.1.running_var f4 [16]
0	0x421959c2	38.337654
1	0x40bf21bf	5.9728694
2	0x40c27779	6.077084
3	0x4218be62	38.18592
4	0x417842bf	15.516295
5	0x4163487a	14.205194
6	0x406e04cf	3.7190435
7	0x416252e0	14.145233
8	0x41057bc6	8.342718
9	0x401f0656	2.4847617
10	0x400f54a9	2.2395422
11	0x41d80253	27.001135
12	0x41d2ca57	26.348799
13	0x416fcbf8	14.987297
14	0x41d049c7	26.036024
15	0x415eb709	13.919686

encoder4.features.0.weight f4 [32, 16, 3, 3]
0	0xbeb3315d	-0.349986
1	0xbee127cd	-0.43975678
2	0xbe906277	-0.28200123
3	0xbe247212	-0.1605914
4	0xbe86b929	-0.2631314
5	0xbe570f62	-0.21001962
6	0xbe21860c	-0.15773791
7	0xbe60c0e2	-0.21948579
8	0xbd916d6b	-0.07100948
9	0x3f2785bb	0.6543843
10	0x3f0e2dc0	0.5553856
11	0x3f0114f3	0.5042259
12	0x3f3a6aaa	0.72819006
13	0x3f91279c	1.1340213
14	0x3f580144	0.8437693
15	0x3f4ad0c9	0.7922483
16	0x3fa50745	1.2892843
17	0x3f5f078f	0.8712091
18	0x3dd6fa57	0.10496967
19	0x3d9b7153	0.07589974
20	0x3dff4ca6	0.124657914
21	0x3dd62e42	0.10458042
22	0x3d1f771a	0.038931943
23	0x3e194b26	0.14970073
24	0x3dc58120	0.09643769
25	0x3dfb3d6c	0.12267575
26	0x3e4f6fa2	0.20257428
27	0xbe8771d0	-0.2645402
28	0xbe8ee2b3	-0.27907333
29	0xbe48c732	-0.19607237
30	0xbe94c9ab	-0.2906011
31	0xbeb95f03	-0.362053
32	0xbe73ef19	-0.23821677
33	0xbebeca1e	-0.37263578
34	0xbe9b0ca3	-0.3028308
35	0xbe809a22	-0.25117594
36	0x3c9b7e8a	0.018981237
37	0x3da3bde2	0.07995202
38	0x3dc646b0	0.09681451
39	0xbd81b02a	-0.06332429
40	0xbb83ff0d	-0.004028207
41	0xbcc4898a	-0.023991365
42	0xbe48a70c	-0.19594973
43	0xbe13702e	-0.14398262
44	0x3bb5bdd4	0.005546311
45	0xbe26b558	-0.16280115
46	0xbe74fbee	-0.23924229
47	0xbd10df62	-0.035369284
48	0xbca61789	-0.020274894
49	0xbe01cb22	-0.12675145
50	0x3c80a2d3	0.01570264
51	0xbe1e341c	-0.15449566
52	0xbe50febe	-0.20409676
53	0xbd90b593	-0.070658825
54	0xbdb370c8	-0.08761746
55	0x3e30434d	0.17213173
56	0xbd0f62dc	-0.03500639
57	0x3e260a23	0.16214804
58	0x3e7dddd9	0.2479166
59	0x3e27a7ee	0.16372654
60	0x3dcc7078	0.09982389
61	0x3e400b5b	0.18754332
62	0xbd096901	-0.033547405
63	0xbe16f61e	-0.14742324
64	0xbebbb84f	-0.36664054
65	0xbdc989c7	-0.09840732
66	0xbd839836	-0.06425516
67	0xbe491aa7	-0.19639073
68	0xbcc12903	-0.023579126
69	0xbe83915b	-0.25696835
70	0xbec02bf7	-0.37533543
71	0xbe8daa39	-0.27668932
72	0xbd33333c	-0.043750033
73	0xbd2bfd0b	-0.041989367
74	0xbe068b52	-0.13139084
75	0xbd0a44b3	-0.033756923
76	0xbd625c87	-0.055264022
77	0xbd20908c	-0.03920035
78	0x3dcc7b5a	0.09984465
79	0x3c3361e6	0.010948634
80	0x3dbde6c9	0.092725344
81	0x3f7418f9	0.95350605
82	0x3f4c7032	0.79858696
83	0x3f450eee	0.76975906
84	0x3f0822d3	0.5317814
85	0x3edb5200	0.42836
86	0x3f102f5c	0.56322265
87	0x3cc59899	0.024120616
88	0x3c26191c	0.0101378225
89	0xbdb32fba	-0.087493375
90	0x3e66c68e	0.2253668
91	0x3f015d2f	0.5053281
92	0x3ed3c601	0.41362002
93	0x3de69692	0.11259188
94	0x3d862016	0.06549089
95	0x3e0a0c14	0.1348117
96	0x3ca7ac7c	0.02046799
97	0xbd137669	-0.036001597
98	0xbe386c2b	-0.18010013
99	0x3e23c1df	0.15991925
100	0x3e2b61c5	0.16736515
101	0x3e689433	0.22712784
102	0x3e593572	0.21211794
103	0x3e49e5b5	0.19716533
104	0x3e7b2aca	0.24528041
105	0x3d9874c2	0.07444145
106	0x3daccc45	0.08437399
107	0x3def4926	0.11683874
108	0x3f0b6b37	0.5446047
109	0x3ecb13fc	0.39663684
110	0x3ed04b13	0.40682277
111	0x3ebb1057	0.36535904
112	0x3f03f82a	0.51550543
113	0x3ef096e0	0.46990108
114	0x3ee4da5e	0.4469785
115	0x3f1c8ace	0.611493
116	0x3f14e6eb	0.5816485
117	0x3dc086f1	0.09400738
118	0x3e77f6c1	0.24215223
119	0x3ece2966	0.4026596
120	0x3ec420b3	0.38306198
121	0x3eaab7f5	0.33343473
122	0x3e3d3117	0.18475758
123	0x3e06bb45	0.13157375
124	0x3d853ef9	0.06506152
125	0x3dd7dd36	0.105402395
126	0x3f029539	0.51008946
127	0x3ec7c6d9	0.39018896
128	0x3f0779cb	0.52920216
129	0x3f0dd237	0.5539889
130	0x3ed9cf90	0.4254117
131	0x3f183689	0.59458214
132	0x3f120954	0.57045484
133	0x3ea69e4d	0.3254265
134	0x3f062573	0.5240089
135	0x3ee52475	0.44754377
136	0x3ed1a7d6	0.4094836
137	0x3e991ec5	0.29906288
138	0x3ed21124	0.41028702
139	0x3ed70342	0.41994673
140	0x3ebca9de	0.36848348
141	0x3ef34235	0.4751145
142	0x3f15f306	0.5857395
143	0x3eeeac29	0.46615723
144	0xbe6610de	-0.22467372
145	0xbe9711ed	-0.29505864
146	0xbe2415c5	-0.1602393
147	0xbe7d4f1a	-0.24737206
148	0xbecada64	-0.39619744
149	0xbe1c5023	-0.15264945
150	0xbb3acb5e	-0.0028502564
151	0xbadd916c	-0.0016904301
152	0xbe0940af	-0.13403581
153	0x3c9c8ff8	0.019111618
154	0xbdae2cfd	-0.085046746
155	0xbc2f7b46	-0.010710543
156	0xbd6dcbd5	-0.058055717
157	0xbeb897f4	-0.3605343
158	0xbd78d4ec	-0.060749933
159	0xbbbc260a	-0.0057418393
160	0x3d27fcdb	0.041012626
161	0x3f4db980	0.80361176
162	0xbd500d92	-0.05079419
163	0xbe71f82e	-0.2362983
164	0xbc4169ed	-0.01180504
165	0xbf082cd2	-0.5319339
166	0xbf37b282	-0.71756756
167	0xbf07fffe	-0.5312499
168	0xbf2c41bf	-0.6728782
169	0xbf42efbe	-0.7614707
170	0xbf3cbc57	-0.73724884
171	0xbecb4aa9	-0.397054
172	0xbee01d3f	-0.43772313
173	0xbea3c41b	-0.31985554
174	0x3dee5e87	0.116391234
175	0x3e87edd1	0.26548627
176	0xbe16b6ac	-0.14718121
177	0x3f88d83c	1.069099
178	0x3f86d2cf	1.0533084
179	0x3f1b0dad	0.6056774
180	0x3f2897c4	0.65856576
181	0x3edbe30f	0.4294667
182	0x3f2f562a	0.6849085
183	0xbe907bf2	-0.28219563
184	0xbf10959a	-0.56478274
185	0xbdb49d61	-0.0881908
186	0xbf12562a	-0.57162726
187	0xbf822120	-1.0166359
188	0xbf1c51c6	-0.61062276
189	0x3f08197a	0.53163874
190	0x3ec780d6	0.38965482
191	0x3f1b43b9	0.6065021
192	0xbd654369	-0.05597249
193	0xbe4796e0	-0.19491148
194	0xbeb057d4	-0.34442008
195	0x3e805d5e	0.25071234
196	0xbe18b62f	-0.14913248
197	0xbddf3201	-0.10898209
198	0xbdb3b46f	-0.08774649
199	0xbef21475	-0.47281232
200	0xbeb1ee4c	-0.3475212
201	0xbe142460	-0.14467001
202	0xbe866aa0	-0.26253223
203	0xbe2a9ceb	-0.16661422
204	0xbd2976e6	-0.041373156
205	0x3d91405d	0.070923544
206	0x3e11d40f	0.1424105
207	0x3e65011e	0.22363707
208	0x3eb3a7d4	0.3508898
209	0x3e9245bd	0.2856883
210	0xbd915366	-0.07095985
211	0xbe9c3e30	-0.30516195
212	0xbe91febf	-0.28514668
213	0xbe596f3a	-0.21233836
214	0xbecd6fdc	-0.40124404
215	0xbe860edd	-0.26183215
216	0xbc9d1eae	-0.019179668
217	0xbd88a3fe	-0.06671904
218	0x3caa61e9	0.02079864
219	0xbee01da8	-0.43772626
220	0xbe48b5c0	-0.19600582
221	0xbd79c0ae	-0.06097477
222	0xbd31bb8b	-0.043391746
223	0x3c52c17d	0.012863514
224	0x3dfb6e1a	0.122768596
225	0xbf170821	-0.5899678
226	0xbf035e34	-0.5131562
227	0xbd9eeaf6	-0.07759659
228	0xbf93f54b	-1.1559232
229	0xbf66ae35	-0.9010957
230	0xbf803190	-1.0015125
231	0xbf91e9a7	-1.139943
232	0xbf8c986d	-1.0984017
233	0xbf14a967	-0.5807099
234	0x3c8c8125	0.017151425
235	0xbe4e07f8	-0.20120227
236	0x3e29872d	0.16555472
237	0xbf26e460	-0.6519222
238	0xbf08b019	-0.53393704
239	0xbe2a8aec	-0.16654557
240	0xbf2fb518	-0.686357
241	0xbec9685b	-0.3933743
242	0x3e8c3474	0.2738377
243	0x3f49d39c	0.78838515
244	0x3ea81c6a	0.32834178
245	0x3f031839	0.51208836
246	0xbd89d5e1	-0.06730247
247	0xbe9b06cb	-0.3027862
248	0x3ee1534d	0.44008866
249	0xbf934675	-1.1505877
250	0xbf8246e5	-1.0177885
251	0x3dda68b5	0.106645025
252	0x3e53ea80	0.20694923
253	0x3ebaafc5	0.36462227
254	0x3dc2a0af	0.09503304
255	0xbea6fa78	-0.32612967

encoder4.features.0.bias f4 [32]
0	0x3da2b4f4	0.0794467
1	0xbbce8b92	-0.006303259
2	0x3b2bd203	0.0026217706
3	0x3d6ee934	0.05832787
4	0xbd3c6cda	-0.046002246
5	0x3d98dd06	0.07464032
6	0xbd9baf66	-0.07601814
7	0x3d66dd4e	0.056363396
8	0x3d82383f	0.06358384
9	0xbd8c2e0d	-0.06844721
10	0xbd2eb354	-0.04265149
11	0x3d31bc39	0.043392394
12	0x3c216359	0.0098503465
13	0xbd866333	-0.065618895
14	0x3c6d9d92	0.0145029
15	0xbce4d793	-0.027934825
16	0x3d6f778a	0.05846361
17	0xbdacae6b	-0.08431705
18	0xbd149d7b	-0.036282998
19	0xbd6f9a70	-0.058496892
20	0xbd612196	-0.05496367
21	0x3b09835b	0.0020982835
22	0x3d88fb7e	0.06688593
23	0xbcd12648	-0.02553095
24	0x3d22ff23	0.0397941
25	0xbd2e4493	-0.042545866
26	0xbca192bb	-0.019723287
27	0xbd1f2d35	-0.038861472
28	0x3d970019	0.073730655
29	0xbd8bb558	-0.06821698
30	0xbd7b3835	-0.0613329
31	0x3d4f95bb	0.050679903

encoder4.features.1.weight f4 [32]
0	0x3efd100c	0.49426305
1	0x3fda05ab	1.703298
2	0x3e9d745d	0.3075284
3	0x3f44df20	0.7690296
4	0x3e802ae6	0.2503273
5	0x3f61626b	0.880408
6	0x3ed7c14b	0.42139658
7	0x3e82c8b0	0.25543737
8	0x3f873e7f	1.0565947
9	0x3f557655	0.83383685
10	0x3e009873	0.12558155
11	0x3f13d313	0.5774395
12	0x3f239dfa	0.6391293
13	0x3eab94d4	0.33511984
14	0x3f37cf5f	0.718008
15	0x3fbe9176	1.4888141
16	0x3ecff7f8	0.40618873
17	0x3f62f992	0.88662064
18	0x3fa22409	1.2667247
19	0x3f29b2d9	0.66288525
20	0x3efe0bde	0.4961843
21	0x3ec8f070	0.3924594
22	0x3f4740d0	0.7783327
23	0x3f154a9d	0.58316976
24	0x3f710f1a	0.9416367
25	0x3ea7463f	0.3267078
26	0x3f863ad0	1.0486698
27	0x3f14b944	0.5809519
28	0x3f516a19	0.8180252
29	0x3e21b620	0.15792131
30	0x3e896451	0.26834348
31	0x3f90be85	1.1308142

encoder4.features.1.bias f4 [32]
0	0xbf86f022	-1.0542033
1	0xbef33363	-0.47500142
2	0xbf328678	-0.69736433
3	0xbfb08432	-1.3790343
4	0xbf6e363c	-0.93051505
5	0xbeca60ea	-0.39527065
6	0xbf8a32cb	-1.0796751
7	0xbf2d00d1	-0.6757937
8	0x3ead313c	0.33826625
9	0xbd2780c5	-0.04089429
10	0xbf150169	-0.58205277
11	0xbe8d46bf	-0.27593037
12	0xbf9c2de9	-1.2201511
13	0xbf2c49dd	-0.67300206
14	0xbfadb4e0	-1.3570824
15	0x3e39e4cf	0.1815369
16	0xbf9c3e73	-1.2206558
17	0xbd698365	-0.057010073
18	0x3e90b5b7	0.28263637
19	0xbf31442b	-0.6924464
20	0xbf912659	-1.1339828
21	0xbf1dcf00	-0.6164398
22	0xbf4476f2	-0.76743996
23	0xbf092459	-0.5357109
24	0x3d5cbd11	0.053891245
25	0xbf0b6e43	-0.5446512
26	0x3eaa5a73	0.33272132
27	0xbf4a6530	-0.7906065
28	0x3ec1256a	0.37723857
29	0xbf43b9c4	-0.7645533
30	0x3d7004bf	0.058598276
31	0xbe2190d6	-0.15777907

encoder4.features.1.running_mean f4 [32]
0	0x4057b146	3.370195
1	0xc00187ae	-2.0239062
2	0xc0d8f155	-6.7794595
3	0x401f51d5	2.4893696
4	0xbf970cfd	-1.1800839
5	0xc0753886	-3.831575
6	0xc012c3be	-2.2931972
7	0xc04f957d	-3.243499
8	0xbf917f73	-1.136702
9	0x40d3b5d0	6.615944
10	0xc0a4eb55	-5.153727
11	0xc11ee5e9	-9.93113
12	0x4054530c	3.3175688
13	0x3f79e69b	0.976175
14	0x407d777d	3.960418
15	0x3f2c45e3	0.6729414
16	0xc0becaf9	-5.962277
17	0xc05699fa	-3.353148
18	0x3f9e260b	1.235536
19	0x40bc48c2	5.8838816
20	0x3f8df849	1.1091396
21	0xc0c5aade	-6.177108
22	0xc010dd9e	-2.2635264
23	0xc1324c0c	-11.143566
24	0xbd500229	-0.05078331
25	0xc057df4b	-3.3730037
26	0xbfb2c6b6	-1.3966892
27	0x40380847	2.8755052
28	0xc0b1fb8a	-5.5619555
29	0xc0945d5a	-4.6363955
30	0xc0e931a1	-7.287308
31	0xc066c5d2	-3.605824

encoder4.features.1.running_var f4 [32]
0	0x423de8ac	47.47722
1	0x414b2d79	12.698602
2	0x42650e74	57.264114
3	0x420d1139	35.26682
4	0x416a239c	14.633694
5	0x414f1d08	12.944588
6	0x42376484	45.84816
7	0x40d9756d	6.795584
8	0x4113baff	9.233153
9	0x418d8ce6	17.693798
10	0x421af3f0	38.73822
11	0x423a978b	46.64799
12	0x421ccef9	39.20212
13	0x41b9c323	23.220282
14	0x42073c70	33.80902
15	0x41112b8f	9.073134
16	0x42436402	48.847664
17	0x42433049	48.797153
18	0x411c185e	9.755949
19	0x41c91186	25.133556
20	0x41b2bc04	22.341805
21	0x4183d9b7	16.481306
22	0x415b699d	13.7132845
23	0x41aacca3	21.34992
24	0x41ea3e28	29.28035
25	0x412ea6d3	10.915729
26	0x42a89ecd	84.31016
27	0x42210bfc	40.261703
28	0x42834aef	65.646355
29	0x4252ad0e	52.669
30	0x42170dfe	37.763664
31	0x4160553c	14.020809

encoder5.features.0.weight f4 [64, 32, 3, 3]
0	0xbea7432c	-0.32668436
1	0xbc6e257e	-0.014535306
2	0xbe00436d	-0.12525721
3	0xbe8467df	-0.25860497
4	0xbdbd09ab	-0.0923036
5	0xbdedcc0c	-0.116111845
6	0xbdc3c164	-0.09558371
7	0xbd84d364	-0.06485632
8	0xbec3111d	-0.38098994
9	0xbeb17a8b	-0.34663805
10	0x3e3b4aa0	0.18290186
11	0xbe17f4c8	-0.1483947
12	0xbea65832	-0.32489163
13	0xbef4d73c	-0.4782046
14	0xbdd36416	-0.10321824
15	0x3e0783c4	0.13233858
16	0x3e13868f	0.14406799
17	0x3ecc7653	0.39934024
18	0xbf31a50f	-0.69392484
19	0xbe9eee26	-0.31041068
20	0xbf1e9e72	-0.6196052
21	0xbeb8b7b7	-0.36077663
22	0x3db3ef22	0.08785845
23	0xbe6825f0	-0.22670722
24	0x3c8f23ca	0.01747312
25	0x3d8f87e1	0.07008339
26	0xbeb61e9a	-0.35570222
27	0xbd5e21bf	-0.0542314
28	0x3dc823a8	0.09772426
29	0x3bed44e8	0.0072408803
30	0xbe24d6f1	-0.16097619
31	0xbd7fa3cf	-0.06241208
32	0xbb9cfdfe	-0.0047910204
33	0xbe9f9cca	-0.31174308
34	0xbda7249d	-0.0816128
35	0x3df58f02	0.11990167
36	0xbe352f71	-0.17693879
37	0xbcc6ce49	-0.024268286
38	0x3dc7ddb9	0.09759087
39	0xbe936ab9	-0.2879236
40	0xbe52b3e0	-0.2057643
41	0xbe6547c7	-0.22390662
42	0xbca621f0	-0.020279855
43	0x3d47c87f	0.048775192
44	0x3e428c90	0.18998933
45	0xbf605284	-0.8762591
46	0x3ea713d7	0.32632324
47	0x3eb48d98	0.35264277
48	0xbeae3cb6	-0.34030694
49	0x3e02b482	0.12764171
50	0x3e9f2a5a	0.31087
51	0x3ed10ca4	0.40829957
52	0x3f36e60f	0.7144479
53	0x3ff87630	1.9411068
54	0xbc548c60	-0.012972921
55	0x3e7c813c	0.24658674
56	0x3e419b2b	0.18906848
57	0xbe1250ce	-0.14288637
58	0x3deb4d6b	0.11489376
59	0x3e09c1bc	0.1345281
60	0xbde8694f	-0.11348211
61	0x3bfb7383	0.007673682
62	0x3da62dac	0.0811418
63	0x3d796160	0.06088388
64	0xbe2ab977	-0.16672312
65	0x3d4fcfb5	0.050735194
66	0xbdb42d20	-0.087976694
67	0xbe984f6c	-0.29748094
68	0xbdcac12b	-0.09900125
69	0xbe314a30	-0.17313457
70	0xbeeb69d6	-0.45979184
71	0xbd301dc6	-0.042997144
72	0x3f201371	0.62529665
73	0x3ea4c1b0	0.32179022
74	0x3f6b2faa	0.91869605
75	0xbf05b852	-0.52234375
76	0xbf4060b1	-0.7514754
77	0xbeb7e579	-0.3591726
78	0xbd9d32fb	-0.076757394
79	0xbead5206	-0.3385164
80	0x3e2e941f	0.17048691
81	0x3d7276c7	0.059195306
82	0xbe41afe3	-0.18914752
83	0xbc810577	-0.015749676
84	0xbf117829	-0.56823975
85	0xbf251e91	-0.64499766
86	0xbec584a5	-0.38577762
87	0xbee86220	-0.45387363
88	0xbe6a64f3	-0.22890072
89	0x3f6ebf7f	0.9326095
90	0x3e825cf1	0.25461534
91	0x3ef2cd03	0.47422037
92	0x3df93bd8	0.121696174
93	0x3dcbb183	0.09945967
94	0x3e817677	0.25285694
95	0x3aab5ea5	0.0013074471
96	0x3c7195ad	0.014745158
97	0xbd4aac01	-0.049480442
98	0xbe7bdd75	-0.24596198
99	0x3e1e2959	0.1544546
100	0xbe12a3b8	-0.14320266
101	0xbf1030b5	-0.5632432
102	0x3de50a2a	0.11183579
103	0xbd3b835f	-0.045779582
104	0xbe3ca33b	-0.18421642
105	0x3e79ed74	0.24406987
106	0x3e9af80c	0.3026737
107	0xbdded4dd	-0.10880444
108	0xbe843796	-0.2582366
109	0xbdb3fd82	-0.08788587
110	0xbf239e6b	-0.639136
111	0xbe361dd3	-0.17784815
112	0x3c29d7c4	0.010366384
113	0xbeb1fe51	-0.3476434
114	0xbe0ac645	-0.13552196
115	0x3ce51059	0.027961897
116	0xbd885e4e	-0.06658612
117	0xbe8eab95	-0.27865282
118	0xbe0b0ef2	-0.1357992
119	0xbf4e6bae	-0.80633056
120	0x3c4dfce0	0.012572497
121	0xbdae16a6	-0.085004136
122	0xbe9c5e74	-0.30540812
123	0x3c3c16ad	0.011480016
124	0xbe8e3b72	-0.27779728
125	0xbde9a74d	-0.11408863
126	0xbea657f7	-0.32488987
127	0xbe456ff9	-0.19280995
128	0xbde5e57c	-0.11225411
129	0xbeb6eee4	-0.35729134
130	0xbe81e957	-0.25373337
131	0xbe4662ac	-0.19373578
132	0xbf04e872	-0.51917183
133	0xbebf67bc	-0.3738383
134	0xbe6937b1	-0.22775151
135	0x3dae6eab	0.08517202
136	0xbedf1a49	-0.4357474
137	0xbf037d35	-0.51362926
138	0xbe9938e6	-0.29926223
139	0xbf8641f5	-1.0488878
140	0x3e9db13e	0.30799288
141	0xbe971d7b	-0.2951468
142	0xbf824d8c	-1.0179915
143	0x3fb32660	1.3996086
144	0x3e9bf66a	0.30461437
145	0x3f10fae3	0.5663282
146	0x3f01ed88	0.5075307
147	0xbd8e1395	-0.06937329
148	0x3e6e4b9a	0.23271027
149	0x3f015188	0.5051503
150	0xbebfa524	-0.3743068
151	0xbe54f4da	-0.20796528
152	0x3d07de69	0.03317109
153	0x3dda196b	0.10649379
154	0xbe717c6f	-0.23582624
155	0xbf2f45e1	-0.68466
156	0x3f1244d4	0.57136273
157	0x3e8005bc	0.25004375
158	0xbee55e6f	-0.4479861
159	0x3f374908	0.7159581
160	0x3de865f6	0.113475725
161	0xbf312a63	-0.692053
162	0x3e15ba0c	0.14621753
163	0x3e451281	0.1924534
164	0x3dfecbca	0.124412134
165	0xbec3d975	-0.38251844
166	0xbeebbe5c	-0.4604367
167	0x3e89343f	0.26797673
168	0xbf52bd1a	-0.82319796
169	0xbd0a3284	-0.03373958
170	0x3f88d0ea	1.0688756
171	0xbe6d6537	-0.23183142
172	0xbe99fdfb	-0.30076584
173	0xbebf1932	-0.3732391
174	0xbe67b023	-0.22625785
175	0xbeaed676	-0.34147996
176	0xbeaddb85	-0.33956543
177	0xbca9ca4e	-0.02072635
178	0xbda02d9b	-0.078211986
179	0xbda30c1d	-0.07961295
180	0xbf621826	-0.883181
181	0xbf04c251	-0.51859003
182	0xbf4abae1	-0.79191405
183	0xbee66a95	-0.4500319
184	0xbe86ffb7	-0.2636697
185	0xbe07cb1e	-0.13261077
186	0x3bf0256b	0.0073286793
187	0x3e1ca5e9	0.15297665
188	0x3e111e12	0.14171627
189	0x3ef01ad8	0.4689548
190	0x3e4f6517	0.20253406
191	0x3e265123	0.16241889
192	0x3ea4423c	0.32081783
193	0xbc9d38cd	-0.019192124
194	0x3ea11a85	0.31465545
195	0x3e564ef7	0.2092856
196	0xbd092f8b	-0.033492606
197	0x3f6cc67b	0.9249036
198	0xbcb51a8d	-0.022107387
199	0xbde85ac6	-0.11345439
200	0xbea943ae	-0.33059448
201	0x3f816d93	1.0111564
202	0x3ee1b45e	0.44082922
203	0xbe2d13d1	-0.1690209
204	0x3f821a0c	1.0164199
205	0x3cf56d27	0.029959274
206	0xbe9b8339	-0.30373552
207	0x3e0e4b04	0.13895804
208	0x3ea80c68	0.32821965
209	0x3dbca481	0.09211064
210	0x3e8d575a	0.27605706
211	0x3eca9922	0.39569956
212	0x3cc7e58c	0.024401449
213	0x3e1272ce	0.14301607
214	0x3e18906a	0.1489884
215	0xbdc85685	-0.09782127
216	0xbf89e1cd	-1.0772034
217	0xbed07936	-0.40717477
218	0xbf01ae1a	-0.5065628
219	0xbf2ad258	-0.6672721
220	0xbd8de217	-0.06927889
221	0xbe3b314e	-0.18280527
222	0xbf9de6cb	-1.2336057
223	0xbe718a00	-0.23587799
224	0xbeabc5af	-0.33549258
225	0xbefbdc41	-0.49191478
226	0x3e4b4515	0.19850571
227	0xbe8cbe82	-0.27489096
228	0xbf117ab3	-0.5682785
229	0x3a60481f	0.0008555669
230	0xbe775b28	-0.24155867
231	0xbf048dd3	-0.51778907
232	0x3ecb7119	0.39734724
233	0x3df568a2	0.11982848
234	0x3c41ee86	0.011836654
235	0xbf6ecda7	-0.9328255
236	0xbf6b1260	-0.91824913
237	0xbe1df0d4	-0.154239
238	0xbf5ebd24	-0.87007356
239	0xbf782cb8	-0.96943235
240	0xbdae2d3c	-0.085047215
241	0xbf164e32	-0.58713067
242	0xbf458914	-0.7716229
243	0xbed0dc48	-0.4079306
244	0xbe896a1b	-0.26838765
245	0xbefa7e90	-0.48924685
246	0x3dfa7e58	0.122311294
247	0xbe85aee8	-0.26110005
248	0xbede81aa	-0.434583
249	0x3d6a5516	0.05721005
250	0xbeb10f2c	-0.34581888
251	0xbf4f1269	-0.80887467
252	0x3e1d8020	0.15380907
253	0x3f39ea4d	0.7262314
254	0x3f4769c6	0.7789577
255	0x3d05d6a0	0.032675385

encoder5.features.0.bias f4 [64]
0	0xbd39b7a1	-0.045341138
1	0x3d1166c4	0.035498396
2	0x3d071f45	0.032988805
3	0x3c0e7f8f	0.0086974045
4	0x3d1813ff	0.037128445
5	0xbcf73347	-0.030175818
6	0xbd28bdd4	-0.04119666
7	0xbd5e441d	-0.054264177
8	0xbd287bfe	-0.041133873
9	0xbd65537c	-0.05598782
10	0xbbfb0845	-0.007660898
11	0xbba658ef	-0.0050765197
12	0xbd64ea1f	-0.055887338
13	0x3c356900	0.011072397
14	0xbc09e9aa	-0.008417526
15	0x3c611247	0.013737268
16	0x3d4feb7b	0.05076168
17	0xbc653358	-0.013989292
18	0x3d5853bf	0.05281424
19	0xbd16c863	-0.036812197
20	0xbccc8beb	-0.024969062
21	0xbd2d9c2d	-0.04238527
22	0xbd246cf2	-0.04014296
23	0xbd6430ed	-0.05571072
24	0xbd0dc2bb	-0.034609538
25	0xbd422416	-0.047397695
26	0xbd1ada68	-0.037805945
27	0xbcf02af5	-0.029317359
28	0x3cf70d6c	0.030157767
29	0xbcc10517	-0.023561997
30	0x3d4cae56	0.049970947
31	0x3cc55696	0.024089139
32	0x3c834e21	0.016028466
33	0xbcf06ed3	-0.02934972
34	0x3b49dcf4	0.0030801864
35	0xbd15e185	-0.036592025
36	0xbb930bc1	-0.004487485
37	0x3c91673f	0.017749427
38	0x3c6e586d	0.01454745
39	0x3d5fe852	0.054664917
40	0xbd2cb049	-0.042160306
41	0xbc7c7d13	-0.015410679
42	0xbd4d2828	-0.050087124
43	0x3d322d4c	0.04350023
44	0xbd5dea7e	-0.054178707
45	0xbd3cf778	-0.046134442
46	0xbd5aa6fc	-0.053381905
47	0x3d4049e8	0.046945482
48	0x3c8abbae	0.016935196
49	0x3d4f3318	0.050585836
50	0x3b92a407	0.00447512
51	0x3c8dc21e	0.017304476
52	0x3cee80d9	0.029114174
53	0x3d0cce6a	0.03437654
54	0xbd28a720	-0.041175008
55	0xbd2a35a0	-0.041555047
56	0xbd679d04	-0.056546226
57	0x3c3800e7	0.011230684
58	0xbc0b7fd9	-0.008514368
59	0xbbdd1c3d	-0.006747751
60	0xbcbdaa76	-0.023152571
61	0x3d1ddff3	0.038543653
62	0xbcdd992a	-0.027050573
63	0x3d4d3988	0.050103694

encoder5.features.1.weight f4 [64]
0	0x3f5d1110	0.8635416
1	0x3f2e7710	0.68150425
2	0x3f92bde8	1.1464205
3	0x3f623985	0.8836902
4	0x3d96b210	0.073581815
5	0x3fa4eb7e	1.2884367
6	0x3f609936	0.8773378
7	0x3e1bb59a	0.15205994
8	0x3f77a651	0.96738154
9	0x3f510de4	0.8166182
10	0x3f87de5f	1.0614737
11	0x3f49ff6a	0.78905356
12	0x3f909aa2	1.129719
13	0x3f99fc9d	1.2030216
14	0x3efdfb8a	0.49605972
15	0x3f392ceb	0.72334164
16	0x3ebf5166	0.3736679
17	0x3f19fb60	0.6014919
18	0x3f50cabb	0.8155934
19	0x3fa89900	1.3171692
20	0x3f4994a8	0.78742456
21	0x3f91d1c1	1.1392137
22	0x3f2c3504	0.67268395
23	0x3f501889	0.8128744
24	0x3f7f275e	0.99669445
25	0x3e05715b	0.13031523
26	0x3f926f88	1.1440287
27	0x3f8fb7ce	1.1227968
28	0x3f845c8a	1.0340741
29	0x3f83276d	1.0246407
30	0x3f5235d3	0.8211338
31	0x3f8a8092	1.0820487
32	0x3e17396f	0.14768003
33	0x3f36530d	0.71220475
34	0x3e30a31a	0.17249718
35	0x3f28978d	0.6585625
36	0x3eb8f350	0.36123133
37	0x3f9af124	1.210484
38	0x3f38b5d0	0.72152424
39	0x3f6c7cd9	0.92378
40	0x3e85fa6b	0.26167616
41	0x3f41ff60	0.75780296
42	0x3f0ba76f	0.5455236
43	0x3f292ee0	0.6608715
44	0x3f8753e8	1.0572481
45	0x3f53d4f4	0.82746816
46	0x3f6ac37c	0.91704535
47	0x3f3cd974	0.7376931
48	0x3ef91d7f	0.48655316
49	0x3f34864c	0.7051742
50	0x3f2b7a92	0.669839
51	0x3e9ae724	0.3025447
52	0x3f1a3d54	0.6024983
53	0x3dc77437	0.09738963
54	0x3f0e7899	0.5565277
55	0x3f795e0d	0.97409135
56	0x3e936e18	0.28794932
57	0x3f034db9	0.5129047
58	0x3fa4f9b5	1.2888705
59	0x3f1191db	0.5686318
60	0x3f29967c	0.66245246
61	0x3e05e5a7	0.13075887
62	0x3fa5bddb	1.2948564
63	0x3f201a63	0.6254026

encoder5.features.1.bias f4 [64]
0	0xbee07701	-0.43840793
1	0xbfa56ace	-1.2923219
2	0x3e5a55be	0.2132177
3	0x3e241ab3	0.1602581
4	0xbef40d54	-0.4766642
5	0x3f40bbfe	0.75286853
6	0x3ea88b82	0.32918936
7	0xbf721960	-0.9456997
8	0x3e770067	0.24121247
9	0x3eb06069	0.34448555
10	0x3e212264	0.15735775
11	0x3ec4e238	0.3845384
12	0x3f1e543b	0.61847275
13	0xbf30c858	-0.690557
14	0x3d473c84	0.048641697
15	0xbfae6938	-1.362586
16	0xbf5a851d	-0.85359365
17	0xbeaf5d60	-0.34250927
18	0xbdc61d37	-0.09673541
19	0x3df5a6ce	0.11994706
20	0xbe67e2bb	-0.22645085
21	0xbed79368	-0.4210465
22	0x3e9c3a17	0.3051307
23	0x3eb97777	0.36223957
24	0xbc01e3fb	-0.00792789
25	0xbf3afd1a	-0.7304245
26	0x3f074850	0.52844715
27	0xbe96c532	-0.29447323
28	0xbf73c92f	-0.95228857
29	0xbc336111	-0.010948435
30	0x3e2d97f5	0.16952498
31	0xbbf6f45c	-0.007536454
32	0xbeba6f4e	-0.36413044
33	0xbf99f3f2	-1.2027571
34	0xbeb24e04	-0.34825146
35	0xbfae6397	-1.3624142
36	0xbf1debf2	-0.6168815
37	0x3deb9b9f	0.11504292
38	0x3e938308	0.28810906
39	0xbf45f782	-0.7733079
40	0xbef4ff94	-0.4785124
41	0xbd2043a7	-0.03912702
42	0x3cb96b8e	0.022634294
43	0xbeb236fc	-0.34807575
44	0x3ea85fd7	0.3288562
45	0x3edc347e	0.43008798
46	0x3c39b50d	0.01133467
47	0xbd87f0f3	-0.06637754
48	0xbee8edfa	-0.45494062
49	0xbf861771	-1.0475904
50	0x3d00cfc0	0.031448126
51	0xbe762193	-0.24036245
52	0x3d16dcf0	0.036831796
53	0xbee599e2	-0.44843966
54	0xbf1b3737	-0.60631126
55	0x3f001b05	0.5004123
56	0xbeeb72b9	-0.45985964
57	0xbe2127c7	-0.1573783
58	0x3f52d189	0.82350975
59	0x3eb76432	0.3581863
60	0x3c120e7f	0.008914589
61	0xbf323e9f	-0.696268
62	0xbd3121b0	-0.043245018
63	0xbe8f1961	-0.2794905

encoder5.features.1.running_mean f4 [64]
0	0xc10543d5	-8.329061
1	0x405b74d4	3.4290056
2	0xc1899683	-17.198492
3	0xc109c805	-8.611333
4	0xc1338cec	-11.221905
5	0xc0f8ee62	-7.7790995
6	0x40a75f4d	5.2303834
7	0xc04905e2	-3.140984
8	0xbf4fe9f9	-0.8121639
9	0xc13d2b1c	-11.823025
10	0xc1673686	-14.450811
11	0x3f7435e3	0.95394725
12	0xc120b3a1	-10.043855
13	0x412bfd30	10.749313
14	0xc060899f	-3.5083997
15	0x3e935a54	0.28779852
16	0x40d93f29	6.78896
17	0xc0647098	-3.5693722
18	0xc14b8494	-12.719868
19	0x418486fa	16.565907
20	0xc1a92c12	-21.146519
21	0x416ca259	14.789636
22	0x403771ee	2.8663287
23	0x4013bae2	2.3082814
24	0xc1d428b3	-26.519873
25	0x40d2cfa1	6.5878453
26	0xc004d70e	-2.075626
27	0xc01218e3	-2.282769
28	0x403c6acd	2.9440186
29	0x4121e2c7	10.117866
30	0x4004f7fb	2.0776355
31	0xc16d553d	-14.83331
32	0xc0b87312	-5.7640467
33	0xc12c9764	-10.786961
34	0xbfb9501e	-1.4477575
35	0x402dbb11	2.7145426
36	0xbea72555	-0.3264567
37	0xc11340ae	-9.203291
38	0x4081eb79	4.059994
39	0x41405c4a	12.0225315
40	0x3ff03166	1.8765075
41	0xbfb84d7f	-1.439865
42	0xc11da775	-9.853383
43	0xc105cc16	-8.362326
44	0xc0515a78	-3.2711468
45	0xc0e57c85	-7.17145
46	0xc180e61f	-16.112364
47	0x408aa9a6	4.333209
48	0xc0894a6b	-4.290334
49	0xbf8dac93	-1.106829
50	0xc0046080	-2.06839
51	0xc02e1b1f	-2.7204053
52	0xc12863e8	-10.524391
53	0x4055781d	3.3354561
54	0x3f2458f2	0.6419822
55	0xc0d5d71c	-6.6825085
56	0xbfff7c4e	-1.995981
57	0xbd14a5eb	-0.036291044
58	0x401bf135	2.436597
59	0x40142e89	2.3153403
60	0xc08d253d	-4.4107957
61	0x4086628e	4.1995306
62	0x3ea7b052	0.3275171
63	0x41132622	9.19681

encoder5.features.1.running_var f4 [64]
0	0x424c7832	51.11738
1	0x42fc841c	126.258026
2	0x43131537	147.08287
3	0x425e5eb0	55.59247
4	0x42fb83dc	125.75754
5	0x4338cca7	184.79942
6	0x430300a6	131.00253
7	0x422b4d4e	42.825493
8	0x42a234f9	81.10346
9	0x430b7a5d	139.47798
10	0x42e8f9fc	116.48825
11	0x42a44b0b	82.14657
12	0x431ae15b	154.8803
13	0x425e4d20	55.575317
14	0x4327c9dc	167.78851
15	0x434cf597	204.95934
16	0x42f07934	120.236725
17	0x426e7c4b	59.62138
18	0x42983396	76.10075
19	0x42fe5610	127.16809
20	0x431a45fa	154.27335
21	0x4307706d	135.43916
22	0x42f872b8	124.22406
23	0x430faeb0	143.68237
24	0x43091b05	137.10555
25	0x42bf5b70	95.67859
26	0x42bba389	93.819405
27	0x422ae331	42.721867
28	0x4284585b	66.17257
29	0x43735c3c	243.36029
30	0x42f2d01e	121.40648
31	0x431a313b	154.1923
32	0x431a85f0	154.5232
33	0x433f9962	191.59915
34	0x428a953e	69.29149
35	0x430487f7	132.53111
36	0x42335c16	44.839928
37	0x42a33ee0	81.6228
38	0x42c3d235	97.91056
39	0x4290380e	72.10948
40	0x4311ebab	145.92058
41	0x42efbee4	119.87283
42	0x423d5f11	47.34284
43	0x425b37eb	54.804607
44	0x42696d49	58.356724
45	0x42bc6bdc	94.21066
46	0x42d3af0d	105.841896
47	0x434f68e4	207.40973
48	0x432b83bf	171.51463
49	0x431eb3d1	158.70241
50	0x435cc456	220.76694
51	0x4244533c	49.081284
52	0x42ad1933	86.54922
53	0x426837c8	58.054474
54	0x42e943a6	116.632126
55	0x42d387e8	105.76544
56	0x42c17093	96.71987
57	0x430beb28	139.91858
58	0x423c1555	47.020832
59	0x43127cbd	146.48726
60	0x42b886f7	92.2636
61	0x42d5737d	106.72556
62	0x4227da02	41.9629
63	0x436eb802	238.71878
