model/SRNet_2021-07-18_23-22-19.pth (torch, 226039 bytes, 102 tensors)

encoder1.features.0.weight f4 [4, 3, 3, 3]
-0.3146114 -0.32623002 -0.060326308 -0.4275256 -0.3166869 -0.24631152 -0.21071365 -0.40607283
-0.14909944 -0.19993438 -0.10916429 -0.31311777 -0.28072557 -0.015228701 -0.31461048 -0.2930118
-0.20895752 -0.3801385 0.527773 0.2708525 0.4810441 0.4696041 0.27370518 0.32806015
0.19319746 0.46296838 0.10044662 -0.042418882 -0.22462215 -0.23908617 -0.11435203 0.2112234
-0.11671307 -0.010838889 -0.20186266 -0.23736364 0.04220922 0.59275305 0.41792607 0.06949038
1.2996434 1.0303754 0.040028714 0.41441572 0.09417827 -0.2515081 0.20708925 0.09288034
0.059240304 1.2976879 0.87321866 -0.40616414 0.17680655 0.096540056 0.20341814 0.14593737
0.08887435 0.18316673 0.2110495 0.22952278 0.04893857 0.15545392 0.31105635 -0.5073485
-0.078036025 -0.29806617 -0.3286146 -0.15610017 -0.4008466 -0.39607912 -0.15352689 -0.381076
0.27162293 0.3438335 0.20399803 0.29524264 0.4073142 0.037576117 0.27196887 -0.054140415
0.024775246 0.11808003 0.014421846 -0.08474007 -0.0030053481 0.004062784 -0.016817778 0.06129897
0.11202648 0.05592026 -0.13473614 -0.014402671 -0.1569039 -0.23829079 -0.19383475 0.009854367
-0.20789385 -0.2815941 -0.0848155 -0.0064910827 0.04386813 0.16687098 -0.14068246 -0.24726962
-0.2205087 0.12218769 -0.2601039 -0.14510137
00000000: bf14 a1be 9f07 a7be b818 77bd a3e4 dabe
00000010: c924 a2be 1639 7cbe 52c5 57be c7e8 cfbe
00000020: 86ad 18be 99bb 4cbe 8791 dfbd f950 a0be
00000030: 43bb 8fbe cd81 79bc a014 a1be a505 96be
00000040: f6f8 55be 83a1 c2be 221c 073f 2ead 8a3e
00000050: 6a4b f63e f36f f03e 1623 8c3e 80f7 a73e
00000060: 8ed5 453e 310a ed3e f5b6 cd3d 6cbf 2dbd
00000070: 5903 66be 01d3 74be 6631 eabd f24a 583e
00000080: 4307 efbd 9895 31bc 16b5 4ebe 740f 73be
00000090: 93e3 2c3d aabe 173f 68fa d53e f950 8e3d
000000a0: b75a a63f 57e3 833f 26f5 233d 4c2e d43e
000000b0: 89e0 c03d abc5 80be 340f 543e 0c38 be3d
000000c0: f6a5 723d a31a a63f 428b 5f3f bff4 cfbe
000000d0: c70c 353e cbb6 c53d d84c 503e 9b70 153e
000000e0: c103 b63d 0f90 3b3e 5c1d 583e 0508 6b3e
000000f0: cf73 483d 502f 1f3e c742 9f3e 97e1 01bf
00000100: 5ad1 9fbd 219c 98be 2c40 a8be b9d8 1fbe
00000110: c43b cdbe e2ca cabe 2736 1dbe 651c c3be
00000120: 2912 8b3e f20a b03e dce4 503e 0b2a 973e
00000130: 7d8b d03e 6ae9 193d 813f 8b3e 57c2 5dbd
00000140: 75f5 ca3c f1d3 f13d 9b49 6c3c 348c adbd
00000150: 60f5 44bb 1a21 853b 70c5 89bc a114 7b3d
00000160: 246e e53d a40c 653d 45f8 09be 2ef9 6bbc
00000170: 6aab 20be 8002 74be 9e7c 46be 3674 213c
00000180: 20e2 54be 1a2d 90be c0b3 adbd 26b3 d4bb
00000190: 11af 333d 3ae0 2a3e 100f 10be 3f34 7dbe
000001a0: 08cd 61be 8a3d fa3d 572c 85be 7495 14be

encoder1.features.0.bias f4 [4]
0.20208445 0.09525695 0.19298944 -0.014122378
00000000: 3aef 4e3e 1316 c33d 069f 453e 8c61 67bc

encoder1.features.1.weight f4 [4]
1.0269214 1.2910234 0.7597388 1.2128084
00000000: 2972 833f 4140 a53f 3e7e 423f 4e3d 9b3f

encoder1.features.1.bias f4 [4]
-0.62099576 0.58223087 -0.4683053 -0.056647677
00000000: 94f9 1ebf 150d 153f b6c5 efbe 6507 68bd

encoder1.features.1.running_mean f4 [4]
-0.9001527 2.3932369 0.49357152 -0.78522754
00000000: 6870 66bf cb2a 1940 68b5 fc3e ac04 49bf

encoder1.features.1.running_var f4 [4]
0.28653088 1.3056257 0.042914156 0.1433082
00000000: 2db4 923e be1e a73f c1c6 2f3d 63bf 123e

encoder2.features.0.weight f4 [8, 4, 3, 3]
0.037138116 0.039909802 -0.06790165 -0.14595737 0.06530058 0.06282336 -0.019042742 -0.21572609
0.05799391 0.31256995 0.0102107385 0.015750308 -0.2361352 -0.0071075326 0.0029605695 -0.20096089
-0.16725618 -0.04180592 -0.095521875 -0.34762383 -0.3167889 -0.4091164 -0.32488742 -0.26155016
-0.302119 -0.30304313 -0.32103452 0.009106597 0.20157486 0.19565916 0.4110185 0.32196766
0.30236265 0.3018473 0.090976976 -0.07903769 0.1674262 -0.22728409 -0.2943881 0.1078834
-0.42434672 -0.3705488 0.5767676 -0.24644597 -0.49235684 0.053556956 0.55184656 0.48800328
-0.120705284 0.3531848 0.47465125 -1.0552609 -0.28530052 0.23253335 -0.08862293 0.053396087
-0.009950903 -0.104730085 0.0600927 -0.075725116 -0.28621095 -0.14155278 0.059564278 0.28460452
-0.057438124 0.043544732 0.06672787 0.15772544 0.09347532 0.12603655 0.062219203 0.07836446
-0.1602171 -0.23427199 -0.22339241 -0.318601 -0.24586831 0.07440276 -0.18352427 -0.14411302
0.15830657 0.268905 0.25444502 -0.11796169 0.48875463 0.26882237 -0.3952367 0.35648537
0.16562843 0.15356672 0.07870155 0.15113169 0.08072377 -0.05507981 0.0859297 0.18760704
0.07237059 -0.06120324 -0.005517816 -0.18716589 -0.38482395 0.044152502 -0.15909833 -0.28025407
0.033191238 0.10551611 -0.13034676 0.2569562 0.2772431 0.12240876 0.16685192 0.08156584
0.17812818 0.315575 0.080401905 0.23132023 0.31600425 -0.11600574 -0.09394178 -0.08886106
-0.18902731 -0.2275512 -0.036751293 0.01853932 -0.25960883 -0.04879876 0.071127705 0.015969092
-0.05658216 -0.07570933 0.21365583 0.07998304 0.17961194 0.117284335 0.12849118 0.13076353
0.12608127 0.06522576 0.29701108 0.15379137 0.143393 0.0202826 0.10434979 0.11720292
0.0026730855 0.21427809 0.15259624 -0.27407226 -0.19234012 -0.10444995 -0.30912682 -0.29942337
-0.18656728 0.002128969 -0.00560884 -0.59607214 0.4005721 0.57129306 -0.01629167 0.657363
0.89176357 0.45734903 -0.46890038 -0.16904159 -0.016500268 -0.16773532 -0.20744856 -0.2701979
-0.3059889 -0.13088714 -0.23185904 0.16348128 0.3355562 0.7594619 0.12520881 -0.2821127
0.22715098 0.12211874 -0.5133347 0.03274867 -0.23189376 -0.40738612 -0.2995015 -0.2662735
-0.2869539 -0.34952563 -0.38003725 -0.17719568 -0.26902834 -0.2919269 -0.083228156 -0.34800255
0.17488304 -0.19380121 -0.26590508 0.02304915 -0.28049114 0.3321927 -0.04966107 -0.12266692
-0.13024932 0.28242752 0.022944912 -0.07574534 0.07633722 0.14336577 0.33655542 -0.385692
-0.42484328 -0.55905443 -0.50780696 -0.38741857 -0.7445758 -0.60373765 -0.60328436 -0.3756662
0.16568032 0.18666783 0.07840685 0.14210896 0.010172532 0.08249974 0.08263736 0.19965747
0.11085882 -0.07670626 -0.00047011112 0.015714645 -0.122240745 -0.04050189 -0.022306252 0.25400543
0.30915186 0.17578325 0.03630881 -0.09390919 -0.2078148 -0.17386991 0.05928249 0.050187994
0.09945419 -0.10426219 0.12166921 0.2823415 0.069045246 0.22222868 0.41960886 0.3914093
0.06398123 -0.056727823 0.1372022 0.15142775 0.37073368 0.2727433 0.0018233731 0.31798288
00000000: 231e 183d 7678 233d 0510 8bbd d975 15be
00000010: 4fbc 853d 89a9 803d 86ff 9bbc 4de7 5cbe
00000020: 068b 6d3d 2b09 a03e f14a 273c ca06 813c
00000030: 6dcd 71be 4ee6 e8bb 1d06 423b b1c8 4dbe
00000040: 3445 2bbe af3c 2bbd f9a0 c3bd c0fb b1be
00000050: 2832 a2be b477 d1be a557 a6be e7e9 85be
00000060: 57af 9abe 7828 9bbe a35e a4be d633 153c
00000070: a469 4e3e e05a 483e 0471 d23e f2d8 a43e
00000080: 47cf 9a3e bb8b 9a3e 2352 ba3d 83de a1bd
00000090: c671 2b3e 29bd 68be 09ba 96be f9f1 dc3d
000000a0: f943 d9be 93b8 bdbe 0ba7 133f 555c 7cbe
000000b0: 3216 fcbe 8a5e 5b3d d145 0d3f 91db f93e
000000c0: 5534 f7bd a3d4 b43e 7d05 f33e ca12 87bf
000000d0: e912 92be 391d 6e3e f07f b5bd dbb5 5a3d
000000e0: 1d09 23bc ba7c d6bd c323 763d c515 9bbd
000000f0: 3e8a 92be 36f3 10be acf9 733d afb7 913e
00000100: 3d44 6bbd f65b 323d 9fa8 883d c782 213e
00000110: fd6f bf3d ba0f 013e 90d9 7e3d 8c7d a03d
00000120: f40f 24be ffe4 6fbe fbc0 64be ac1f a3be
00000130: e7c4 7bbe 7960 983d c9ed 3bbe 5d92 13be
00000140: 1e1b 223e ebad 893e 9e46 823e e695 f1bd
00000150: 0c3e fa3e 16a3 893e 775c cabe 4085 b63e
00000160: 809a 293e 9840 1d3e 472e a13d 44c2 1a3e
00000170: 8152 a53d 5e9b 61bd e9fb af3d 0f1c 403e
00000180: 0837 943d 40b0 7abd ccce b4bb 6aa8 3fbe
00000190: a507 c5be 41d9 343d acea 22be 767d 8fbe
000001a0: 89f3 073d d518 d83d 9f79 05be c38f 833e
000001b0: cff2 8d3e 72b1 fa3d 3bdb 2a3e fe0b a73d
000001c0: 3c67 363e 0c93 a13e c1a9 a43d 36df 6c3e
000001d0: 4fcb a13e 6b94 edbd 8c64 c0bd cafc b5bd
000001e0: 6090 41be 2f03 69be 8688 16bd c6df 973c
000001f0: 73eb 84be 35e1 47bd 67ab 913d 9dd1 823c
00000200: b2c2 67bd 7e0d 9bbd 98c8 5a3e 26ce a33d
00000210: 31ec 373e c532 f03d 3193 033e e0e6 053e
00000220: 731b 013e 1595 853d d611 983e 7c7b 1d3e
00000230: 9dd5 123e b227 a63c 58b5 d53d 1608 f03d
00000240: ef2e 2f3b b76b 5b3e 3042 1c3e 3353 8cbe
00000250: cff4 44be dbe9 d5bd df45 9ebe 054e 99be
00000260: 7e0b 3fbe 2c86 0b3b 5cca b7bb 2f98 18bf
00000270: c917 cd3e 4340 123f 1c76 85bc f148 283f
00000280: 9e4a 643f a729 ea3e b613 f0be 3d19 2dbe
00000290: 922b 87bc cfc2 2bbe 656d 54be 6157 8abe
000002a0: 94aa 9cbe 4707 06be 756c 6dbe a367 273e
000002b0: 06ce ab3e 186c 423f bd36 003e 1371 90be
000002c0: 449a 683e 6419 fa3d e769 03bf 7823 063d
000002d0: 8f75 6dbe ea94 d0be 4358 99be 0055 88be
000002e0: 9feb 92be 06f5 b2be 3e94 c2be c972 35be
000002f0: 15be 89be 7177 95be 8673 aabd 642d b2be
00000300: 8a14 333e d373 46be b624 88be 92d1 bc3c
00000310: 899c 8fbe 2915 aa3e 6869 4bbd cb38 fbbd
00000320: 1460 05be 579a 903e f8f6 bb3c 5f20 9bbd
00000330: b056 9c3d 7ace 123e fe50 ac3e 6c79 c5be
00000340: 0f85 d9be 311e 0fbf a3ff 01bf ba5b c6be
00000350: 859c 3ebf 8d8e 1abf d870 1abf 5257 c0be
00000360: 1aa8 293e da25 3f3e c593 a03d 0385 113e
00000370: b1aa 263c a0f5 a83d c73d a93d 0273 4c3e
00000380: f309 e33d 2c18 9dbd 3f79 f6b9 00bc 803c
00000390: 5b59 fabd 4fe5 25bd 9abb b6bc 000d 823e
000003a0: 2749 9e3e 8600 343e 8cb8 143d 7653 c0bd
000003b0: 67cd 54be f40a 32be 32d2 723d ed91 4d3d
000003c0: a3ae cb3d 6a87 d5bd b52d f93d 118f 903e
000003d0: 9867 8d3d ea8f 633e f9d6 d63e cd66 c83e
000003e0: 9708 833d 6f5b 68bd bc7e 0c3e e00f 1b3e
000003f0: ced0 bd3e 03a5 8b3e 40fe ee3a a7ce a23e

encoder2.features.0.bias f4 [8]
-0.03257048 0.033543676 -0.1507832 0.09118821 -0.110165104 -0.1425469 0.017109144 -0.17065735
00000000: a068 05bd 1865 093d e966 1abe e2c0 ba3d
00000010: 3e9e e1bd d1f7 11be 7a28 8c3c cdc0 2ebe

encoder2.features.1.weight f4 [8]
1.1109097 0.6369971 0.9465312 1.0348732 0.7559203 0.9710293 0.97047514 0.8285952
00000000: 4a32 8e3f 3e12 233f de4f 723f ba76 843f
00000010: fe83 413f 6095 783f 0f71 783f d11e 543f

encoder2.features.1.bias f4 [8]
-0.042076237 -0.25833705 0.3582234 -0.7305053 0.25259897 0.18809089 -0.69162047 -0.13395636
00000000: 2258 2cbd c144 84be 0f69 b73e 6502 3bbf
00000010: a754 813e e69a 403e 0a0e 31bf db2b 09be

encoder2.features.1.running_mean f4 [8]
0.17853616 0.7957583 0.6614895 0.12731661 2.0624206 -3.7015343 1.4625475 -0.6555908
00000000: 2fd2 363e d1b6 4b3f 6057 293f 495f 023e
00000010: b3fe 0340 f0e5 6cc0 c234 bb3f ccd4 27bf

encoder2.features.1.running_var f4 [8]
2.7666621 0.797241 4.176919 3.699114 4.2914577 8.515702 1.121122 1.2413619
00000000: fe10 3140 fc17 4c3f 52a9 8540 49be 6c40
00000010: 9f53 8940 5140 0841 ed80 8f3f f2e4 9e3f

encoder3.features.0.weight f4 [16, 8, 3, 3]
-0.06006875 -0.0048317034 -0.0690405 -0.016611582 -0.09886012 -0.014701289 0.010019151 0.112627104
-0.074195206 -0.1689195 0.08319701 0.06610401 0.021065356 -0.03024408 -0.021970907 0.038560603
0.043670338 0.009429431 -0.17933291 -0.42281708 -0.3415178 -0.1562004 -0.089837305 -0.062303297
-0.13861954 -0.1520559 -0.08273301 0.22492152 0.24095362 0.11811187 0.3691209 0.1433024
0.243785 0.4363259 0.3005232 0.28972983 -0.13576223 -0.18418123 -0.0049922545 0.03039267
0.026996426 0.023605336 0.16150245 0.07764004 0.23076487 -0.6439681 -0.58206254 -0.63172954
-0.43341103 -0.60090315 -0.35651568 -0.28125072 -0.340897 -0.48568064 -0.11240883 -0.081087336
-0.060381304 -0.0025917455 0.14528356 0.02784306 0.046043646 0.12671384 0.043786384 0.08312993
0.017889077 -0.017810242 0.13951027 0.03112162 -0.11979807 0.07782922 0.12204496 -0.045546524
-0.34201458 -0.2520513 -0.17187817 -0.35094488 -0.38564548 -0.49833837 -0.07438637 -0.5061532
-0.41926277 0.80283743 0.5291771 0.5752178 -0.2536603 -0.2122825 -0.07077319 -0.24189237
-0.6261869 -0.6274216 1.2978462 0.5945228 0.33481634 0.27211705 -0.018634409 -0.3322596
-0.2614233 -0.6193877 -0.82549447 -0.18493223 -0.10502209 0.046696085 -0.0834682 -0.0339349
0.025758151 -0.049888834 -0.023799948 0.024841974 0.6691495 0.32706985 0.24886987 0.26163337
0.10260703 -0.16297989 -0.42475048 -0.43414995 -0.74066997 -0.15452364 -0.37127966 -0.37907335
-0.039517794 0.09382076 0.2731306 -0.27555278 0.08156327 0.17056641 -0.22941896 0.0006728957
0.043934856 -0.10257027 -0.010049487 -0.04339613 -0.14873591 -0.12826249 -0.113677934 -0.3273916
0.03241222 0.024872009 0.016003404 0.17567298 0.2668719 0.1457386 0.3615764 0.36451766
0.17748187 0.061492626 0.18646172 0.23796064 0.21260932 0.23203294 0.32329533 0.3363756
0.14394894 -0.3254203 -0.35494632 -0.41369167 -0.36156127 -0.23439193 -0.18490578 0.09647659
0.19616057 -0.15241048 -0.34448734 -0.451507 -0.33781007 -0.18527077 -0.10428029 0.07944233
0.2937063 0.5158179 0.50899607 0.20316182 0.13390796 0.31371227 0.3096716 0.11757914
0.22521101 0.4977063 0.4552812 0.39408982 -0.2851139 -0.33818936 -0.12934594 0.1285731
0.4515008 0.52335626 0.47487178 0.63567215 0.662481 0.727762 0.9108848 0.5517402
0.47294882 0.710651 0.634498 0.2605213 0.29827222 0.14248621 0.17107987 -0.008975043
0.04218453 0.00658576 0.011232895 -0.04805743 0.23378676 0.101786174 0.16782099 -0.17371257
-0.23730344 -0.11925959 -0.10649779 -0.050122134 -0.15774019 0.049490105 0.08155486 0.07245067
-0.13628596 -0.005380657 -0.11964129 0.1280497 0.24949794 0.17252558 -0.11732085 -0.13485847
-0.36965337 0.5250248 0.20144093 0.3036093 -0.08366642 -0.18255821 -0.33634865 -0.40226233
-0.55729985 -0.37378418 0.041616425 -0.056334846 0.18206166 -0.5616762 -0.6664271 -0.38985187
-0.36867416 -0.227119 0.17408006 -0.6960175 -0.45590428 -0.19194147 -0.10987048 -0.1727498
0.032304145 -0.47706547 -0.42018408 -0.17858015 0.13241959 -0.0683496 0.31482732 -0.6165023
00000000: a60a 76bd 4453 9ebb 1b65 8dbd 0315 88bc
00000010: 2d77 cabd addd 70bc 5d27 243c 0aa9 e63d
00000020: a8f3 97bd 3cf9 2cbe 3263 aa3d 8a61 873d
00000030: 4191 ac3c 6fc2 f7bc 55fc b3bc b9f1 1d3d
00000040: abdf 323d e67d 1a3c 0ca3 37be 7b7b d8be
00000050: 6cdb aebe fff2 1fbe 9ffc b7bd be31 7fbd
00000060: 48f2 0dbe 8bb4 1bbe ed6f a9bd d451 663e
00000070: 8cbc 763e a3e4 f13d 6afd bc3e ddbd 123e
00000080: c6a2 793e 1c66 df3e 2dde 993e 7857 943e
00000090: 4105 0bbe 019a 3cbe 1196 a3bb 0cfa f83c
000000a0: 9c27 dd3c fa5f c13c e660 253e be01 9f3d
000000b0: a04d 6c3e 18db 24bf 0d02 15bf 07b9 21bf
000000c0: 0de8 ddbe cad4 19bf 3989 b6be 1800 90be
000000d0: 0d8a aebe 22ab f8be 9a36 e6bd 1e11 a6bd
000000e0: 6352 77bd 46da 29bb 37c5 143e 2117 e43c
000000f0: 4398 3c3d 46c1 013e 5a59 333d 0640 aa3d
00000100: 1d8c 923c c9e6 91bc c8db 0e3e c5f2 fe3c
00000110: b158 f5bd ed64 9f3d b5f2 f93d fe8e 3abd
00000120: 891c afbe de0c 81be d500 30be 0caf b3be
00000130: 5373 c5be 3526 ffbe e257 98bd 4293 01bf
00000140: 9ca9 d6be c186 4d3f 2778 073f 7941 133f
00000150: c3df 81be 9560 59be 89f1 90bd a2b2 77be
00000160: c94d 20bf b49e 20bf d31f a63f a532 183f
00000170: 0c6d ab3e ed52 8b3e 30a7 98bc ee1d aabe
00000180: 46d9 85be 3190 1ebf 9b53 53bf e05e 3dbe
00000190: d215 d7bd 6544 3f3d 60f1 aabd 52ff 0abd
000001a0: c202 d33c 3c58 4cbd 1cf8 c2bc 6581 cb3c
000001b0: 624d 2b3f b375 a73e bed7 7e3e cff4 853e
000001c0: a223 d23d 33e4 26be e578 d9be e748 debe
000001d0: 8c9c 3dbf 723b 1ebe 5e18 bebe e715 c2be
000001e0: 69dd 21bd 1925 c03d c6d7 8b3e 4115 8dbe
000001f0: a50a a73d f6a8 2e3e ceec 6abe 4465 303a
00000200: 09f5 333d 5d10 d2bd 9ba6 24bc 24c0 31bd
00000210: 3a4e 18be 3e57 03be facf e8bd df9f a7be
00000220: adc2 043d 62c0 cb3c 9219 833c 9ee3 333e
00000230: 6fa3 883e 803c 153e 8b20 b93e 0fa2 ba3e
00000240: cfbd 353e b1df 7b3d d2ef 3e3e f4ab 733e
00000250: 42b6 593e 0b9a 6d3e f786 a53e 6c39 ac3e
00000260: 5a67 133e 7d9d a6be 86bb b5be 65cf d3be
00000270: 8f1e b9be 7004 70be f157 3dbe 8595 c53d
00000280: 51de 483e 7e11 1cbe a560 b0be ed2b e7be
00000290: 71f5 acbe 9fb7 3dbe e890 d5bd a9b2 a23d
000002a0: ac60 963e a40c 043f 914d 023f a709 503e
000002b0: 2b1f 093e e59e a03e 478d 9e3e 55cd f03d
000002c0: b79d 663e 5cd3 fe3e 9e1a e93e 24c6 c93e
000002d0: 73fa 91be 2827 adbe 4373 04be aba8 033e
000002e0: 1d2b e73e adfa 053f 6522 f33e 69bb 223f
000002f0: 5b98 293f 9c4e 3a3f bf2f 693f d93e 0d3f
00000300: 5926 f23e 39ed 353f 766e 223f 0c63 853e
00000310: 23b7 983e e8e7 113e 902f 2f3e 0f0c 13bc
00000320: b0c9 2c3d 5ccd d73b 2d0a 383c ded7 44bd
00000330: cc65 6f3e 4575 d03d 44d9 2b3e b5e1 31be
00000340: acff 72be 5f3e f4bd 831b dabd de4c 4dbd
00000350: a586 21be 23b6 4a3d 3c06 a73d 0461 943d
00000360: 8c8e 0bbe 3950 b0bb 7e06 f5bd 761f 033e
00000370: 637c 7f3e 8caa 303e ea45 f0bd 5718 0abe
00000380: 3543 bdbe 0668 063f 8846 4e3e ae72 9b3e
00000390: 4d59 abbd 8af0 3abe e435 acbe 54f5 cdbe
000003a0: 34ab 0ebf a460 bfbe fc75 2a3d 5ebf 66bd
000003b0: 5f6e 3a3e 03ca 0fbf f79a 2abf aa9a c7be
000003c0: dcc2 bcbe e291 68be 0b42 323e 342e 32bf
000003d0: 496c e9be 4e8c 44be c603 e1bd 53e5 30be
000003e0: 5a51 043d ed41 f4be 5e22 d7be b7dd 36be
000003f0: 0099 073e e0fa 8bbd 0c31 a13e 18d3 1dbf

encoder3.features.0.bias f4 [16]
-0.05709313 -0.06061311 -0.0087674875 0.08147977 -0.074747145 -0.005564173 -0.056983575 0.04113368
0.06872348 0.031942617 0.062631704 0.03067366 -0.11397387 0.045528736 -0.08844494 0.08303001
00000000: 7cda 69bd 7445 78bd 82a5 0fbc dede a63d
00000010: 0815 99bd ab53 b6bb 9c67 69bd ca7b 283d
00000020: e5be 8c3d 43d6 023d 0d45 803d 5447 fb3c
00000030: 226b e9bd 577c 3a3d 9f22 b5bd a30b aa3d

encoder3.features.1.weight f4 [16]
0.50167716 1.0115083 0.882845 0.8276952 0.8494169 0.6248212 0.740671 1.2184337
1.0187905 0.6009341 0.5141703 0.7277085 0.80630004 0.75915325 0.83192074 0.5207567
00000000: ea6d 003f 1b79 813f 2102 623f d5e3 533f
00000010: 6373 593f 48f4 1f3f 9d9c 3d3f a3f5 9b3f
00000020: ba67 823f d1d6 193f aaa0 033f 1b4b 3a3f
00000030: ae69 4e3f de57 423f c2f8 543f 5050 053f

encoder3.features.1.bias f4 [16]
-0.2864418 -0.25268143 -0.85030013 0.27891138 -0.16791248 0.2605851 -1.0841644 -0.009030609
0.28365004 -1.0212283 -0.50603545 -0.54587406 -0.44853476 -0.91061175 -1.0075117 -0.5253923
00000000: 80a8 92be 765f 81be 45ad 59bf 79cd 8e3e
00000010: 40f1 2bbe 696b 853e e6c5 8abf 1ff5 13bc
00000020: 943a 913e 9cb7 82bf 8a8b 01bf 67be 0bbf
00000030: 59a6 e5be da1d 69bf 25f6 80bf 1c80 06bf

encoder3.features.1.running_mean f4 [16]
-2.896316 -1.5089484 4.5873027 -4.8404994 -1.5882726 -3.13799 2.9513226 0.56763303
0.19163899 5.1985292 -0.91299564 -2.6685407 -3.8233132 3.0713472 4.9375067 1.1731272
00000000: 3e5d 39c0 3925 c1bf 2fcb 9240 5fe5 9ac0
00000010: 844c cbbf d4d4 48c0 78e2 3c40 6650 113f
00000020: 033d 443e 5a5a a640 15ba 69bf 5fc9 2ac0
00000030: 2ab1 74c0 f490 4440 0e00 9e40 0829 963f

encoder3.features.1.running_var f4 [16]
9.679042 6.0270777 4.1325874 11.092428 8.546625 13.818725 3.548766 5.6688857
23.035208 6.260537 9.484514 10.133966 10.032714 7.0805144 12.2302265 2.3889937
00000000: 5bdd 1a41 d2dd c040 283e 8440 967a 3141
00000010: fabe 0841 7f19 5d41 fb1e 6340 8367 b540
00000020: 1b48 b841 5256 c840 92c0 1741 ba24 2241
00000030: ff85 2041 9393 e240 02af 4341 46e5 1840

encoder4.features.0.weight f4 [32, 16, 3, 3]
0.1660032 0.2408627 0.30348086 0.3418175 0.118049495 0.25978908 0.6513962 0.14378941
0.23798253 -0.110352 -0.75892985 -1.0062536 0.55352706 -0.29798633 -0.40531865 0.76178265
0.21421899 0.1678883 -1.0624051 -0.5325081 0.27115983 -0.46938834 -0.2748231 0.15569474
-0.22874285 -0.12824106 0.32176796 -0.44317302 0.09971471 0.2891749 -0.19021451 -0.1504411
-0.19789647 0.24147797 0.31790927 -0.017223496 0.17917258 -0.3102983 -0.050439052 0.29859155
-0.3429111 0.038353305 1.1042541 0.269731 -0.119412385 0.6447342 0.17297347 0.266729
0.17785773 0.018507767 0.61178815 0.2550345 0.3279295 0.9173708 -0.22634828 0.19152986
0.6239928 -0.5510211 -0.04550007 0.44159245 -0.40714747 0.001947339 0.31105167 -0.003307929
-0.30408058 -0.5601016 0.06963237 0.09226544 -0.34372383 0.531725 0.84215355 -0.069276415
0.13568738 0.8106112 1.3361552 -0.89938533 -0.012128154 0.6535526 -1.563738 -0.39425525
0.35091326 -0.23508215 -0.10925549 0.4705463 -0.31390098 -0.08558123 0.277155 0.020299176
0.09694641 0.13066712 -0.40272495 -0.20662409 0.106604494 -0.23078868 -0.13688532 0.033593923
-0.4325268 -0.4372749 -0.116370045 0.02820905 -0.43984464 -0.76564664 0.5375704 -0.09957891
-0.492729 0.81426555 0.23769134 -0.36959484 -0.31918162 -0.24297312 0.5738414 -0.5598144
-0.72050065 -0.4127512 -0.028219003 -0.521859 -0.47483885 -0.0702683 0.3192956 0.87779224
-0.1633121 0.28911686 0.5857655 -0.08632269 0.089483485 0.5523169 -0.082347006 0.15813677
0.5601079 -0.3933014 -0.26684418 0.40440372 -0.13613838 -0.26943892 0.35820425 -0.4154702
0.06703074 0.4702219 -0.58785063 -0.34951803 -0.016707342 -0.37880644 -0.18840468 -0.001136186
-0.0036069225 0.033901807 -0.101410456 -0.11482981 -0.10422934 -0.040768236 0.025684586 -0.023928177
-0.1264274 0.37228847 0.24272946 0.3038264 -0.12920244 0.09599317 0.13093312 0.023518464
0.18606085 0.3054742 -0.029343706 -0.17867292 -0.3763225 -0.12676641 -0.2364749 -0.59165204
-0.39797938 -0.46399438 -0.7941808 0.18913929 -0.113154665 -0.22080173 -0.15885551 -0.5754143
-0.53359663 0.55075526 0.17990011 0.0027461974 0.0852626 -0.025285188 0.002422536 -0.24592908
-0.14447215 -0.045448955 -0.48463765 -0.2775851 -0.13260563 0.038785238 -0.075350136 -0.16281374
-0.23364785 -0.36329272 -0.46818584 -0.44133592 -0.3922836 -0.39761662 -0.37441626 -0.546558
-0.389522 -0.47184214 -0.2797308 -0.31390977 -0.2657523 -0.33546424 -0.40701476 -0.12206844
0.0012334147 0.68407714 -0.77592134 -0.7790797 -0.23034856 -0.47369155 -0.6290349 -0.13155669
-0.18884465 -0.37773314 -0.3770683 -0.2350102 -0.37041783 -0.27848768 -0.10951872 0.092403464
0.115178876 -0.3150473 -0.31361425 -0.32097694 -0.19704698 -0.1937111 -0.17583032 0.01082657
-0.1715334 -0.15501107 -0.1281605 -0.26871666 -0.18243718 -0.22025786 -0.18394485 -0.23085569
0.027860945 0.030716801 -0.14487863 0.19875345 0.38419703 0.45526162 -0.038494866 -0.03642125
0.06549309 -0.29898995 -0.26706338 -0.2797301 0.17308879 0.14714423 0.060324136 -0.48458228
00000000: befc 293e b6a4 763e d861 9b3e b402 af3e
00000010: efc3 f13d 1303 853e e7c1 263f 883d 133e
00000020: b1b1 733e 3b00 e2bd 3a49 42bf ebcc 80bf
00000030: f3b3 0d3f aa91 98be ed85 cfbe 3004 433f
00000040: 395c 5b3e e9ea 2b3e e4fc 87bf 7352 08bf
00000050: 76d5 8a3e ab53 f0be 9db5 8cbe 716e 1f3e
00000060: 913b 6abe a051 03be c5be a43e 93e7 e2be
00000070: 3a37 cc3d bc0e 943e 98c7 42be 3b0d 1abe
00000080: 5fa5 4abe 0046 773e 01c5 a23e 4a18 8dbc
00000090: 0479 373e 6bdf 9ebe 2e99 4ebd fee0 983e
000000a0: 0b92 afbe 5b18 1d3d 3358 8d3f 2e1a 8a3e
000000b0: 7b8e f4bd 4d0d 253f f51f 313e b490 883e
000000c0: 5620 363e 9a9d 973c 269e 1c3f e293 823e
000000d0: 60e6 a73e d0d8 6a3f d8c7 67be 6720 443e
000000e0: febd 1f3f b80f 0dbf 485e 3abd 6818 e23e
000000f0: a275 d0be db3d ff3a 2a42 9f3e d7c9 58bb
00000100: 73b0 9bbe d262 0fbf 6a9b 8e3d aaf5 bc3d
00000110: 92fc afbe 211f 083f 6097 573f cbe0 8dbd
00000120: a2f1 0a3e 3784 4f3f 2207 ab3f 1e3e 66bf
00000130: 2ab5 46bc 394f 273f 9128 c8bf d3db c9be
00000140: e7aa b33e 60b9 70be 58c1 dfbd 72eb f03e
00000150: a1b7 a0be 3645 afbd 43e7 8d3e 754a a63c
00000160: d78b c63d 9acd 053e f731 cebe 4495 53be
00000170: 7553 da3d de53 6cbe aa2b 0cbe c899 093d
00000180: 2774 ddbe 7fe2 dfbe 6b53 eebd aa16 e73c
00000190: 5133 e1be 6b01 44bf 379e 093f 07f0 cbbd
000001a0: fa46 fcbe b573 503f 5c65 733e 893b bdbe
000001b0: c66b a3be f2cd 78be 45e7 123f ff4f 0fbf
000001c0: bb72 38bf 2054 d3be 8a2b e7bc 8d98 05bf
000001d0: 141e f3be d4e8 8fbd b67a a33e feb6 603f
000001e0: 4a3b 27be 2007 943e baf4 153f f3c9 b0bd
000001f0: 1e43 b73d a464 0d3f 8ca5 a8bd 9bee 213e
00000200: 3b63 0f3f cd5e c9be cd9f 88be 010e cf3e
00000210: dc67 0bbe e6f3 89be 8c66 b73e 83b8 d4be
00000220: 6a47 893d edc0 f03e 617d 16bf 07f4 b2be
00000230: d6dd 88bc ebf2 c1be 28ed 40be 13ec 94ba
00000240: 1e62 6cbb 9fdc 0a3d 49b0 cfbd e42b ebbd
00000250: 3176 d5bd 98fc 26bd 7b68 d23c 0605 c4bc
00000260: 2f76 01be 989c be3e 128e 783e 228f 9b3e
00000270: a54d 04be 1198 c43d 5513 063e cba9 c03c
00000280: bc86 3e3e 1d67 9c3e 3662 f0bc 09f6 36be
00000290: 58ad c0be 0ecf 01be 7a26 72be 8276 17bf
000002a0: f4c3 cbbe ac90 edbe 6f4f 4bbf bbad 413e
000002b0: a2bd e7bd d919 62be 05ab 22be 5a4e 13bf
000002c0: ca99 08bf 4cfe 0c3f bc37 383e 8cf9 333b
000002d0: 289e ae3d e222 cfbc 69c3 1e3b d5d4 7bbe
000002e0: 82f0 13be af28 3abd 6d22 f8be a21f 8ebe
000002f0: c5c9 07be 45dd 1e3d 2c51 9abd a5b8 26be
00000300: 6241 6fbe 8101 babe 0eb6 efbe c8f6 e1be
00000310: 65d9 c8be 6894 cbbe 7db3 bfbe 3aeb 0bbf
00000320: 6d6f c7be 4b95 f1be e038 8fbe c8b8 a0be
00000330: af10 88be f8c1 abbe 3d64 d0be 05ff f9bd
00000340: 88aa a13a ae1f 2f3f c8a2 46bf c471 47bf
00000350: 7ee0 6bbe b387 f2be 6e08 21bf ccb6 06be
00000360: 7e60 41be 3d66 c1be 190f c1be 84a6 70be
00000370: 68a7 bdbe f095 8ebe 5a4b e0bd 073e bd3d
00000380: e7e2 eb3d e14d a1be 0c92 a0be 1757 a4be
00000390: afc6 49be 345c 46be dd0c 34be ed61 313c
000003a0: 74a6 2fbe 39bb 1ebe 823c 03be 3b95 89be
000003b0: d0d0 3abe 478b 61be 0a5c 3cbe 6f65 6cbe
000003c0: a33c e43c cda1 fb3c 105b 14be 0686 4b3e
000003d0: 79b5 c43e 0d18 e93e cbac 1dbd 732e 15bd
000003e0: 3e21 863d 3615 99be 88bc 88be c938 8fbe
000003f0: 303e 313e faac 163e 7116 773d 2b1b f8be

encoder4.features.0.bias f4 [32]
0.043033373 -0.029153654 -0.014951209 -0.04051106 -0.02496091 0.051743962 -0.027996492 -0.06536361
-0.055540517 0.0084999 -0.008453519 -0.01728888 -0.0017637761 -0.08245716 -0.0100932 0.027643954
0.031084456 0.02493983 -0.0060791173 -0.054713 -0.0637382 -0.0669897 0.076650634 0.0747479
-0.02348558 -0.05129567 -0.0082018 0.081550546 0.018997677 0.06972685 -0.0068829763 -0.058690112
00000000: c343 303d a5d3 eebc eaf5 74bc edee 25bd
00000010: d37a ccbc 7af1 533d e658 e5bc 5bdd 85bd
00000020: 747e 63bd 2a43 0b3c a180 0abc 69a1 8dbc
00000030: 812e e7ba 4ddf a8bd f35d 25bc 9375 e23c
00000040: d4a4 fe3c 9d4e cc3c 5533 c7bb bd1a 60bd
00000050: 2c89 82bd e531 89bd 02fb 9c3d 6d15 993d
00000060: d564 c0bc 691b 52bd d860 06bc f903 a73d
00000070: 04a1 9b3c f3cc 8e3d 978a e1bb 0b65 70bd

encoder4.features.1.weight f4 [32]
1.011194 0.36613598 0.9882376 0.4538056 0.821532 0.814433 0.5525907 0.72246504
1.197668 0.79578865 0.91930604 0.63421375 1.2871097 0.8933276 0.50416404 1.0139928
0.70001704 1.200682 0.6580607 0.83380365 0.6604472 1.2872192 0.6246278 0.44600418
1.2032765 0.26481986 1.0336902 0.6602047 0.32090145 0.6615616 0.46582088 1.1174599
00000000: ce6e 813f 2d76 bb3e 24fd 7c3f 3559 e83e
00000010: ec4f 523f ae7e 503f 9676 0d3f 78f3 383f
00000020: 2f4d 993f ceb8 4b3f a457 6b3f d55b 223f
00000030: 03c0 a43f 1eb1 643f e510 013f 84ca 813f
00000040: 5134 333f f3af 993f ab76 283f 2874 553f
00000050: 1113 293f 99c3 a43f 9ce7 1f3f a95a e43e
00000060: f704 9a3f 7896 873e f64f 843f 2d03 293f
00000070: 324d a43e 1a5c 293f 1380 ee3e ed08 8f3f

encoder4.features.1.bias f4 [32]
0.013279006 0.4165337 0.06052206 0.27524498 -0.571857 0.33998263 -0.5007336 -1.4235749
0.066015966 -0.08322892 0.47655067 -0.98136896 -0.16680798 -0.46865022 0.085217424 0.25140005
0.15564087 0.058555502 -0.20741574 -0.8200769 0.58950126 -0.3885502 -0.74296135 -0.8616005
-0.035953972 0.057373356 -0.79473037 -0.8430085 0.12692519 -0.44958815 0.005961127 -0.2540481
00000000: 3090 593c e843 d53e fbe5 773d e9ec 8c3e
00000010: 3865 12bf 3412 ae3e 1430 00bf b437 b6bf
00000020: 6133 873d ed73 aabd 73fe f33e ff3a 7bbf
00000030: b6cf 2abe ecf2 efbe 7986 ae3d 82b7 803e
00000040: 5260 1f3e e5d7 6f3d cb64 54be 8ff0 51bf
00000050: 8ee9 163f 0df0 c6be b732 3ebf da91 5cbf
00000060: 7944 13bd 5300 6b3d 7373 4bbf 68cf 57bf
00000070: adf8 013e 6b30 e6be 8f55 c33b 9812 82be

encoder4.features.1.running_mean f4 [32]
1.764825 -5.745745 -5.037448 -2.328997 7.1009836 -4.069205 0.5634868 2.2256553
-6.548026 8.269815 5.8097916 -1.5656078 2.4766207 -1.6424555 -0.32319555 -0.42403054
-1.2891395 -3.1556227 -6.762049 6.524272 -3.3801641 -2.7496111 1.927255 -0.9450778
-8.570617 -3.7402976 0.8320133 2.065435 -0.4797657 -3.0501153 -1.3885378 1.2649674
00000000: c9e5 e13f 25dd b7c0 c632 a1c0 490e 15c0
00000010: 423b e340 ed36 82c0 ac40 103f 2371 0e40
00000020: 6e89 d1c0 2a51 0441 d0e9 b940 d665 c8bf
00000030: f480 1e40 fb3b d2bf e379 a5be 881a d9be
00000040: 8602 a5bf b9f5 49c0 b562 d8c0 d6c6 d040
00000050: 9c54 58c0 a1f9 2fc0 4bb0 f63f 9ef0 71bf
00000060: 3f21 09c1 0961 6fc0 d3fe 543f 1630 0440
00000070: daa3 f5be 1735 43c0 9bbb b1bf 74ea a13f

encoder4.features.1.running_var f4 [32]
5.5963206 10.862642 16.442541 3.6697123 54.90659 13.633584 7.420747 9.6669
42.52867 31.448818 30.017864 13.662152 16.839663 8.147233 16.675343 23.561262
15.884618 31.412811 8.63266 19.817118 34.781754 15.00934 12.856868 6.5977826
30.643625 9.301229 9.8850765 14.549016 14.846128 14.687122 7.9342136 8.433725
00000000: 0f15 b340 62cd 2d41 538a 8341 91dc 6a40
00000010: 59a0 5b42 2923 5a41 c276 ed40 9fab 1a41
00000020: 5c1d 2a42 2e97 fb41 9624 f041 2d98 5a41
00000030: a1b7 8641 115b 0241 1a67 8541 777d bc41
00000040: 6527 7e41 704d fb41 601f 0a41 7589 9e41
00000050: 8420 0b42 4226 7041 bbb5 4d41 0921 d340
00000060: 2526 f541 d5d1 1441 4629 1e41 c5c8 6841
00000070: be89 6d41 74fe 6a41 14e5 fd40 8af0 0641

encoder5.features.0.weight f4 [64, 32, 3, 3]
-0.19137385 -0.4442089 -0.9134031 0.25007847 -0.0068847444 -0.48338786 -0.09967878 -0.20882335
-0.6128054 -0.04947442 -0.25886816 -0.038197517 0.31348148 0.22125772 0.18744604 -0.29940245
-0.53396356 -0.4450598 0.6836063 0.47958133 0.054729603 0.32092312 0.16601901 -0.035277948
-0.3730281 -0.39262262 -0.90445864 -0.16280046 -0.31003073 -0.46328023 0.26518503 0.10733682
-0.06134564 -0.09336996 -0.20777854 -0.22072792 -0.1796586 -0.66003424 -0.5844593 -0.29532748
-0.664221 -0.6039696 -0.17552413 -0.51818603 -0.35930586 -0.12173669 0.030958649 0.1586519
0.17787214 0.29485047 0.3308326 -0.31733698 0.17913134 -0.14535691 0.028267395 0.09897291
0.1923824 -0.047984984 0.04439082 0.06909106 0.038807154 -0.020622285 -0.013750308 -0.10467888
-0.072132505 -0.023058545 -0.07220221 -0.08930522 -0.028505465 -0.012498132 -0.04938006 0.018206028
-0.39125922 -0.24151158 0.11067436 -0.27914736 -0.3621229 -0.031346384 -0.12572753 -0.43726093
-0.12932722 -0.28989503 -0.6528952 -0.64551085 -0.439434 -0.67511964 -0.61224616 -0.41866356
-0.7132729 -0.72756463 -0.21006368 -0.24489306 -0.04954494 -0.38020694 -0.3067437 -0.34766027
-0.49812153 -0.22199184 -0.27830717 -0.064353764 0.0062584127 0.008149917 -0.18776995 -0.11528308
0.016198687 -0.16647622 -0.124162756 0.11607695 -0.004183054 -0.5505931 0.34748182 -0.86846864
-0.7654344 -0.6976167 -0.36163658 -0.6449255 -0.043632668 0.045309976 -0.28022534 -0.24056898
-0.019127222 -0.24841806 0.010972251 -0.39024815 -0.5901099 -0.46253076 -0.03560541 0.20443068
-0.33635166 0.15747608 0.33209375 -0.012888152 -0.4741242 -0.06810908 -0.956612 -0.49094
-0.78383625 -0.16045137 0.027291562 -0.17239761 0.23605512 -0.19156459 -0.5686999 0.13433242
-0.18604107 0.15297349 -0.635988 -0.13992047 0.07266742 -0.5374213 -0.9054621 -0.4280809
-1.4174907 0.116312645 0.34381068 0.70542485 0.28500456 0.12166615 -0.1098058 -0.35306373
-0.4626866 -0.7980071 0.055400684 0.114661075 -0.09860325 0.38001174 0.3727116 0.15164624
-0.02191382 -0.023739912 -0.4011265 -0.25971115 -0.333229 -0.31807888 -0.20582297 -0.33125666
-0.24449529 -0.03173804 -0.12745088 -0.03965469 -0.023352526 -0.12954898 0.47187448 -0.3591148
-0.39178684 -0.004383215 0.03922156 -0.26314044 0.20075458 -0.93926376 -0.65687525 -0.60434276
0.32320383 0.32324862 0.531041 0.03567219 0.53215986 0.5377459 0.008686377 -0.03876063
-0.055331416 -0.026776332 -0.0029975977 -0.09503134 0.024176566 0.055652317 0.022427443 0.024690317
0.08825794 -0.01794958 -0.12293902 0.021022532 -0.008017443 -0.022126948 -0.07206007 -0.06096712
-0.4774655 -0.84126914 -0.29185095 -0.33999008 -0.17690137 0.04203435 -0.18021305 0.08563576
0.42554694 -0.4086669 -0.57667553 0.28680864 -0.5515663 -0.20764962 -0.08380308 0.0050264252
-0.33349386 0.03310051 -0.019376574 -0.2173182 -0.22490233 -0.18719411 -0.3424157 -0.4027168
-0.13414621 -0.29218304 -0.24724533 -0.06884796 -0.16304998 -0.1675065 -0.2159719 -0.15539403
-0.16857788 -0.12506363 -0.18179339 -0.097096905 -0.28585678 -0.4462534 -0.3386755 0.28808868
00000000: 82f7 43be 596f e3be c9d4 69bf 490a 803e
00000010: 6c99 e1bb 9d7e f7be 6324 ccbd cad5 55be
00000020: d1e0 1cbf b0a5 4abd 5e8a 84be 0075 1cbd
00000030: a580 a03e 6291 623e dbf1 3f3e 474b 99be
00000040: d6b1 08bf e1de e3be d300 2f3f af8b f53e
00000050: 262c 603d 0950 a43e e300 2a3e 9c7f 10bd
00000060: 8afd bebe d505 c9be 9a8a 67bf 2ab5 26be
00000070: 59bc 9ebe 1133 edbe 55c6 873e 68d3 db3d
00000080: 9145 7bbd c038 bfbd e6c3 54be 8006 62be
00000090: 6df8 37be 01f8 28bf 209f 15bf 2a35 97be
000000a0: 630a 2abf c09d 1abf 99bc 33be d7a7 04bf
000000b0: f0f6 b7be 1651 f9bd fe9c fd3c a575 223e
000000c0: 1d24 363e a4f6 963e e462 a93e fe79 a2be
000000d0: 356e 373e 71d8 14be 0691 e73c 4fb2 ca3d
000000e0: e4ff 443e e78b 44bd 26d3 353d 9d7f 8d3d
000000f0: 40f4 1e3d 11f0 a8bc f948 61bc e161 d6bd
00000100: 35ba 93bd 46e5 bcbc c1de 93bd a8e5 b6bd
00000110: 4b84 e9bc f7c4 4cbc bf42 4abd cf24 953c
00000120: 2153 c8be d04e 77be 3da9 e23d 67ec 8ebe
00000130: 2c68 b9be 1165 00bd b8be 00be aae0 dfbe
00000140: 5b6e 04be 1f6d 94be 2424 27bf 3340 25bf
00000150: 7efd e0be a4d4 2cbf 2abc 1cbf 125b d6be
00000160: 0e99 36bf ad41 3abf ef1a 57be 3fc5 7abe
00000170: a3ef 4abd 7caa c2be 830d 9dbe 8700 b2be
00000180: c909 ffbe d451 63be 477e 8ebe e8cb 83bd
00000190: 5f13 cd3b 3b87 053c c446 40be 8919 ecbd
000001a0: 1cb3 843c be78 2abe 0b49 febd c1b9 ed3d
000001b0: 0012 89bb abf3 0cbf 23e9 b13e f653 5ebf
000001c0: 82f3 43bf 0297 32bf 6e28 b9be d619 25bf
000001d0: 2bb8 32bd f496 393d b279 8fbe b757 76be
000001e0: b1b0 9cbc 4e61 7ebe f5c4 333c 9bce c7be
000001f0: 7111 17bf d5d0 ecbe fad6 11bd 4756 513e
00000200: 4936 acbe 6941 213e 3108 aa3e d428 53bc
00000210: 68c0 f2be c67c 8bbd 86e4 74bf 7d5c fbbe
00000220: 7ea9 48bf 5d4d 24be 8e92 df3c 0089 30be
00000230: 6fb8 713e 8229 44be 5196 11bf 708e 093e
00000240: 8d81 3ebe 15a5 1c3e 1cd0 22bf 5047 0fbe
00000250: a8d2 943d 7194 09bf 5dcc 67bf 6b2d dbbe
00000260: 5670 b5bf 5335 ee3d f407 b03e b996 343f
00000270: 1eec 913e 1a2c f93d dde1 e0bd c5c4 b4be
00000280: 42e5 ecbe 314a 4cbf d4eb 623d 6dd3 ea3d
00000290: 80f0 c9bd e690 c23e 0ed4 be3e 2749 1b3e
000002a0: 9d84 b3bc 347a c2bc 7460 cdbe dcf8 84be
000002b0: fe9c aabe 3cdb a2be 42c3 52be 799a a9be
000002c0: f95c 7abe bfff 01bd 7c82 02be f56c 22bd
000002d0: cc4d bfbc 7da8 04be 8899 f13e e5dd b7be
000002e0: 4998 c8be 13a1 8fbb c9a6 203d 58ba 86be
000002f0: 9c92 4d3e 9773 70bf fa28 28bf 35b6 1abf
00000300: f97a a53e d880 a53e 4ef2 073f 011d 123d
00000310: a13b 083f b7a9 093f 4e51 0e3c 77c3 1ebd
00000320: 32a3 62bd 0a5a dbbc 5873 44bb cb9f c2bd
00000330: ef0d c63c aff3 633d c2b9 b73c 5943 ca3c
00000340: 94c0 b43d ff0a 93bc 74c7 fbbd 7237 ac3c
00000350: 985b 03bc 9343 b5bc 3b94 93bd a9b8 79bd
00000360: 5c76 f4be 6a5d 57bf 7d6d 95be 2e13 aebe
00000370: a225 35be 362c 2c3d c589 38be cd61 af3d
00000380: 4ae1 d93e ca3c d1be 02a1 13bf 95d8 923e
00000390: 7333 0dbf 1aa2 54be f3a0 abbd b6b4 a43b
000003a0: b5bf aabe 6694 073d 9fbb 9ebc aa88 5ebe
000003b0: cc4c 66be d0af 3fbe 1c51 afbe e530 cebe
000003c0: a05d 09be 0499 95be e12d 7dbe 2900 8dbd
000003d0: 93f6 26be d386 2bbe bd27 5dbe 9d1f 1fbe
000003e0: ae9f 2cbe ae10 00be 0c28 3abe beda c6bd
000003f0: d25b 92be 537b e4be e066 adbe 5c80 933e

encoder5.features.0.bias f4 [64]
0.004670293 -0.028177539 0.022805642 -0.026284665 -0.006739306 -0.05582652 -0.0028794764 0.032750603
0.025883248 0.023715284 0.027654681 -0.05253196 -0.010048075 -0.029324112 -0.017657248 0.030590123
-0.037492644 0.024698252 0.03128171 0.027507853 -0.007842525 -0.05865798 -0.03199884 0.04434719
-0.04149285 0.026160594 -0.022711914 -0.05216386 0.001592484 -0.016725983 -0.02688965 0.054473426
0.04512161 0.022880359 -0.004932516 -0.0050454554 -0.009722022 -0.046171904 -0.040309384 0.025117777
0.05806167 -0.0557164 -0.04359291 0.009382922 -0.05004607 -0.047545534 0.04955115 0.0449508
-0.042929176 0.05462934 0.010302308 -0.003440116 0.04202336 0.029429197 0.0040709735 -0.050223336
-0.0014680115 -0.023112768 -0.054914422 -0.016001912 -0.033891074 -0.028863668 0.05848968 0.024846522
00000000: 4209 993b 95d4 e6bc e6d2 ba3c f052 d7bc
00000010: 65d5 dcbb 59aa 64bd 99b5 3cbb 7f25 063d
00000020: 1b09 d43c 8e46 c23c 128c e23c c12b 57bd
00000030: aea0 24bc 1f39 f0bc efa5 90bc 2398 fa3c
00000040: e391 19bd fd53 ca3c 4021 003d 2658 e13c
00000050: ef7d 00bc 5a43 70bd 3711 03bd 66a5 353d
00000060: 68f4 29bd be4e d63c 560e babc c6a9 55bd
00000070: e5ba d03a ee04 89bc af47 dcbc 871f 5f3d
00000080: 70d1 383d 976f bb3c f1a0 a1bb 5954 a5bb
00000090: 1e49 1fbc c01e 3dbd 741b 25bd ccc3 cd3c
000000a0: 13d2 6d3d e136 64bd 7b8e 32bd d4ba 193c
000000b0: 1cfd 4cbd 1bbf 42bd 26f6 4a3d 541e 383d
000000c0: 81d6 2fbd 04c3 5f3d 03cb 283c 9273 61bb
000000d0: b020 2c3d 8015 f13c cd65 853b fcb6 4dbd
000000e0: 4b6a c0ba fd56 bdbc f2ed 60bd 7116 83bc
000000f0: 5ed1 0abd 8073 ecbc e092 6f3d ef8a cb3c

encoder5.features.1.weight f4 [64]
0.80037886 1.2762759 0.50075203 1.4105179 1.2108145 0.83289695 0.5319757 0.8123009
1.1430379 0.9251902 0.90438724 0.55378246 0.94939834 0.6379754 0.83699846 1.0322335
0.88729143 0.33579648 1.1421173 0.78235334 0.7373497 0.9942256 0.45036504 0.37759477
0.96240073 0.7526582 1.0712696 0.42328012 1.0017043 0.76044714 0.9069746 1.3117825
0.8309869 1.0019089 0.61044425 0.9610535 1.3366023 0.4210203 1.1460971 1.0931611
0.93857 0.95020145 0.62758756 0.7079049 0.65978676 1.0499822 1.4214294 0.7404264
0.78878015 1.0698789 1.2453884 1.1527059 0.93597054 1.1372263 0.88218516 1.4066406
0.8973892 0.8932234 0.5555246 1.0713966 1.0634234 0.68060064 0.6875509 1.1248307
00000000: a1e5 4c3f 025d a33f 4931 003f da8b b43f
00000010: f8fb 9a3f bc38 553f 8f2f 083f f4f2 4f3f
00000020: 114f 923f 44d9 6c3f ec85 673f b0c4 0d3f
00000030: c50b 733f 5b52 233f 8845 563f 3a20 843f
00000040: 8825 633f 84ed ab3e e630 923f 4f48 483f
00000050: f3c2 3c3f 9285 7e3f 3f96 e63e 1a54 c13e
00000060: e55f 763f 35ae 403f 5d1f 893f 2cb8 d83e
00000070: d937 803f aaac 423f 7d2f 683f 7de8 a73f
00000080: 8fbb 543f 8d3e 803f 1346 1c3f 9a07 763f
00000090: c915 ab3f f98f d73e 4fb3 923f b4ec 8b3f
000000a0: 2046 703f 6740 733f 94a9 203f 4139 353f
000000b0: c9e7 283f d165 863f 66f1 b53f 968c 3d3f
000000c0: 7fed 493f cbf1 883f e368 9f3f de8b 933f
000000d0: c49b 6f3f a290 913f e3d6 613f cd0c b43f
000000e0: 4cbb 653f 4aaa 643f dc36 0e3f 8623 893f
000000f0: 421e 883f d83b 2e3f 5603 303f 74fa 8f3f

encoder5.features.1.bias f4 [64]
-0.6271236 -1.0689923 -0.18364261 0.83816886 -0.5773066 1.1003915 -0.8491893 -0.1818845
-0.5756954 -0.8678706 -0.2772871 -0.7767249 0.5097228 -0.64412665 0.6799444 0.1498798
-0.105295636 -0.6196733 -0.28795856 -1.2587696 -0.060260713 -0.6228071 -0.82509226 -0.70263153
-0.8220679 -0.82695395 -0.39723638 -0.8068236 0.0873506 -1.1472807 -0.7287955 -0.32401302
-0.43477845 0.112886705 0.14460303 0.8504219 -0.12389222 -0.75726473 0.6231391 0.7683954
0.34182927 0.65281653 -0.9051901 -0.5525958 -0.7847533 0.4491597 0.95985174 -1.4420233
1.1360837 0.58334935 -0.25458238 0.829805 -1.1523468 0.4773195 -0.59048194 0.11487674
-0.20661321 -0.0145295 -0.8972865 -0.26655993 -0.14397351 -0.6842578 0.42317104 -0.09624955
00000000: 2c8b 20bf bdd4 88bf cf0c 3cbe 3c92 563f
00000010: 5eca 13bf a1d9 8c3f 7864 59bf ee3f 3abe
00000020: c660 13bf c52c 5ebf 93f8 8dbe 71d7 46bf
00000030: 327d 023f 7ce5 24bf d610 2e3f 177a 193e
00000040: 3da5 d7bd e9a2 1ebf 4e6f 93be 5d1f a1bf
00000050: f0d3 76bd 4970 1fbf 3f39 53bf a9df 33bf
00000060: 0b73 52bf 41b3 53bf 9162 cbbe fe8b 4ebf
00000070: dfe4 b23d 18da 92bf 5892 3abf 09e5 a5be
00000080: 489b debe 2531 e73d d112 143e 40b5 593f
00000090: 34bb fdbd 1adc 41bf 0b86 1f3f 90b5 443f
000000a0: 3f04 af3e fc1e 273f 8aba 67bf eb76 0dbf
000000b0: 98e5 48bf 43f8 e53e d8b8 753f 3894 b8bf
000000c0: 316b 913f 6256 153f 9f58 82be 1a6e 543f
000000d0: 1a80 93bf 3963 f43e d329 17bf 7f44 eb3d
000000e0: 6a92 53be 240d 6ebc 91b4 65bf 8b7a 88be
000000f0: cb6d 13be 852b 2fbf e0a9 d83e 7c1e c5bd

encoder5.features.1.running_mean f4 [64]
-16.681194 -6.556558 2.51692 -4.43809 -15.168271 10.084524 -7.4514294 -8.4883795
-5.946047 -2.4344993 -3.0587325 -10.641728 0.09854698 -9.957953 -2.3639386 -11.25041
-8.230604 0.9402832 -6.540678 -3.821079 -2.4161742 -6.4806905 -0.15152547 -9.088508
4.483754 -6.8926888 -12.411686 -4.5796976 -7.0196943 -1.3413229 -3.0375814 -10.135431
-14.358748 3.4343154 4.8119936 9.756902 -13.378069 -5.636057 -5.8670483 1.221581
3.7704616 2.7195115 -9.467591 -0.39504996 -8.821685 -5.2399096 -1.3928211 0.22601728
6.712427 -6.3977947 -6.1163974 -2.7878246 -1.8243573 -5.0364113 -18.330694 -0.855542
-13.533789 -10.352894 -11.9655905 -6.759642 -10.363586 1.0272248 5.254128 -14.015894
00000000: 1673 85c1 53cf d1c0 3815 2140 d504 8ec0
00000010: 3db1 72c1 365a 2141 1c72 eec0 67d0 07c1
00000020: 0446 bec0 d6ce 1bc0 46c2 43c0 8544 2ac1
00000030: 00d3 c93d c753 1fc1 c54a 17c0 ae01 34c1
00000040: 8eb0 03c1 66b6 703f 3c4d d1c0 8f8c 74c0
00000050: 99a2 1ac0 d161 cfc0 7e29 1bbe 876a 11c1
00000060: ea7a 8f40 e890 dcc0 4496 46c1 e28c 92c0
00000070: 56a1 e0c0 78b0 abbf bc67 42c0 ba2a 22c1
00000080: 6fbd 65c1 d3cb 5b40 dafb 9940 451c 1c41
00000090: 920c 56c1 945a b4c0 dcbe bbc0 c45c 9c3f
000000a0: 3e4f 7140 7a0c 2e40 417b 17c1 fd43 cabe
000000b0: 9f25 0dc1 57ad a7c0 f647 b2bf 1371 673e
000000c0: 34cc d640 bcba ccc0 87b9 c3c0 b86b 32c0
000000d0: 8a84 e9bf 482a a1c0 43a5 92c1 cd04 5bbf
000000e0: 668a 58c1 74a5 25c1 0f73 3fc1 fd4e d8c0
000000f0: 40d1 25c1 1a7c 833f d121 a840 1a41 60c1

encoder5.features.1.running_var f4 [64]
73.257416 65.21101 63.12819 118.85487 67.81366 91.80949 76.58419 29.350441
22.530872 58.357784 71.207985 54.66829 73.439 19.430422 86.00388 144.35599
62.639263 14.353612 45.919785 69.91085 139.65324 39.17821 12.358879 42.96161
65.436325 52.11498 70.73805 15.92233 28.60033 26.199833 24.78071 136.93243
78.00697 125.18183 83.95605 109.00622 114.628746 14.7169485 107.321 87.79001
34.679592 81.263916 43.17394 34.51477 63.8313 78.4494 72.17401 45.179966
83.23519 66.93968 70.494835 124.77966 35.261116 75.170425 91.928986 131.1338
98.28052 79.79945 47.39275 110.777016 72.50716 17.283684 98.91556 177.99196
00000000: cc83 9242 0a6c 8242 4483 7c42 b2b5 ed42
00000010: 98a0 8742 759e b742 1b2b 9942 b4cd ea41
00000020: 3a3f b441 5f6e 6942 7d6a 8e42 54ac 5a42
00000030: c5e0 9242 8171 9b41 fd01 ac42 225b 1043
00000040: 9b8e 7a42 65a8 6541 dcad 3742 5bd2 8b42
00000050: 3ba7 0b43 7db6 1c42 f8bd 4541 b0d8 2b42
00000060: 66df 8242 bd75 5042 e279 8d42 ddc1 7e41
00000070: 7acd e441 4299 d141 e53e c641 b4ee 0843
00000080: 9203 9c42 195d fa42 7fe9 a742 2f03 da42
00000090: eb41 e542 9f78 6b41 5aa4 d642 7c94 af42
000000a0: e7b7 0a42 2087 a242 1db2 2c42 200f 0a42
000000b0: 4053 7f42 18e6 9c42 1859 9042 49b8 3442
000000c0: 6b78 a642 1ee1 8542 5bfd 8c42 308f f942
000000d0: 620b 0d42 4257 9642 a4db b742 4122 0343
000000e0: a08f c442 5299 9f42 2d92 3d42 d58d dd42
000000f0: aa03 9142 fc44 8a41 c4d4 c542 f1fd 3143

decoder5.features.0.weight f4 [64, 32, 2, 2]
-0.049816668 0.031723816 -0.17057636 0.015179322 0.18375356 0.110156536 -0.078413144 0.07224068
-0.18060508 0.08142742 0.018802404 0.034658905 -0.10696342 0.16373216 -0.17972103 -0.11251223
0.05998564 -0.114372164 0.017113639 -0.059691675 0.024166936 0.031925667 -0.069283634 -0.065647155
0.06293325 -0.16790514 0.048236515 -0.10684531 -0.07442255 0.17695203 -0.027094083 -0.14571056
0.38964134 0.04690173 0.09798579 -0.025996517 -0.27668574 -0.08167498 -0.17992398 -0.28100446
0.026899211 0.037148252 -0.13000832 -0.0519521 -0.11515085 -0.004810673 0.024522262 -0.8824328
0.06564355 0.04607443 0.05413455 -0.08666788 -0.002665533 -0.042164385 -0.06038679 0.057761673
0.10583644 -0.0022543017 -0.3207288 -0.055273242 -0.09028263 -0.18712841 0.054436162 0.19122307
-0.095359564 0.055769473 -0.030934064 -0.11194038 -0.12215365 -0.024519753 -0.019554384 -0.12467219
-0.14335364 0.21523134 -0.30254635 -0.042147193 -0.17178667 0.013726546 0.09033452 0.110320635
0.023251241 0.004618679 -0.097934686 -0.14409676 0.22543727 0.052788433 -0.080723755 -0.16831507
-0.21176225 -0.086078115 -0.13023165 0.06636103 -0.04015404 -0.071513005 -0.07810198 -0.00955798
0.056829162 -0.11468271 -0.054885752 0.076413184 -0.34382957 0.070626765 -0.06673198 0.063899435
-0.045657836 -0.10381009 -0.060448617 0.3210807 0.04003312 0.018313322 -0.047026455 0.18007876
-0.19297227 -0.45132494 -0.05852832 -0.018820776 0.069251895 0.16024281 -0.34516928 -0.43350008
-0.06761706 -0.043298423 0.1553704 -0.108907886 0.006130788 0.023411985 -0.18489571 -0.033244193
0.06359786 0.5478967 0.42340857 0.06492738 0.5442334 0.682217 -0.81876796 0.41415897
-0.12163115 -0.014292501 -0.0026210048 0.39203393 -0.1754738 0.3481849 -0.100181796 0.023886072
-0.0623401 -0.22851254 0.012637704 0.0521474 -0.022662485 0.16379943 -0.040980086 -0.2743791
-0.080166556 -0.35467944 -0.679248 -0.17378847 0.34331074 -0.22935249 -0.03394165 -0.16584705
0.33010873 -0.12969556 -0.7494492 -0.20670715 -0.19742513 0.44658545 0.3896791 -0.30730775
0.30357918 0.065535985 -0.010875769 -0.18014508 -0.041428395 0.0021078147 -0.25739184 -0.13816738
-0.25725567 0.06649925 -0.03052039 -0.107694834 -0.054297127 0.005132612 -2.519608e-05 -0.12911537
0.17719749 0.033913195 0.2152724 0.0794232 -0.2293952 0.062138245 -0.54851973 0.33367392
-0.1167921 0.42416534 0.4332392 -0.2853877 -0.29510614 -0.06561816 0.053808503 -0.0017239854
0.21130173 0.07778357 0.39639148 -0.24709105 -0.44875345 -0.016154874 0.22549537 0.3581784
-0.33389586 0.49638045 -0.071808375 0.72046715 -0.22604954 0.04307512 -0.009306207 -0.02372254
0.062567115 -0.22728176 -0.35684383 0.5126963 -0.057491805 0.3697273 -0.053638946 -0.085524626
0.027920272 -0.099974684 0.0076725204 0.18275222 -0.35093993 0.14569668 -1.2667001 0.051355593
-0.25668082 -0.0015071941 -0.69578713 0.5818924 -0.288576 0.15843698 -0.67656696 0.6604176
0.3216841 -0.6374635 -0.07979907 0.5238848 -0.06963325 0.2893429 0.41998076 -0.45087108
-0.08212706 -0.20016077 -0.023347717 -0.29629216 0.010444236 -0.121260606 0.69308984 -0.008262344
00000000: 900c 4cbd d5f0 013d 92ab 2ebe b1b2 783c
00000010: e529 3c3e c099 e13d 1297 a0bd ecf2 933d
00000020: 8af0 38be 6bc3 a63d 8007 9a3c 7ff6 0d3d
00000030: a30f dbbd 67a9 273e ca08 38be d06c e6bd
00000040: 81b3 753d f43b eabd e731 8c3c 427f 74bd
00000050: bdf9 c53c 7dc4 023d 94e4 8dbd 0472 86bd
00000060: 26e3 803d 53ef 2bbe a793 453d b7d1 dabd
00000070: da6a 98bd ea32 353e 69f4 ddbc 2635 15be
00000080: 127f c73e 071c 403d c6ac c83d a6f6 d4bc
00000090: c1a9 8dbe 3645 a7bd fe3d 38be d1df 8fbe
000000a0: bc5b dc3c c428 183d e720 05be bacb 54bd
000000b0: 35d4 ebbd daa2 9dbb e9e2 c83c 1ee7 61bf
000000c0: 2070 863d 8bb8 3c3d 31bc 5d3d ee7e b1bd
000000d0: 39b0 2ebb 90b4 2cbd 2458 77bd 8197 6c3d
000000e0: c7c0 d83d e8bc 13bb 9136 a4be 3266 62bd
000000f0: 19e6 b8bd 979e 3fbe 74f8 5e3d fbcf 433e
00000100: e04b c3bd 886e 643d 6f69 fdbc ff40 e5bd
00000110: b12b fabd a6dd c8bc 8430 a0bc 2254 ffbd
00000120: 4ccb 12be 9b65 5c3e 5be7 9abe 89a2 2cbd
00000130: d8e8 2fbe 4fe5 603c 4e01 b93d c9ef e13d
00000140: 6379 be3c 4a58 973b fb91 c8bd 1a8e 13be
00000150: 07d9 663e af38 583d 7f52 a5bd c95a 2cbe
00000160: 34d8 58be b949 b0bd 725b 05be 4be8 873d
00000170: 9078 24bd 6975 92bd eef3 9fbd 1399 1cbc
00000180: b2c5 683d c5de eabd e2cf 60bd 847e 9c3d
00000190: 6e0a b0be c4a4 903d c7aa 88bd b5dd 823d
000001a0: b603 3bbd 629a d4bd f898 77bd b164 a43e
000001b0: c5f9 233d d205 963c d09e 40bd 9166 383e
000001c0: 869a 45be 1014 e7be 64bb 6fbd 072e 9abc
000001d0: f0d3 8d3d b116 243e 07ba b0be b9f3 ddbe
000001e0: d07a 8abd b059 31bd 6b19 1f3e 190b dfbd
000001f0: c7e4 c83b 7eca bf3c 4d55 3dbe 102b 08bd
00000200: 983f 823d f542 0c3f 02c9 d83e a5f8 843d
00000210: e152 0b3f c6a5 2e3f c79a 51bf a50c d43e
00000220: c119 f9bd 182b 6abc 2ac5 2bbb acb8 c83e
00000230: 67af 33be 4b45 b23e 1d2c cdbd b9ac c33c
00000240: 5558 7fbd 31ff 69be 5f0e 4f3c 8398 553d
00000250: ada6 b9bc 0abb 273e bcda 27bd 6b7b 8cbe
00000260: 5d2e a4bd 8b98 b5be 32e3 2dbf 9bf5 31be
00000270: 6dc6 af3e 61db 6abe 6606 0bbd cfd3 29be
00000280: 0304 a93e eace 04be e7db 3fbf 0aab 53be
00000290: d029 4abe d9a6 e43e 0584 c73e 7157 9dbe
000002a0: bb6e 9b3e bb37 863d 4830 32bc f477 38be
000002b0: d2b0 29bd 4323 0a3b ddc8 83be c07b 0dbe
000002c0: 04b7 83be c230 883d e605 fabc 1c8f dcbd
000002d0: aa66 5ebd 782f a83b 2b5c d3b7 d236 04be
000002e0: 4273 353e 90e8 0a3d 5e70 5c3e a1a8 a23d
000002f0: 93e6 6abe ac84 7e3d ca6b 0cbf 4fd7 aa3e
00000300: b230 efbd 332c d93e 87d1 dd3e 561e 92be
00000310: 2718 97be d062 86bd 4e66 5c3d 5af7 e1ba
00000320: 7b5f 583e fe4c 9f3d d3f3 ca3e 7005 7dbe
00000330: 03c3 e5be 3a57 84bc 42e8 663e 2963 b73e
00000340: 66f4 aabe 9425 fe3e 4510 93bd 8970 383f
00000350: 8879 67be 896f 303d 1079 18bc c655 c2bc
00000360: 3023 803d 8dbc 68be 3cb4 b6be 1140 033f
00000370: 877c 6bbd e64c bd3e 83b4 5bbd 8927 afbd
00000380: 0eb9 e43c 87bf ccbd c469 fb3b 6623 3b3e
00000390: 66ae b3be 8331 153e 3b23 a2bf 3e5a 523d
000003a0: ab6b 83be 0b8d c5ba 1b1f 32bf e6f6 143f
000003b0: 3cc0 93be 4e3d 223e 7e33 2dbf 2111 293f
000003c0: c7b3 a43e cf30 23bf b26d a3bd 501d 063f
000003d0: e19b 8ebd c124 943e b807 d73e 93d8 e6be
000003e0: 3b32 a8bd f2f6 4cbe b643 bfbc 9bb3 97be
000003f0: 4d1e 2b3c 7b57 f8bd 566e 313f c85e 07bc

decoder5.features.0.bias f4 [32]
-0.084662706 -0.07418187 -0.025265682 0.03639114 -0.04804314 0.017113175 0.06531105 -0.00773469
0.049107246 -0.032821275 -0.015904484 -0.048975173 0.056672346 -0.030606039 0.051813688 0.021186646
0.06564976 0.0150624225 0.01901849 -0.0028691948 -0.008524369 -0.0028022525 0.08143078 -0.019353596
-0.05081434 0.06543791 -0.041739326 -0.06139687 0.056111295 -0.038472213 -0.06950239 0.07344267
00000000: a463 adbd aaec 97bd faf9 cebc e00e 153d
00000010: e2c8 44bd ee30 8c3c cdc1 853d 4873 fdbb
00000020: ae24 493d 9a6f 06bd 1f4a 82bc 319a 48bd
00000030: 4321 683d 84b9 fabc 973a 543d 9e8f ad3c
00000040: 6273 863d 61c8 763c aacc 9b3c 1a09 3cbb
00000050: cca9 0bbc ffa5 37bb 2ec5 a63d 6f8b 9ebc
00000060: b322 50bd 5004 863d dbf6 2abd 497b 7bbd
00000070: f5d4 653d 0a95 1dbd 4557 8ebd 1c69 963d

decoder5.features.1.weight f4 [32]
1.1547146 1.3934424 0.80067605 0.43581632 0.9363769 0.3754897 0.60966367 0.87898624
1.0953074 1.220442 0.8373977 0.38908118 0.6255704 0.3446761 0.5836895 1.1076413
0.7684965 0.5773296 0.7791913 0.4457071 0.6058143 0.47994742 0.5460332 0.43829256
0.50749844 1.4077247 1.0397872 1.1709932 1.5077003 1.1301501 1.3939965 0.5451998
00000000: b0cd 933f 525c b23f 1bf9 4c3f 5123 df3e
00000010: 66b6 6f3f 3040 c03e eb12 1c3f 3e05 613f
00000020: 0833 8c3f 7237 9c3f b25f 563f a635 c73e
00000030: 6225 203f 6379 b03e ad6c 153f 31c7 8d3f
00000040: 30bc 443f dfcb 133f 1579 473f b933 e43e
00000050: a516 1b3f abbb f53e d5c8 0b3f e267 e03e
00000060: 6beb 013f 5330 b43f bf17 853f 1be3 953f
00000070: 53fc c03f c2a8 903f 7a6e b23f 3792 0b3f
