model/SRNet_2021-07-23_23-00-22.pth (torch, 259399 bytes, 111 tensors)

encoder1.features.0.weight f4 [4, 3, 3, 3]
0	0x3c98de94	0.018660821
1	0x3e19923b	0.14997189
2	0x3cf9ab03	0.030477053
3	0xbcffdf0c	-0.031234287
4	0x3cf10d7a	0.029425371
5	0xbc2bfe4a	-0.010497639
6	0x3d928f1f	0.071562044
7	0xbbf57395	-0.007490585
8	0x3d5b567f	0.053549286
9	0x3ccd69f1	0.02507493
10	0x3e405de9	0.18785824
11	0xbb349896	-0.0027556769
12	0xbdc61782	-0.096724525
13	0xbcf359a4	-0.02970583
14	0xbdd50b66	-0.10402565
15	0xbdafe98d	-0.08589468
16	0xba1c6faa	-0.0005967567
17	0xbd38bf25	-0.045104165
18	0x3dfb6ca2	0.122765794
19	0x3e705cd3	0.2347291
20	0x3d862e27	0.065517716
21	0xbc337c99	-0.010954999
22	0x3d88f1ec	0.06686768
23	0xbcca9ba9	-0.024732428
24	0xbd21cd76	-0.039502583
25	0x3bafb1ca	0.0053617703
26	0x3d198b6c	0.03748648
27	0x3a2ba3f4	0.0006547563
28	0x3c3e94a3	0.011632117
29	0x3934c94d	0.00017241128
30	0xbbf556eb	-0.007487168
31	0x3b464005	0.003025056
32	0xbc55070f	-0.013002171
33	0xbd0a0a12	-0.03370101
34	0xbcd8fcbb	-0.026487699
35	0xbd3003eb	-0.042972486
36	0x3c85b3e3	0.016321128
37	0x3ce6d984	0.028179891
38	0x3cd59789	0.026073234
39	0x3c45ca96	0.012072226
40	0x3cbf2e5f	0.023337541
41	0x3c7b64ab	0.015343825
42	0x3b90186d	0.004397443
43	0x3c495937	0.012289337
44	0x3b011fc3	0.001970277
45	0xbd4a31b4	-0.049363807
46	0xbd25ec5f	-0.040508624
47	0xbd1ec189	-0.03875879
48	0xbd8143d2	-0.06311764
49	0xbd587b17	-0.052851763
50	0xbd755717	-0.05989751
51	0xbd8d3253	-0.06894364
52	0xbd8156c0	-0.063153744
53	0xbd941580	-0.07230663
54	0xbd14f499	-0.03636608
55	0xbce0bf59	-0.027434992
56	0xbcea3a51	-0.02859226
57	0xbd36aa5d	-0.044596065
58	0xbcda4b93	-0.026647365
59	0xbd29199d	-0.041284192
60	0xbd4714cc	-0.048603818
61	0xbd519e84	-0.051176563
62	0xbd2e620f	-0.042573985
63	0x3e10e18b	0.14148538
64	0x3e1e29e2	0.15445665
65	0x3e106c88	0.14103901
66	0x3e050b3b	0.12992565
67	0x3e2b7a9a	0.16745988
68	0x3e12a48b	0.1432058
69	0x3e0c5ae6	0.1370655
70	0x3e193429	0.14961304
71	0x3e168768	0.14700091
72	0xbd9ef547	-0.07761627
73	0xbd8117ed	-0.063033916
74	0xbdd0f8cc	-0.10203704
75	0xbd64ac78	-0.05582854
76	0xbc8ec58e	-0.017428186
77	0xbd9220a3	-0.07135131
78	0xbd9d4a70	-0.076802135
79	0xbd8040be	-0.062623486
80	0xbdbd7250	-0.09250319
81	0xbdcf6522	-0.101267114
82	0x3d74bc6b	0.059750002
83	0xbcdc5a87	-0.026898636
84	0x3bb3030c	0.0054630097
85	0x3de523ef	0.111884944
86	0x3cf3f9db	0.029782226
87	0x3c3942aa	0.011307398
88	0xbc8b87f0	-0.017032593
89	0x3d38ebba	0.04514668
90	0xbda98b61	-0.082785375
91	0x3d3af9f9	0.04564855
92	0xbde1496b	-0.110003315
93	0x3d3f0e62	0.046644576
94	0x3dd89b16	0.10576455
95	0xbd913c4e	-0.0709158
96	0xbdc72f14	-0.09725776
97	0xbd50acf0	-0.050946176
98	0xbcd8b039	-0.026451217
99	0x3db37fe6	0.08764629
100	0x3e04b977	0.12961374
101	0x3d5b22bd	0.053499926
102	0x3e161d97	0.14659725
103	0x3e65915c	0.22418731
104	0x3dacac6f	0.084313266
105	0x3ddf0c3d	0.10891006
106	0x3e06913d	0.13141342
107	0x3bed858e	0.007248587

encoder1.features.0.bias f4 [4]
0	0xb78b33bf	-1.6594187e-05
1	0xb6a94666	-5.044788e-06
2	0xb7831aad	-1.5628839e-05
3	0x370fc721	8.5698275e-06

encoder1.features.1.weight f4 [4]
0	0x3e16fc36	0.14744648
1	0x3ebd4bb7	0.36971828
2	0x3e8be939	0.27326372
3	0x3e77e905	0.24209984

encoder1.features.1.bias f4 [4]
0	0x3e1af0e0	0.15130949
1	0xbea347e3	-0.31890783
2	0xbec04b0f	-0.37557265
3	0x3e64ff60	0.22363043

encoder1.features.1.running_mean f4 [4]
0	0x3e8efb8f	0.279263
1	0xbe49f6c3	-0.19723038
2	0x3e412b20	0.18864107
3	0x3eb30f65	0.34972683

encoder1.features.1.running_var f4 [4]
0	0x3c955f25	0.018233845
1	0x3c2685d6	0.010163745
2	0x3c3d8d54	0.01156934
3	0x3d0941bb	0.03350995

encoder2.features.0.weight f4 [8, 4, 3, 3]
0	0x38094fe8	3.2737764e-05
1	0x38af4e4a	8.359233e-05
2	0x38d6a60f	0.00010235246
3	0x381fa5ce	3.806297e-05
4	0x38dab336	0.00010428431
5	0x3903cd83	0.00012569693
6	0x37ea9779	2.7965509e-05
7	0x3906a314	0.00012839987
8	0x39283883	0.00016042781
9	0x3a06befc	0.0005140153
10	0x39f83c5f	0.00047347226
11	0x39d3da6f	0.00040407802
12	0x39f94c8e	0.0004755002
13	0x39eff18e	0.00045765605
14	0x39c36879	0.00037271137
15	0x39a59e0e	0.00031589012
16	0x39b1e1e8	0.00033928384
17	0x399c6037	0.00029826324
18	0x34859bb0	2.4886458e-07
19	0x347e9f51	2.3713552e-07
20	0x341fdbb6	1.488796e-07
21	0x34a591e4	3.0839794e-07
22	0x34bba413	3.4950844e-07
23	0x34871847	2.5163374e-07
24	0x34f3c1a3	4.5403166e-07
25	0x3538f4cb	6.890156e-07
26	0x3522c894	6.064158e-07
27	0x39a1aed3	0.00030838567
28	0x399cd050	0.00029909844
29	0x39ba2bd7	0.00035509348
30	0x39915470	0.00027719466
31	0x39acda86	0.0003296921
32	0x39d7bde8	0.00041149487
33	0x39a53a15	0.00031514527
34	0x39acb476	0.0003294085
35	0x39cff33b	0.00039663338
36	0x393427db	0.00017180985
37	0x38ec9e79	0.00011282875
38	0x379c827d	1.8657413e-05
39	0x39bf30a9	0.00036466614
40	0x398631e0	0.0002559563
41	0x390dca45	0.00013522159
42	0x3a339acb	0.0006851374
43	0x3a34c958	0.00068964576
44	0x39ef840b	0.00045684012
45	0xb9d64c37	-0.00040874045
46	0xba3057d7	-0.00067269563
47	0xba24d488	-0.0006287773
48	0xb9de4e74	-0.00042401592
49	0xba059d22	-0.0005096962
50	0xba330c23	-0.00068301166
51	0xba23ed98	-0.0006253361
52	0xba1ba4e4	-0.00059373514
53	0xb9ec066c	-0.00045018212
54	0x37ee78d6	2.842808e-05
55	0x37faba6e	2.9889135e-05
56	0x37b9647a	2.2100507e-05
57	0x37e8c17a	2.774665e-05
58	0x3802f4e0	3.1222473e-05
59	0x37feeb71	3.0388795e-05
60	0x3845044d	4.6972465e-05
61	0x3850575a	4.9672417e-05
62	0x384f9095	4.94873e-05
63	0x3a171264	0.0005762933
64	0x3a0e9a1e	0.00054398354
65	0x399b1411	0.00029578854
66	0x3a8249a4	0.000994016
67	0x3a8e39e3	0.0010850992
68	0x3a28e10e	0.0006442227
69	0x3aab21fe	0.0013056395
70	0x3ab8f8cc	0.0014112233
71	0x3a880c76	0.001037969
72	0xbb890c5f	-0.004182383
73	0xbb4bcfe3	-0.0031099252
74	0xbb64177e	-0.0034804041
75	0x3a342120	0.0006871391
76	0x39b68950	0.0003481605
77	0xb9b48f16	-0.00034438883
78	0xba65d0e7	-0.00087667856
79	0xba820156	-0.0009918611
80	0xba0a6444	-0.0005279223
81	0x3b51d8b0	0.0032020025
82	0x3b212cc2	0.0024593328
83	0x3b4909d5	0.0030676026
84	0x3b4684ba	0.0030291514
85	0x3b47cd7e	0.0030487473
86	0x3b47b16a	0.0030470737
87	0x3b71574d	0.0036825717
88	0x3b694d01	0.0035598876
89	0x3b4caa6c	0.003122951
90	0x3c427ad8	0.011870109
91	0x3c456f82	0.012050511
92	0x3c17b836	0.009260228
93	0x3c63f132	0.013912486
94	0x3c81de6d	0.015853131
95	0x3c56ecaa	0.013117949
96	0x3c41b944	0.011823956
97	0x3c83192f	0.01600322
98	0x3c74b36f	0.014935358
99	0xb9d56346	-0.0004070049
100	0x3a72d4fc	0.00092633045
101	0x3b156141	0.0022793564
102	0x3a4efc9b	0.00078959175
103	0x3ba2191e	0.004946842
104	0x3a8f9ac9	0.0010956164
105	0xba4a016e	-0.00077059015
106	0x3a9488c5	0.0011332264
107	0x38cce07f	9.769294e-05
108	0x3ad1fcb6	0.0016020748
109	0x3ad335cd	0.0016114056
110	0x3a7cef73	0.0009648718
111	0x3ad63aef	0.0016344468
112	0x3b32e061	0.0027294385
113	0x3b133baf	0.0022465994
114	0x3a9f9340	0.0012174621
115	0x3b1424df	0.0022604985
116	0x3b2ddec2	0.002653048
117	0x344a1b92	1.8822746e-07
118	0xb44db982	-1.91596e-07
119	0x34cbf676	3.799102e-07
120	0xb539be26	-6.9194573e-07
121	0xb594bf91	-1.1082612e-06
122	0xb4cb7230	-3.789478e-07
123	0x357e58d8	9.475166e-07
124	0x35358027	6.761424e-07
125	0x35c004f4	1.4306556e-06
126	0x3a4a659e	0.00077208306
127	0x3a62a521	0.0008645822
128	0x3a3f5c56	0.0007299831
129	0x3a59ae8b	0.0008303902
130	0x3a42c422	0.0007429739
131	0x3a367ef6	0.00069616677
132	0x3a4eeff2	0.0007894031
133	0x3a4ce016	0.0007815374
134	0x3a38f5c8	0.0007055667
135	0x3b286ea5	0.0025700715
136	0x3b487a47	0.003059046
137	0x3b60e0bd	0.0034313642
138	0x3b330de8	0.0027321521
139	0x3b5708a7	0.0032811554
140	0x3b624ea2	0.0034531732
141	0x3b171a3b	0.0023056406
142	0x3b375ba0	0.0027978197
143	0x3b671f3c	0.003526642
144	0x3c87d29d	0.01657992
145	0x3cbcd1f8	0.02304934
146	0x3ca93928	0.020657137
147	0xbce77bec	-0.028257333
148	0xbcb30e01	-0.021857264
149	0xbd07dc18	-0.033168882
150	0xbcfa01f6	-0.030518513
151	0xbcceecdb	-0.025259426
152	0xbd08cf33	-0.033400726
153	0x3c52d81d	0.012868908
154	0x3b904bb9	0.004403558
155	0x3c8cfd11	0.017210515
156	0x3d092e1b	0.033491235
157	0x3cf343f4	0.029695489
158	0x3d416b77	0.047221627
159	0x3d8a5056	0.06753604
160	0x3d6a01ba	0.057130553
161	0x3d932ff2	0.07186879
162	0xbcdc7ea4	-0.026915856
163	0xbd05f3c0	-0.03270316
164	0xbcb7daee	-0.022443261
165	0xbc652607	-0.013986117
166	0xbc5ef28c	-0.013607632
167	0xbc978a2c	-0.018498503
168	0xbc6534cd	-0.0139896395
169	0xbc66448b	-0.014054428
170	0xbc562f60	-0.0130728185
171	0xbbe156fb	-0.006876824
172	0xbce5b91f	-0.028042374
173	0xbbb914e6	-0.0056482432
174	0xbbe00371	-0.0068363477
175	0xbcd66432	-0.026170824
176	0xbcdbf90a	-0.02685215
177	0xbc69f287	-0.014279014
178	0xbc3b2f77	-0.011424891
179	0xbca458a2	-0.020061795
180	0xbd0de054	-0.034637764
181	0xbd9b4b4c	-0.07582721
182	0xbe322156	-0.17395529
183	0x3d0d6fb0	0.03453034
184	0x3ce0192c	0.027355753
185	0xbd222d5e	-0.039594047
186	0x3b6b1b8e	0.0035874578
187	0x3c877068	0.016533092
188	0xbd04436a	-0.032290854
189	0xbcf58e6a	-0.029975135
190	0xbd0031b7	-0.03129741
191	0x3d58b6e9	0.05290881
192	0xbca704fb	-0.020388117
193	0xbd0bb968	-0.034112364
194	0xbbfedb6b	-0.0077776215
195	0xbcf12457	-0.029436274
196	0xbd82d983	-0.06389143
197	0xbd310e13	-0.043226313
198	0xbc0c6d58	-0.008570991
199	0xbc56e963	-0.013117167
200	0x3ba5ca6f	0.0050595324
201	0x3d33a46c	0.043857977
202	0x3d2188b2	0.039437003
203	0x3d3d8d32	0.046277232
204	0x3d09e974	0.033669904
205	0x3d51f247	0.051256444
206	0x3d8ea804	0.0696564
207	0x3da17f64	0.07885626
208	0x3d6770ba	0.05650399
209	0xbdbfe3fc	-0.093696564
210	0x3ddbf2d3	0.107396744
211	0x3e0c924c	0.13727683
212	0x3d981a17	0.07426851
213	0x3dcbb498	0.09946555
214	0x3e10497d	0.14090534
215	0x3d96a1a8	0.07355052
216	0xb8cb5d33	-9.697154e-05
217	0xb91c7b32	-0.00014923213
218	0x381dd906	3.7633836e-05
219	0x397371a9	0.00023216628
220	0x3971efe7	0.00023072922
221	0xb8a31e41	-7.778081e-05
222	0xb84b149d	-4.841817e-05
223	0x39441691	0.00018700423
224	0xb48599e8	-2.4885162e-07
225	0xa5c25faf	-3.3718473e-16
226	0xa7aff417	-4.88369e-15
227	0xa811eb04	-8.100078e-15
228	0xa881282a	-1.4339295e-14
229	0xa9137536	-3.274222e-14
230	0xa8beecd2	-2.1196942e-14
231	0xa8e8e8e4	-2.5858174e-14
232	0xaa24e68c	-1.4646113e-13
233	0xa9bf2c53	-8.489793e-14
234	0xb8e5d1c7	-0.00010958645
235	0x36c6265e	5.9053264e-06
236	0xb82195a9	-3.8524773e-05
237	0xb8c981d9	-9.608613e-05
238	0xb99c380e	-0.00029796403
239	0x378c8526	1.6751303e-05
240	0xb84efa22	-4.934718e-05
241	0xb9189bc4	-0.00014553877
242	0xb920bf7e	-0.00015330125
243	0xb832b36d	-4.260561e-05
244	0xb8fa5497	-0.00011936685
245	0xb7927f0b	-1.7463715e-05
246	0x36695279	3.476771e-06
247	0xb7b17d3e	-2.1158365e-05
248	0x35ff59b4	1.9025088e-06
249	0x362d5955	2.5831007e-06
250	0xb78fb301	-1.7130284e-05
251	0xb4b3ba95	-3.3477104e-07
252	0xb826bd47	-3.9753762e-05
253	0xb7be6037	-2.2694569e-05
254	0x37c787d5	2.37859e-05
255	0x374548b5	1.1759043e-05

encoder2.features.0.bias f4 [8]
0	0x80003594	-1.922e-41
1	0x177498c1	7.9033455e-25
2	0xb70d3cff	-8.418457e-06
3	0xadc6c8aa	-2.2599107e-11
4	0x36187e32	2.272322e-06
5	0x36a7a1d0	4.9958253e-06
6	0x0000138f	7.016e-42
7	0x80002fb6	-1.7115e-41

encoder2.features.1.weight f4 [8]
0	0xbca3f38c	-0.020013593
1	0xbbc896d0	-0.006121494
2	0x3cc4dfb1	0.024032446
3	0xba41e558	-0.00073965406
4	0x3e51aca9	0.20476021
5	0x3e4d9a49	0.20078386
6	0x334dfe13	4.796136e-08
7	0x3820cd9f	3.8338472e-05

encoder2.features.1.bias f4 [8]
0	0xbc9b8d67	-0.018988324
1	0xbc0e337c	-0.008679267
2	0xbd2a7b4e	-0.0416215
3	0xba4606a0	-0.0007554088
4	0xbe4f7890	-0.20260835
5	0x3dc7195b	0.09721633
6	0xb2758f5f	-1.4293476e-08
7	0xb75c41d8	-1.3128352e-05

encoder2.features.1.running_mean f4 [8]
0	0x3a85cf4d	0.0010208875
1	0x3b1681ad	0.0022965476
2	0x3b812b08	0.0039418973
3	0x3c1f2ceb	0.009715299
4	0xbd395ae5	-0.0452527
5	0x3df263cc	0.11835441
6	0xb6fe4bb4	-7.578603e-06
7	0xb74c0ce7	-1.2162352e-05

encoder2.features.1.running_var f4 [8]
0	0x34ef1629	4.4533343e-07
1	0x36b56976	5.4064976e-06
2	0x384687a4	4.7333204e-05
3	0x388ded1b	6.767568e-05
4	0x3b8c3da3	0.0042798086
5	0x3c876418	0.01652722
6	0x3126b950	2.4261517e-09
7	0x30cd4bed	1.4937293e-09

encoder3.features.0.weight f4 [16, 8, 3, 3]
0	0x0f12d82c	7.239989e-30
1	0x0d2e5267	5.371708e-31
2	0x8cf6ce8a	-3.8026607e-31
3	0x938327d4	-3.3108323e-27
4	0x92538e9c	-6.675564e-28
5	0x919eeac3	-2.5072688e-28
6	0x901357d5	-2.9058302e-29
7	0x9111c3cc	-1.1498818e-28
8	0x914a78e7	-1.5972246e-28
9	0x27d4dc1b	5.908046e-15
10	0x24dc22fc	9.546906e-17
11	0x23b8fbdf	2.0055992e-17
12	0x29a7c514	7.4504774e-14
13	0x29d74f71	9.561699e-14
14	0x243bec1b	4.074915e-17
15	0x262a7163	5.9134266e-16
16	0x250cc943	1.2211254e-16
17	0x279eed62	4.411118e-15
18	0x10d805d8	8.520598e-29
19	0x13f1f56d	6.107896e-27
20	0x15010bd9	2.606069e-26
21	0x1128ad08	1.3306183e-28
22	0x91871e63	-2.1317972e-28
23	0x918d844a	-2.2327407e-28
24	0x8ecb06c6	-5.0049886e-30
25	0x11345374	1.4225212e-28
26	0x100dc22e	2.7956937e-29
27	0x26ffa9dc	1.774022e-15
28	0x27218d1c	2.2419734e-15
29	0x26f779ac	1.7172047e-15
30	0x28135237	8.177967e-15
31	0x27b76f24	5.0913202e-15
32	0x25ef419a	4.1504344e-16
33	0xa8fc0120	-2.7978108e-14
34	0x26cff8d2	1.4430953e-15
35	0x273a5f54	2.5864363e-15
36	0x299151cb	6.4534824e-14
37	0x2c6ec8b4	3.3933247e-12
38	0x2ad18a91	3.7222008e-13
39	0x32848ad4	1.5429954e-08
40	0x350eb23c	5.315849e-07
41	0x32377862	1.0679374e-08
42	0x2fb3630a	3.2630282e-10
43	0x2a071768	1.199853e-13
44	0x2f3f6278	1.7406332e-10
45	0x2ddc1da3	2.5024266e-11
46	0x2d657f0e	1.3045355e-11
47	0x2cdae5a9	6.22143e-12
48	0x2cdc4096	6.2599466e-12
49	0x2c071d5f	1.9200958e-12
50	0x2b315400	6.2999606e-13
51	0x2de2208a	2.5707676e-11
52	0x2d9a0456	1.7509699e-11
53	0x2c041bfd	1.8773865e-12
54	0x00000d0e	4.683e-42
55	0x0000107a	5.91e-42
56	0x00000d44	4.759e-42
57	0x000012ff	6.815e-42
58	0x8000128a	-6.65e-42
59	0x80000d31	-4.732e-42
60	0x000009d0	3.52e-42
61	0x00000b95	4.155e-42
62	0x00000078	1.68e-43
63	0x89f1e9c4	-5.823847e-33
64	0x072b3636	1.2880541e-34
65	0x843bfbac	-2.2097306e-36
66	0x8fccf0b6	-2.0208672e-29
67	0x8f689f40	-1.14691536e-29
68	0x037cd533	7.4300885e-37
69	0x0ad65f75	2.0643357e-32
70	0x071b947c	1.170454e-34
71	0x05d945e8	2.0432261e-35
72	0x00000b34	4.019e-42
73	0x00001750	8.363e-42
74	0x80000c6c	-4.456e-42
75	0x00000e27	5.077e-42
76	0x8000100a	-5.754e-42
77	0x80001474	-7.337e-42
78	0x80001554	-7.651e-42
79	0x80001b30	-9.753e-42
80	0x80000d8c	-4.86e-42
81	0x81229dc9	-2.9867906e-38
82	0x80ac6d3b	-1.583489e-38
83	0x00032c35	2.91365e-40
84	0x036b2c85	6.91114e-37
85	0x80d43bd9	-1.9490594e-38
86	0x005a90f0	8.317188e-39
87	0x002438bc	3.32643e-39
88	0x021b6fb7	1.1419662e-37
89	0x8233a98d	-1.3199502e-37
90	0x8893c3b9	-8.893255e-34
91	0x889bccca	-9.376869e-34
92	0x87cc28ea	-3.0718556e-34
93	0x880ad27b	-4.1775283e-34
94	0x89a5051a	-3.9727103e-33
95	0x897848ac	-2.9886084e-33
96	0x851a3471	-7.250677e-36
97	0x8883514e	-7.90339e-34
98	0x88b9ed12	-1.1190017e-33
99	0x00001f83	1.1304e-41
100	0x00001f4b	1.1226e-41
101	0x000012d3	6.753e-42
102	0x80001641	-7.983e-42
103	0x000007bc	2.775e-42
104	0x000009df	3.541e-42
105	0x8000236d	-1.2708e-41
106	0x800002f1	-1.055e-42
107	0x000004e2	1.752e-42
108	0x820179dd	-9.512396e-38
109	0x83fc78d8	-1.4838973e-36
110	0x81e1b952	-8.291787e-38
111	0x92696f6c	-7.3659174e-28
112	0x93b4875d	-4.5571867e-27
113	0x93d99f02	-5.4935295e-27
114	0x0f546bc9	1.0473166e-29
115	0x8e1142f9	-1.7904876e-30
116	0x91e7d59f	-3.6577028e-28
117	0x10948186	5.857527e-29
118	0x0fe19308	2.2243347e-29
119	0x10c1468d	7.623378e-29
120	0x139b6e3b	3.9236197e-27
121	0x1134cb07	1.4262059e-28
122	0x12471048	6.2813396e-28
123	0x12a260bd	1.0247485e-27
124	0x11833d0e	2.0705784e-28
125	0x127ae310	7.9165967e-28
126	0x000017b8	8.509e-42
127	0x80000c00	-4.305e-42
128	0x000000ec	3.31e-43
129	0x80001c1d	-1.0085e-41
130	0x80000fda	-5.686e-42
131	0x000010a8	5.975e-42
132	0x00001a54	9.445e-42
133	0x80001b1e	-9.728e-42
134	0x000008a3	3.098e-42
135	0x80001c4f	-1.0155e-41
136	0x000015fd	7.888e-42
137	0x800021b3	-1.2089e-41
138	0x000017c8	8.531e-42
139	0x0000206f	1.1635e-41
140	0x0000031b	1.114e-42
141	0x80000e5b	-5.15e-42
142	0x80000d62	-4.801e-42
143	0x80000ac7	-3.866e-42
144	0x80000dc0	-4.933e-42
145	0x800004b3	-1.686e-42
146	0x00001d7c	1.0577e-41
147	0x80001afd	-9.682e-42
148	0x000009df	3.541e-42
149	0x80002171	-1.1997e-41
150	0x8000096e	-3.383e-42
151	0x000012a8	6.693e-42
152	0x80001a73	-9.488e-42
153	0x00001dc4	1.0678e-41
154	0x00000409	1.448e-42
155	0x800016cd	-8.18e-42
156	0x80001f54	-1.1238e-41
157	0x80000573	-1.955e-42
158	0x00001497	7.386e-42
159	0x000021c2	1.211e-41
160	0x80001f4b	-1.1226e-41
161	0x00001410	7.197e-42
162	0x00000248	8.18e-43
163	0x800017d4	-8.548e-42
164	0x800021d8	-1.2141e-41
165	0x80001f91	-1.1324e-41
166	0x80001c30	-1.0112e-41
167	0x00002139	1.1918e-41
168	0x8000050b	-1.809e-42
169	0x00000714	2.539e-42
170	0x80001f15	-1.115e-41
171	0x8031c65b	-4.571096e-39
172	0x0002d932	2.61586e-40
173	0x80001b2c	-9.747e-42
174	0x805b0cdc	-8.361643e-39
175	0x0004901c	4.19039e-40
176	0x80003ed0	-2.2533e-41
177	0x040adf0a	1.6324237e-36
178	0x821370c5	-1.0832218e-37
179	0x001cdac1	2.649868e-39
180	0x0005e24f	5.40362e-40
181	0x800004df	-1.747e-42
182	0x8000176f	-8.406e-42
183	0x099eeadc	3.8257977e-33
184	0x85a18bc8	-1.5191715e-35
185	0x00016aa1	1.30087e-40
186	0x8157e247	-3.965161e-38
187	0x0014f440	1.92433e-39
188	0x00000bc2	4.218e-42
189	0x80001aa8	-9.562e-42
190	0x00001fb6	1.1376e-41
191	0x80000193	-5.65e-43
192	0x00000516	1.824e-42
193	0x80000002	-3e-45
194	0x0000202e	1.1544e-41
195	0x00000906	3.237e-42
196	0x80000aeb	-3.917e-42
197	0x00000ae7	3.911e-42
198	0x80001e7c	-1.0936e-41
199	0x80000fbc	-5.644e-42
200	0x00000fe2	5.698e-42
201	0x00000a22	3.635e-42
202	0x80000a9c	-3.806e-42
203	0x00001bd4	9.983e-42
204	0x000018f5	8.953e-42
205	0x80001071	-5.898e-42
206	0x000004c9	1.717e-42
207	0x00000270	8.74e-43
208	0x8000033a	-1.157e-42
209	0x00000b26	4e-42
210	0x80002325	-1.2607e-41
211	0x00001038	5.818e-42
212	0x8000034d	-1.184e-42
213	0x80001afb	-9.679e-42
214	0x00000029	5.7e-44
215	0x800016b1	-8.14e-42
216	0x851ffcf0	-7.522601e-36
217	0x85a78305	-1.5752734e-35
218	0x03694846	6.855551e-37
219	0x87ca1a56	-3.040906e-34
220	0x051ed08a	7.467427e-36
221	0x85232ecb	-7.672818e-36
222	0x0d84f210	8.1934025e-31
223	0x8970d4e9	-2.8989059e-33
224	0x86380c85	-3.4615752e-35
225	0x9a8f874d	-5.9362004e-23
226	0xa29982aa	-4.160908e-18
227	0x9ecfee86	-2.2015628e-20
228	0x9bf73684	-4.0897952e-22
229	0xa2320685	-2.412695e-18
230	0x1a096d79	2.8419367e-23
231	0x03656f54	6.742485e-37
232	0x8e45eb14	-2.439531e-30
233	0x05b6c1ae	1.7186344e-35
234	0x0a9fd2e4	1.5390471e-32
235	0x8e400d22	-2.367215e-30
236	0x0e5b4294	2.702589e-30
237	0x97c5264c	-1.2740494e-24
238	0x9745f221	-6.3959743e-25
239	0x9ab78a8d	-7.591087e-23
240	0x9b07c5d2	-1.1230857e-22
241	0x98811cba	-3.3374725e-24
242	0x96ac77b3	-2.786364e-25
243	0xa98d24e5	-6.268058e-14
244	0xab168c38	-5.34853e-13
245	0xab89cf35	-9.791947e-13
246	0xa9536934	-4.694266e-14
247	0xab20587f	-5.696623e-13
248	0xac0b8901	-1.982914e-12
249	0xa9a6ca29	-7.40695e-14
250	0xab140e5b	-5.2600085e-13
251	0xab02b325	-4.643389e-13
252	0xa8e53657	-2.5447673e-14
253	0xaacc45a8	-3.6286013e-13
254	0xab965af6	-1.0683388e-12
255	0xaddfd107	-2.5444992e-11

encoder3.features.0.bias f4 [16]
0	0x8000247a	-1.3085e-41
1	0x80000c7a	-4.476e-42
2	0x00003886	2.0277e-41
3	0x800013d4	-7.113e-42
4	0x80001faa	-1.1359e-41
5	0x800047d7	-2.5771e-41
6	0x800033f9	-1.8644e-41
7	0x8000060c	-2.169e-42
8	0x36db58d5	6.53705e-06
9	0x00001aee	9.66e-42
10	0xb7789b59	-1.4818122e-05
11	0x80006a15	-3.8055e-41
12	0x000023bf	1.2823e-41
13	0x80003093	-1.7425e-41
14	0x369149f8	4.329948e-06
15	0x80002126	-1.1891e-41

encoder3.features.1.weight f4 [16]
0	0xb836294c	-4.3430642e-05
1	0x1fe496df	9.681135e-20
2	0x27aae5cf	4.7433638e-15
3	0x9d52714b	-2.785184e-21
4	0x3b0b2a28	0.0021234844
5	0xb0802675	-9.324156e-10
6	0x249500da	6.461989e-17
7	0xb503365d	-4.888041e-07
8	0x3d87ff42	0.066404834
9	0xb12f32bf	-2.5494697e-09
10	0x3dedae7d	0.116055466
11	0x33336515	4.176862e-08
12	0x3586f090	1.0053791e-06
13	0x2242bd1d	2.6392018e-18
14	0x3d21a924	0.039467946
15	0xb089d2df	-1.0027995e-09

encoder3.features.1.bias f4 [16]
0	0xb14c775f	-2.9753762e-09
1	0xa502cda3	-1.1345375e-16
2	0xa9462d11	-4.400392e-14
3	0xa4bdcb5e	-8.23102e-17
4	0xba8d549d	-0.0010782663
5	0xa8a160cd	-1.7916571e-14
6	0x9920bac6	-8.309525e-24
7	0xafa27665	-2.9551753e-10
8	0xbe00a818	-0.12564123
9	0xb151a7e3	-3.0508935e-09
10	0x3e0608f5	0.13089354
11	0xadc68811	-2.257042e-11
12	0xb1d083a1	-6.068561e-09
13	0x962fed64	-1.4211295e-25
14	0x3e9bd832	0.3043838
15	0xa5c9fc52	-3.503892e-16

encoder3.features.1.running_mean f4 [16]
0	0x3265a8e9	1.336796e-08
1	0x1276f7f9	7.7929563e-28
2	0x06f1a02f	9.0889493e-35
3	0xaba6a802	-1.1841641e-12
4	0x381b38d7	3.7007816e-05
5	0xa8ab2662	-1.900146e-14
6	0x998cc291	-1.4554245e-23
7	0x341ddf88	1.4703085e-07
8	0x3c7f19f2	0.015570151
9	0x9841489f	-2.498133e-24
10	0x3d550368	0.0520052
11	0x80000d1f	-4.707e-42
12	0xab81ac30	-9.213793e-13
13	0x14abf261	1.7362189e-26
14	0xbcffc6e2	-0.031222764
15	0x2fa25f1c	2.9535208e-10

encoder3.features.1.running_var f4 [16]
0	0x269cd4d9	1.0882367e-15
1	0x00000004	6e-45
2	0x00000004	6e-45
3	0x19f6c208	2.5514172e-23
4	0x30cb5426	1.479411e-09
5	0x132c2709	2.1728698e-27
6	0x00000004	6e-45
7	0x289d8852	1.7489621e-14
8	0x3a063210	0.0005119154
9	0x00000004	6e-45
10	0x3b90e61b	0.004421962
11	0x00000004	6e-45
12	0x18c61df4	5.1212045e-24
13	0x00000004	6e-45
14	0x3b11bb45	0.0022236865
15	0x212a9a61	5.780256e-19

encoder4.features.0.weight f4 [32, 16, 3, 3]
0	0x00001546	7.631e-42
1	0x80001796	-8.461e-42
2	0x00002129	1.1896e-41
3	0x00001279	6.627e-42
4	0x000017cf	8.541e-42
5	0x00001288	6.648e-42
6	0x00001b41	9.777e-42
7	0x0000095a	3.355e-42
8	0x00001604	7.898e-42
9	0x800019e6	-9.29e-42
10	0x00000249	8.2e-43
11	0x8000240f	-1.2935e-41
12	0x80001c89	-1.0236e-41
13	0x000006fa	2.503e-42
14	0x8000007e	-1.77e-43
15	0x80002343	-1.265e-41
16	0x0000089c	3.088e-42
17	0x800011f5	-6.442e-42
18	0x8000150c	-7.55e-42
19	0x800022dc	-1.2505e-41
20	0x0000204d	1.1587e-41
21	0x00000edb	5.329e-42
22	0x800012b0	-6.704e-42
23	0x80000c9e	-4.526e-42
24	0x0000249d	1.3134e-41
25	0x00000870	3.027e-42
26	0x800017b1	-8.499e-42
27	0x800002f8	-1.065e-42
28	0x00000ce8	4.63e-42
29	0x00001236	6.533e-42
30	0x80000cef	-4.64e-42
31	0x000005df	2.106e-42
32	0x00000387	1.265e-42
33	0x00001b75	9.85e-42
34	0x800001ff	-7.16e-43
35	0x00002227	1.2252e-41
36	0x00000bec	4.277e-42
37	0x800021dc	-1.2146e-41
38	0x80001e0f	-1.0783e-41
39	0x800008e6	-3.192e-42
40	0x80001d99	-1.0618e-41
41	0x000010cf	6.03e-42
42	0x80000d7e	-4.84e-42
43	0x0000032c	1.138e-42
44	0x80000afd	-3.942e-42
45	0x000007f7	2.857e-42
46	0x0000023f	8.06e-43
47	0x000022ba	1.2458e-41
48	0x80002041	-1.157e-41
49	0x80001cb5	-1.0298e-41
50	0x00001b61	9.822e-42
51	0x800012ee	-6.79e-42
52	0x000002fb	1.069e-42
53	0x80001f57	-1.1243e-41
54	0x8000063d	-2.238e-42
55	0x800006ea	-2.48e-42
56	0x00000d70	4.82e-42
57	0x8000043e	-1.522e-42
58	0x80001d48	-1.0504e-41
59	0x00001321	6.862e-42
60	0x80000f46	-5.479e-42
61	0x8000196f	-9.124e-42
62	0x0000240f	1.2935e-41
63	0x00001d48	1.0504e-41
64	0x80000c65	-4.446e-42
65	0x00000b55	4.065e-42
66	0x80001c00	-1.0045e-41
67	0x00000715	2.54e-42
68	0x0000145d	7.305e-42
69	0x80001937	-9.045e-42
70	0x00000dd3	4.959e-42
71	0x000019d7	9.27e-42
72	0x00000405	1.442e-42
73	0x000016f6	8.237e-42
74	0x000003b9	1.335e-42
75	0x800016b4	-8.144e-42
76	0x000012b0	6.704e-42
77	0x80000f5d	-5.511e-42
78	0x000006f5	2.496e-42
79	0x000020c9	1.1761e-41
80	0x80000162	-4.96e-43
81	0x800020f7	-1.1826e-41
82	0x00000d57	4.785e-42
83	0x000002fd	1.072e-42
84	0x000012d4	6.754e-42
85	0x800012e8	-6.782e-42
86	0x80000f1b	-5.419e-42
87	0x80002081	-1.166e-41
88	0x80000c91	-4.508e-42
89	0x00000a82	3.77e-42
90	0x80000f90	-5.583e-42
91	0x000005c6	2.071e-42
92	0x00000755	2.63e-42
93	0x000015dd	7.843e-42
94	0x000016d6	8.192e-42
95	0x8000221b	-1.2235e-41
96	0x0000080f	2.891e-42
97	0x800021c8	-1.2118e-41
98	0x00000200	7.17e-43
99	0x80000edb	-5.329e-42
100	0x00001875	8.774e-42
101	0x80000963	-3.367e-42
102	0x000010a8	5.975e-42
103	0x80000abf	-3.855e-42
104	0x00002361	1.2692e-41
105	0x80001ce1	-1.036e-41
106	0x000004f2	1.774e-42
107	0x000003dd	1.386e-42
108	0x80001342	-6.908e-42
109	0x000000fc	3.53e-43
110	0x8000032d	-1.139e-42
111	0x80000c38	-4.383e-42
112	0x80001990	-9.17e-42
113	0x00001904	8.974e-42
114	0x00001f4f	1.1231e-41
115	0x00000fd3	5.677e-42
116	0x00001b4d	9.794e-42
117	0x0000177a	8.422e-42
118	0x80001bfc	-1.0039e-41
119	0x00001783	8.434e-42
120	0x80001188	-6.289e-42
121	0x800002e5	-1.038e-42
122	0x800007ac	-2.752e-42
123	0x8000247d	-1.309e-41
124	0x800016f7	-8.238e-42
125	0x80001b72	-9.846e-42
126	0x0000231f	1.2599e-41
127	0x80000658	-2.276e-42
128	0x8000106c	-5.891e-42
129	0x0000218b	1.2033e-41
130	0x8000242f	-1.298e-41
131	0x000001c5	6.35e-43
132	0x80000c0e	-4.324e-42
133	0x000024e8	1.324e-41
134	0x0000250e	1.3293e-41
135	0x800021ec	-1.2169e-41
136	0x80000190	-5.6e-43
137	0x00001b8e	9.885e-42
138	0x000010ef	6.075e-42
139	0x800016bb	-8.154e-42
140	0x00001b70	9.843e-42
141	0x00000f04	5.387e-42
142	0x00001ad6	9.627e-42
143	0x00000d7b	4.836e-42
144	0x80001eb4	-1.1014e-41
145	0x000015fb	7.885e-42
146	0x00001c65	1.0186e-41
147	0x00000f24	5.431e-42
148	0x800001a9	-5.96e-43
149	0x80001389	-7.008e-42
150	0x00000302	1.079e-42
151	0x000001d0	6.5e-43
152	0x00000156	4.79e-43
153	0x8000167a	-8.063e-42
154	0x0000044b	1.54e-42
155	0x00000927	3.283e-42
156	0x00000d84	4.848e-42
157	0x80000f2e	-5.445e-42
158	0x00000a6c	3.739e-42
159	0x8000104c	-5.846e-42
160	0x80002384	-1.274e-41
161	0x8000126d	-6.61e-42
162	0x00000a94	3.795e-42
163	0x800020d2	-1.1774e-41
164	0x00000e3b	5.105e-42
165	0x800011f4	-6.44e-42
166	0x00001847	8.709e-42
167	0x0000094f	3.339e-42
168	0x80001b01	-9.687e-42
169	0x0000116e	6.253e-42
170	0x000021be	1.2104e-41
171	0x80000a71	-3.746e-42
172	0x00001e7a	1.0933e-41
173	0x0000087b	3.042e-42
174	0x80001622	-7.94e-42
175	0x8000193a	-9.05e-42
176	0x80000fda	-5.686e-42
177	0x80000135	-4.33e-43
178	0x80000ef3	-5.363e-42
179	0x00001158	6.222e-42
180	0x8000040b	-1.45e-42
181	0x00000c8a	4.498e-42
182	0x80000203	-7.22e-43
183	0x8000140d	-7.193e-42
184	0x800006dd	-2.462e-42
185	0x00002136	1.1914e-41
186	0x8000025a	-8.44e-43
187	0x00002022	1.1527e-41
188	0x00000c7f	4.483e-42
189	0x80001ea3	-1.099e-41
190	0x80001403	-7.179e-42
191	0x80000460	-1.57e-42
192	0x800016e5	-8.213e-42
193	0x00001594	7.741e-42
194	0x000021a9	1.2075e-41
195	0x0000040c	1.452e-42
196	0x80000c11	-4.329e-42
197	0x000006e8	2.477e-42
198	0x80000c93	-4.511e-42
199	0x80001dda	-1.0709e-41
200	0x80000991	-3.432e-42
201	0x8000218f	-1.2039e-41
202	0x80000a66	-3.73e-42
203	0x00000f41	5.472e-42
204	0x80001dbc	-1.0667e-41
205	0x00000e08	5.033e-42
206	0x8000026e	-8.72e-43
207	0x8000237a	-1.2727e-41
208	0x00000915	3.258e-42
209	0x800000af	-2.45e-43
210	0x80001e42	-1.0854e-41
211	0x80001213	-6.484e-42
212	0x8000147b	-7.347e-42
213	0x80002351	-1.2669e-41
214	0x00001889	8.802e-42
215	0x80000ab6	-3.842e-42
216	0x00001d7a	1.0574e-41
217	0x000000c2	2.72e-43
218	0x8000169d	-8.112e-42
219	0x80001a74	-9.49e-42
220	0x000013aa	7.054e-42
221	0x00001895	8.818e-42
222	0x800005fb	-2.145e-42
223	0x0000058f	1.994e-42
224	0x00002225	1.2249e-41
225	0x8000081a	-2.906e-42
226	0x00001692	8.097e-42
227	0x00001f06	1.1129e-41
228	0x800017da	-8.556e-42
229	0x80002106	-1.1847e-41
230	0x800017a1	-8.476e-42
231	0x0000079c	2.73e-42
232	0x80001920	-9.013e-42
233	0x800022e3	-1.2515e-41
234	0x00000a42	3.68e-42
235	0x00001d1f	1.0447e-41
236	0x00000e92	5.227e-42
237	0x00001e0b	1.0777e-41
238	0x00001094	5.947e-42
239	0x00002310	1.2578e-41
240	0x00000ae5	3.908e-42
241	0x00000287	9.07e-43
242	0x000094e0	5.3406e-41
243	0x800005e3	-2.112e-42
244	0x0000005b	1.28e-43
245	0x00000a4a	3.691e-42
246	0x8000219e	-1.206e-41
247	0x000010f2	6.079e-42
248	0x0000096d	3.381e-42
249	0x80000b06	-3.954e-42
250	0x8000108d	-5.937e-42
251	0x80000183	-5.42e-43
252	0x00000411	1.459e-42
253	0x800002d7	-1.019e-42
254	0x800019df	-9.281e-42
255	0x800013e9	-7.142e-42

encoder4.features.0.bias f4 [32]
0	0x8000187a	-8.78e-42
1	0x80001230	-6.524e-42
2	0x80004905	-2.6194e-41
3	0x371332ec	8.773739e-06
4	0x000014eb	7.504e-42
5	0x80004bd0	-2.7196e-41
6	0x0000729e	4.1117e-41
7	0x8000079b	-2.728e-42
8	0x800027ab	-1.423e-41
9	0x00003769	1.9877e-41
10	0x800025ac	-1.3514e-41
11	0x800024a4	-1.3144e-41
12	0x35d3675b	1.5750805e-06
13	0x0000618d	3.4995e-41
14	0x000013a6	7.049e-42
15	0x800025f6	-1.3618e-41
16	0x80001d83	-1.0587e-41
17	0x80007357	-4.1376e-41
18	0x8000294f	-1.4819e-41
19	0x00005459	3.0258e-41
20	0x80001f5b	-1.1248e-41
21	0x00005bed	3.2977e-41
22	0x0000246f	1.307e-41
23	0xb7be291d	-2.266891e-05
24	0x800029d1	-1.5001e-41
25	0x00000db5	4.917e-42
26	0x00002b01	1.5427e-41
27	0x00004337	2.4112e-41
28	0x800035d7	-1.9314e-41
29	0x800040ad	-2.3201e-41
30	0x00002f5e	1.6992e-41
31	0x80003993	-2.0654e-41

encoder4.features.1.weight f4 [32]
0	0x0000199c	9.187e-42
1	0xa829753a	-9.406804e-15
2	0x80000ae0	-3.901e-42
3	0x3e726329	0.23670639
4	0x1090769d	5.698074e-29
5	0x8aad05f9	-1.666154e-32
6	0xa62d5f97	-6.015098e-16
7	0x000019ec	9.299e-42
8	0x800008ad	-3.112e-42
9	0x9788be69	-8.83686e-25
10	0x893d04d0	-2.275231e-33
11	0x1c0a05fd	4.566811e-22
12	0xbe042fda	-0.12908879
13	0xa73cc4b2	-2.619687e-15
14	0x130c88bf	1.7737905e-27
15	0x00001a85	9.513e-42
16	0x00008cd9	5.0527e-41
17	0xbc6693a5	-0.014073287
18	0x00001d18	1.0437e-41
19	0xb7c54e1d	-2.3520604e-05
20	0x8fb219a2	-1.7562029e-29
21	0x866dd2f6	-4.4729735e-35
22	0x1439b925	9.3766264e-27
23	0x3df24826	0.118301675
24	0xae86425f	-6.1054044e-11
25	0xaf310d97	-1.6102884e-10
26	0x2ce34582	6.459445e-12
27	0xb695d4eb	-4.465333e-06
28	0x00000496	1.645e-42
29	0x9bbcf3b3	-3.1259478e-22
30	0x05ea020a	2.2006003e-35
31	0x00000a01	3.589e-42

encoder4.features.1.bias f4 [32]
0	0x89df1318	-5.3703253e-33
1	0x9bcc45a1	-3.3793966e-22
2	0x8b88773a	-5.2564687e-32
3	0x3ec2466b	0.3794435
4	0x99d26358	-2.1753616e-23
5	0x97005dd0	-4.147744e-25
6	0x9e65e8a8	-1.2171271e-20
7	0x8baeaf65	-6.7286266e-32
8	0x9835c4fd	-2.3493155e-24
9	0x8ad6dea5	-2.06912e-32
10	0x91dfaf75	-3.529133e-28
11	0xa0163da6	-1.2725892e-19
12	0x3dec47b8	0.11537117
13	0x9648cc02	-1.6220245e-25
14	0x9daf0300	-4.6325216e-21
15	0x9835790a	-2.345481e-24
16	0x972ae76d	-5.5222063e-25
17	0xbd05d835	-0.032676894
18	0x85b51296	-1.7027986e-35
19	0xb8313b1e	-4.2255146e-05
20	0x9bdfe5b2	-3.7040692e-22
21	0x8ca060fc	-2.4710274e-31
22	0x8a8048e6	-1.2353373e-32
23	0x3d92a6ee	0.071607456
24	0xa570b00a	-2.0876326e-16
25	0xabecf89e	-1.6837814e-12
26	0x9e084a0f	-7.215095e-21
27	0x9b2fe94d	-1.4551044e-22
28	0x86c9dcef	-7.593243e-35
29	0x98147f11	-1.9192704e-24
30	0x922a90aa	-5.3820854e-28
31	0x8fadf7f3	-1.7154624e-29

encoder4.features.1.running_mean f4 [32]
0	0x8000028b	-9.12e-43
1	0x00006184	3.4982e-41
2	0x800005cb	-2.078e-42
3	0x3e1d31b0	0.15350986
4	0x800019fb	-9.32e-42
5	0x800028d0	-1.4641e-41
6	0x0605dd27	2.5176997e-35
7	0x8000453d	-2.4838e-41
8	0x000007a2	2.738e-42
9	0x000001b0	6.05e-43
10	0x0000058c	1.99e-42
11	0x80001194	-6.306e-42
12	0xbbb32e24	-0.005468147
13	0x02b8d8af	2.716074e-37
14	0x80001167	-6.243e-42
15	0x80000530	-1.861e-42
16	0x800019f3	-9.309e-42
17	0x3cf46449	0.029832976
18	0x00000cbc	4.568e-42
19	0xa89de1e0	-1.7528459e-14
20	0x80001d26	-1.0456e-41
21	0x80002ea5	-1.6733e-41
22	0x800004cf	-1.725e-42
23	0xbdf3f46f	-0.119118564
24	0x00004e77	2.8148e-41
25	0x00001081	5.92e-42
26	0x00002196	1.2048e-41
27	0x00000c14	4.333e-42
28	0x800008d1	-3.163e-42
29	0x00002870	1.4506e-41
30	0x800011b8	-6.356e-42
31	0x00000dfd	5.018e-42

encoder4.features.1.running_var f4 [32]
0	0x00000004	6e-45
1	0x00000004	6e-45
2	0x00000004	6e-45
3	0x3bae513c	0.0053197425
4	0x00000004	6e-45
5	0x00000004	6e-45
6	0x00000004	6e-45
7	0x00000004	6e-45
8	0x00000004	6e-45
9	0x00000004	6e-45
10	0x00000004	6e-45
11	0x00000004	6e-45
12	0x3a423b90	0.0007409388
13	0x00000004	6e-45
14	0x00000004	6e-45
15	0x00000004	6e-45
16	0x00000004	6e-45
17	0x3a6421c2	0.000870254
18	0x00000004	6e-45
19	0x0ffc96dc	2.4907227e-29
20	0x00000004	6e-45
21	0x00000004	6e-45
22	0x00000004	6e-45
23	0x3aa26a8b	0.0012391371
24	0x00000004	6e-45
25	0x00000004	6e-45
26	0x00000004	6e-45
27	0x00000004	6e-45
28	0x00000004	6e-45
29	0x00000004	6e-45
30	0x00000004	6e-45
31	0x00000004	6e-45

encoder5.features.0.weight f4 [64, 32, 3, 3]
0	0x80000d08	-4.675e-42
1	0x80002067	-1.1624e-41
2	0x0000095b	3.356e-42
3	0x80000ca0	-4.529e-42
4	0x800006e1	-2.468e-42
5	0x00001ac9	9.609e-42
6	0x800012c0	-6.726e-42
7	0x000013aa	7.054e-42
8	0x800010e7	-6.063e-42
9	0x800022b4	-1.2449e-41
10	0x0000066f	2.308e-42
11	0x000019bd	9.233e-42
12	0x000014be	7.441e-42
13	0x80002172	-1.1998e-41
14	0x80001a95	-9.536e-42
15	0x00000296	9.28e-43
16	0x00000a2c	3.649e-42
17	0x80000619	-2.187e-42
18	0x80001d61	-1.0539e-41
19	0x000021be	1.2104e-41
20	0x800010fc	-6.093e-42
21	0x800027ce	-1.4279e-41
22	0x000001f0	6.95e-43
23	0x80002bf4	-1.5767e-41
24	0x80001125	-6.15e-42
25	0x00001799	8.465e-42
26	0x000021cd	1.2125e-41
27	0x00000cb5	4.558e-42
28	0x800009d4	-3.526e-42
29	0x80002672	-1.3792e-41
30	0x00001a82	9.509e-42
31	0x00000c56	4.425e-42
32	0x8000203c	-1.1564e-41
33	0x000002f5	1.061e-42
34	0x00000690	2.354e-42
35	0x80000220	-7.62e-43
36	0x000007cd	2.798e-42
37	0x000020c6	1.1757e-41
38	0x00000806	2.878e-42
39	0x80001872	-8.77e-42
40	0x00001d6d	1.0556e-41
41	0x00002286	1.2385e-41
42	0x00001101	6.1e-42
43	0x800012c7	-6.736e-42
44	0x800002ae	-9.61e-43
45	0x00001eb8	1.102e-41
46	0x00000421	1.481e-42
47	0x0000061c	2.192e-42
48	0x800020b5	-1.1733e-41
49	0x80000711	-2.535e-42
50	0x80001b01	-9.687e-42
51	0x80000749	-2.613e-42
52	0x8000064f	-2.263e-42
53	0x800001a2	-5.86e-43
54	0x000023ea	1.2884e-41
55	0x000010c1	6.01e-42
56	0x0000088b	3.065e-42
57	0x00000d80	4.843e-42
58	0x80002a5a	-1.5193e-41
59	0x800009d2	-3.523e-42
60	0x8000286f	-1.4505e-41
61	0x0000101a	5.776e-42
62	0x80000de4	-4.983e-42
63	0x0000265f	1.3765e-41
64	0x80001887	-8.799e-42
65	0x0000196f	9.124e-42
66	0x80001015	-5.769e-42
67	0x80001c5c	-1.0173e-41
68	0x00001bd4	9.983e-42
69	0x80001807	-8.62e-42
70	0x00001d1b	1.0441e-41
71	0x80000669	-2.3e-42
72	0x80002466	-1.3057e-41
73	0x000004ad	1.677e-42
74	0x8000052c	-1.855e-42
75	0x80001a27	-9.382e-42
76	0x0000181c	8.649e-42
77	0x80000497	-1.647e-42
78	0x8000138f	-7.016e-42
79	0x80000b79	-4.116e-42
80	0x8000251c	-1.3312e-41
81	0x80002530	-1.334e-41
82	0x00002724	1.4041e-41
83	0x00000932	3.299e-42
84	0x80001a33	-9.399e-42
85	0x80000656	-2.273e-42
86	0x800017f9	-8.6e-42
87	0x80002151	-1.1952e-41
88	0x00000acc	3.873e-42
89	0x800021a7	-1.2072e-41
90	0x800026eb	-1.3961e-41
91	0x80001837	-8.687e-42
92	0x00000377	1.243e-42
93	0x80001ea6	-1.0995e-41
94	0x000005f3	2.134e-42
95	0x000004f0	1.771e-42
96	0x80001af2	-9.666e-42
97	0x80002478	-1.3083e-41
98	0x800002d7	-1.019e-42
99	0x0000107b	5.912e-42
100	0x0000047e	1.611e-42
101	0x8000242a	-1.2973e-41
102	0x80000e33	-5.094e-42
103	0x00001f14	1.1149e-41
104	0x00001542	7.626e-42
105	0x8000021e	-7.6e-43
106	0x00001735	8.325e-42
107	0x800006d5	-2.451e-42
108	0x00000fbb	5.643e-42
109	0x80001062	-5.877e-42
110	0x0000251a	1.331e-41
111	0x80001b09	-9.698e-42
112	0x00001bb2	9.935e-42
113	0x00001e23	1.0811e-41
114	0x00002458	1.3038e-41
115	0x000020f4	1.1821e-41
116	0x000009d5	3.527e-42
117	0x80002607	-1.3642e-41
118	0x80002608	-1.3643e-41
119	0x00002341	1.2647e-41
120	0x800019ab	-9.208e-42
121	0x8000288d	-1.4547e-41
122	0x00002525	1.3325e-41
123	0x8000024a	-8.21e-43
124	0x80001041	-5.831e-42
125	0x8000020b	-7.33e-43
126	0x00002392	1.276e-41
127	0x800024d1	-1.3207e-41
128	0x80002040	-1.1569e-41
129	0x00001cad	1.0287e-41
130	0x800008aa	-3.108e-42
131	0x800022cc	-1.2483e-41
132	0x00000e10	5.045e-42
133	0x00000d57	4.785e-42
134	0x8000259d	-1.3493e-41
135	0x00002992	1.4913e-41
136	0x000025cc	1.3559e-41
137	0x000017dc	8.559e-42
138	0x80001ecc	-1.1048e-41
139	0x8000199b	-9.186e-42
140	0x000009c5	3.505e-42
141	0x800002c5	-9.94e-43
142	0x80001fc6	-1.1398e-41
143	0x0000031f	1.12e-42
144	0x80000d69	-4.81e-42
145	0x800023db	-1.2863e-41
146	0x00001c5e	1.0176e-41
147	0x00001a82	9.509e-42
148	0x800000e8	-3.25e-43
149	0x00001ab5	9.58e-42
150	0x000016a6	8.125e-42
151	0x80000eec	-5.353e-42
152	0x80000c03	-4.309e-42
153	0x800003ea	-1.404e-42
154	0x0000072d	2.574e-42
155	0x80002608	-1.3643e-41
156	0x00001884	8.795e-42
157	0x80000208	-7.29e-43
158	0x00000564	1.934e-42
159	0x80000636	-2.228e-42
160	0x00001dea	1.0731e-41
161	0x00001716	8.282e-42
162	0x00002021	1.1526e-41
163	0x00002660	1.3766e-41
164	0x80002a34	-1.514e-41
165	0x800028df	-1.4662e-41
166	0x800007c2	-2.783e-42
167	0x00000bad	4.188e-42
168	0x00002e33	1.6573e-41
169	0x80000975	-3.393e-42
170	0x000009d2	3.523e-42
171	0x800018d6	-8.91e-42
172	0x800011f6	-6.443e-42
173	0x00000d6c	4.815e-42
174	0x80001c84	-1.023e-41
175	0x000024e3	1.3232e-41
176	0x00000ae7	3.911e-42
177	0x00000d16	4.694e-42
178	0x80002132	-1.1908e-41
179	0x00001f5b	1.1248e-41
180	0x0000116f	6.254e-42
181	0x800015d1	-7.826e-42
182	0x80002259	-1.2322e-41
183	0x00001ccb	1.0329e-41
184	0x00001de8	1.0728e-41
185	0x8000069c	-2.371e-42
186	0x800011c9	-6.38e-42
187	0x8000249d	-1.3134e-41
188	0x8000096d	-3.381e-42
189	0x80000fb6	-5.636e-42
190	0x000021ef	1.2173e-41
191	0x80001046	-5.838e-42
192	0x00001881	8.79e-42
193	0x0000205c	1.1608e-41
194	0x80002484	-1.31e-41
195	0x8000210b	-1.1854e-41
196	0x80001e0e	-1.0782e-41
197	0x80001006	-5.748e-42
198	0x00002884	1.4534e-41
199	0x00000af9	3.936e-42
200	0x00001aff	9.684e-42
201	0x8000287f	-1.4527e-41
202	0x00002394	1.2763e-41
203	0x000028da	1.4655e-41
204	0x80001b72	-9.846e-42
205	0x000020fd	1.1834e-41
206	0x80000ab5	-3.841e-42
207	0x800004f6	-1.78e-42
208	0x00001fc0	1.139e-41
209	0x80001dd5	-1.0702e-41
210	0x80001fb0	-1.1367e-41
211	0x80001d6c	-1.0555e-41
212	0x80001c35	-1.0119e-41
213	0x00000cfb	4.657e-42
214	0x800021a5	-1.207e-41
215	0x00001307	6.826e-42
216	0x80002678	-1.38e-41
217	0x800009b1	-3.477e-42
218	0x80002713	-1.4017e-41
219	0x0000207a	1.165e-41
220	0x800014d9	-7.479e-42
221	0x000000e9	3.27e-43
222	0x00000076	1.65e-43
223	0x800023c6	-1.2833e-41
224	0x8000076c	-2.662e-42
225	0x00001e56	1.0882e-41
226	0x0000021e	7.6e-43
227	0x800017c7	-8.53e-42
228	0x800025d6	-1.3573e-41
229	0x80002064	-1.162e-41
230	0x00001da2	1.063e-41
231	0x80000cba	-4.565e-42
232	0x000000ed	3.32e-43
233	0x80000d9f	-4.886e-42
234	0x00001ac7	9.606e-42
235	0x80002120	-1.1883e-41
236	0x0000155b	7.661e-42
237	0x80002406	-1.2923e-41
238	0x00002136	1.1914e-41
239	0x80001c00	-1.0045e-41
240	0x00001e4b	1.0867e-41
241	0x0000177c	8.425e-42
242	0x00000624	2.203e-42
243	0x800021a3	-1.2067e-41
244	0x000001ff	7.16e-43
245	0x000018ae	8.853e-42
246	0x00001164	6.239e-42
247	0x00001236	6.533e-42
248	0x000011e9	6.425e-42
249	0x0000187c	8.783e-42
250	0x00002479	1.3084e-41
251	0x0000063f	2.24e-42
252	0x00001e3e	1.0849e-41
253	0x000003db	1.383e-42
254	0x00000ac4	3.862e-42
255	0x00001e2a	1.0821e-41

encoder5.features.0.bias f4 [64]
0	0x800004e8	-1.76e-42
1	0x80004793	-2.5676e-41
2	0x000012ac	6.698e-42
3	0x80005458	-3.0257e-41
4	0x80003590	-1.9215e-41
5	0x80005b73	-3.2806e-41
6	0x80000e9f	-5.245e-42
7	0x8000610e	-3.4817e-41
8	0x80004af6	-2.6891e-41
9	0x80001407	-7.184e-42
10	0x8000799f	-4.363e-41
11	0x000004d5	1.733e-42
12	0x800017b2	-8.5e-42
13	0x80003a4a	-2.091e-41
14	0x000041a9	2.3554e-41
15	0x00003461	1.879e-41
16	0x0000250e	1.3293e-41
17	0x80000138	-4.37e-43
18	0x00003940	2.0537e-41
19	0x80007c91	-4.4686e-41
20	0x0000264a	1.3736e-41
21	0x8000422c	-2.3738e-41
22	0x00001d15	1.0433e-41
23	0x8000451d	-2.4793e-41
24	0x000078c1	4.3318e-41
25	0x80003766	-1.9873e-41
26	0x00000cf1	4.643e-42
27	0x000057d8	3.1512e-41
28	0x00003c6f	2.168e-41
29	0x0000154a	7.637e-42
30	0x000009af	3.474e-42
31	0x800041f8	-2.3665e-41
32	0x80002730	-1.4058e-41
33	0x000017e9	8.577e-42
34	0x800075eb	-4.2301e-41
35	0x000051d1	2.935e-41
36	0x8000113d	-6.184e-42
37	0x80004ba5	-2.7136e-41
38	0x8000248a	-1.3108e-41
39	0x00002ff3	1.7201e-41
40	0x00006295	3.5365e-41
41	0x800050eb	-2.9028e-41
42	0x000025a3	1.3502e-41
43	0x80004e69	-2.8128e-41
44	0x00000cd1	4.598e-42
45	0x80003586	-1.92e-41
46	0xb6113734	-2.1638816e-06
47	0x000015f3	7.874e-42
48	0x800015a8	-7.769e-42
49	0x80004722	-2.5518e-41
50	0x80002bdc	-1.5734e-41
51	0x00002130	1.1905e-41
52	0x80004604	-2.5117e-41
53	0x800052c4	-2.9691e-41
54	0x80000d0b	-4.679e-42
55	0x80006450	-3.5985e-41
56	0x00002b52	1.554e-41
57	0x3612bb2e	2.1864648e-06
58	0x8000608f	-3.4639e-41
59	0x0000415f	2.3451e-41
60	0x00001a01	9.328e-42
61	0x80002b87	-1.5615e-41
62	0x1b18368d	1.2590772e-22
63	0x800080e5	-4.6239e-41

encoder5.features.1.weight f4 [64]
0	0x00000f56	5.501e-42
1	0x18e5e485	5.942586e-24
2	0x800019b7	-9.225e-42
3	0x80000b2f	-4.012e-42
4	0x80001a33	-9.399e-42
5	0x000730de	6.60379e-40
6	0x91a2de70	-2.569618e-28
7	0x000019eb	9.298e-42
8	0x000021fb	1.219e-41
9	0x00001732	8.321e-42
10	0x000013fd	7.17e-42
11	0x3ad74106	0.0016422577
12	0x00000ace	3.876e-42
13	0x3636047c	2.7122724e-06
14	0x80002062	-1.1617e-41
15	0x00000e76	5.188e-42
16	0x80000733	-2.583e-42
17	0x000018e2	8.926e-42
18	0x0be6e886	8.894264e-32
19	0x80000d37	-4.74e-42
20	0x800003c1	-1.347e-42
21	0x00000110	3.81e-43
22	0x80001b60	-9.82e-42
23	0x39f1365f	0.00046007612
24	0x80000402	-1.438e-42
25	0x25420bc5	1.6830805e-16
26	0x0000056d	1.946e-42
27	0x000018c8	8.89e-42
28	0x80000ae3	-3.905e-42
29	0x000016fb	8.244e-42
30	0x8000106b	-5.89e-42
31	0x80001cff	-1.0402e-41
32	0x00000066	1.43e-43
33	0x80001958	-9.092e-42
34	0x2011d0a6	1.2351014e-19
35	0x00001830	8.677e-42
36	0x85a1b3f5	-1.5206473e-35
37	0x3c385da7	0.011252797
38	0x00000444	1.53e-42
39	0x00001b74	9.848e-42
40	0x800012e8	-6.782e-42
41	0x9df9cd1f	-6.612184e-21
42	0x8000228e	-1.2396e-41
43	0x9e1652fd	-7.9580955e-21
44	0x80000937	-3.306e-42
45	0x800008bf	-3.138e-42
46	0x3e840cfb	0.25791153
47	0x80001556	-7.654e-42
48	0x91af9377	-2.7701014e-28
49	0x80001a93	-9.533e-42
50	0x0000130a	6.83e-42
51	0x8000076e	-2.665e-42
52	0x800022a3	-1.2425e-41
53	0x80000817	-2.902e-42
54	0x0000010e	3.78e-43
55	0x37140d97	8.824652e-06
56	0x80000a4c	-3.694e-42
57	0x3f011df1	0.5043631
58	0x80001d59	-1.0528e-41
59	0x800010ea	-6.068e-42
60	0x80001160	-6.233e-42
61	0x00000fac	5.622e-42
62	0x30bca56e	1.3725818e-09
63	0x80001fd6	-1.142e-41

encoder5.features.1.bias f4 [64]
0	0x0000057c	1.967e-42
1	0x8000fcd3	-9.0696e-41
2	0x00001a5a	9.453e-42
3	0x8000012c	-4.2e-43
4	0x8000228a	-1.239e-41
5	0x924ec820	-6.524881e-28
6	0x835211ee	-6.1734036e-37
7	0x889fd1de	-9.618804e-34
8	0x80000bdd	-4.256e-42
9	0x0000152b	7.594e-42
10	0x838c4c4b	-8.2459765e-37
11	0xb42a9b37	-1.588895e-07
12	0x05154f1e	7.020478e-36
13	0xa6913b11	-1.0077406e-15
14	0x80000580	-1.973e-42
15	0x00002274	1.236e-41
16	0x80002334	-1.2629e-41
17	0x800014bf	-7.442e-42
18	0x902006f1	-3.1559784e-29
19	0x80001ba6	-9.918e-42
20	0x0ad07c16	2.0076347e-32
21	0x00002098	1.1692e-41
22	0x00000981	3.41e-42
23	0xb02e81d3	-6.348532e-10
24	0x80000171	-5.17e-43
25	0x971aa129	-4.9963496e-25
26	0x9206a866	-4.249051e-28
27	0x80000b54	-4.064e-42
28	0x000018c9	8.891e-42
29	0x80001ae8	-9.652e-42
30	0x8000196a	-9.117e-42
31	0x800023c2	-1.2827e-41
32	0x0a477c9b	9.604937e-33
33	0x8c88dc46	-2.108669e-31
34	0x931e5303	-1.9983332e-27
35	0x840726f3	-1.5887058e-36
36	0x8f5263fa	-1.0373054e-29
37	0xbaf0fc99	-0.0018385827
38	0x0000001c	3.9e-44
39	0x80000a93	-3.793e-42
40	0x0541c85d	9.111617e-36
41	0x921a4130	-4.867418e-28
42	0x80001061	-5.876e-42
43	0x81dac532	-8.0363514e-38
44	0x000022ff	1.2554e-41
45	0x00000e36	5.098e-42
46	0x3e7828f0	0.24234366
47	0x8000216f	-1.1994e-41
48	0x918ca299	-2.2188314e-28
49	0x00000d65	4.805e-42
50	0x0000072e	2.576e-42
51	0x00001f27	1.1175e-41
52	0x86affbe2	-6.619779e-35
53	0x8b0cdcb9	-2.7129072e-32
54	0x80001a1d	-9.368e-42
55	0xa2a8fe89	-4.580599e-18
56	0x80002541	-1.3364e-41
57	0x3eef4068	0.46728826
58	0x8334d895	-5.314587e-37
59	0x0000149d	7.395e-42
60	0x00000d88	4.854e-42
61	0x80001169	-6.246e-42
62	0x2bd5385e	1.5150205e-12
63	0x91c5b0d8	-3.1190108e-28

encoder5.features.1.running_mean f4 [64]
0	0x00002a91	1.527e-41
1	0x000009a9	3.465e-42
2	0x00003fb3	2.2851e-41
3	0x000024b4	1.3167e-41
4	0x80000eb6	-5.277e-42
5	0x000007cb	2.796e-42
6	0x800018f2	-8.949e-42
7	0x80001e7e	-1.0939e-41
8	0x000031b3	1.7829e-41
9	0x000008c3	3.143e-42
10	0x000000ac	2.41e-43
11	0x2dfa9fc8	2.8492667e-11
12	0x800001aa	-5.97e-43
13	0xa03b93b3	-1.5888386e-19
14	0x800016b4	-8.144e-42
15	0x00003450	1.8766e-41
16	0x80000ce6	-4.627e-42
17	0x80003cc9	-2.1806e-41
18	0x800014b9	-7.434e-42
19	0x8000276c	-1.4142e-41
20	0x800011e7	-6.422e-42
21	0x00001622	7.94e-42
22	0x000024a0	1.3139e-41
23	0x2e040c16	3.002406e-11
24	0x00001574	7.696e-42
25	0x003c14dc	5.517613e-39
26	0x80000834	-2.943e-42
27	0x80000094	-2.07e-43
28	0x0000002a	5.9e-44
29	0x80002728	-1.4047e-41
30	0x80001f45	-1.1217e-41
31	0x8000314d	-1.7686e-41
32	0x80000003	-4e-45
33	0x80000d9f	-4.886e-42
34	0x80004101	-2.3319e-41
35	0x000006fc	2.506e-42
36	0x8000534b	-2.988e-41
37	0xb8c902b8	-9.584933e-05
38	0x80001db9	-1.0662e-41
39	0x000044da	2.4699e-41
40	0x00001b70	9.843e-42
41	0x000026f4	1.3974e-41
42	0x800034fe	-1.901e-41
43	0x80001031	-5.808e-42
44	0x0000091a	3.265e-42
45	0x80000817	-2.902e-42
46	0xbdce9df1	-0.10088719
47	0x000007c6	2.789e-42
48	0x80000f78	-5.549e-42
49	0x800025c9	-1.3555e-41
50	0x800040c0	-2.3228e-41
51	0x00002041	1.157e-41
52	0x800008f9	-3.219e-42
53	0x00000a74	3.75e-42
54	0x800030d2	-1.7513e-41
55	0x98eb28d6	-6.078731e-24
56	0x0000073e	2.598e-42
57	0x3d8f1356	0.0698611
58	0x00003a9e	2.1028e-41
59	0x80001eae	-1.1006e-41
60	0x80000a2e	-3.652e-42
61	0x80000115	-3.88e-43
62	0xa26a1bb8	-3.1727588e-18
63	0x800027fb	-1.4342e-41

encoder5.features.1.running_var f4 [64]
0	0x00000004	6e-45
1	0x00000004	6e-45
2	0x00000004	6e-45
3	0x00000004	6e-45
4	0x00000004	6e-45
5	0x00000004	6e-45
6	0x00000004	6e-45
7	0x00000004	6e-45
8	0x00000004	6e-45
9	0x00000004	6e-45
10	0x00000004	6e-45
11	0x1c2921f1	5.596128e-22
12	0x00000004	6e-45
13	0x00432e91	6.169683e-39
14	0x00000004	6e-45
15	0x00000004	6e-45
16	0x00000004	6e-45
17	0x00000004	6e-45
18	0x00000004	6e-45
19	0x00000004	6e-45
20	0x00000004	6e-45
21	0x00000004	6e-45
22	0x00000004	6e-45
23	0x1c5cf850	7.311283e-22
24	0x00000004	6e-45
25	0x00000004	6e-45
26	0x00000004	6e-45
27	0x00000004	6e-45
28	0x00000004	6e-45
29	0x00000004	6e-45
30	0x00000004	6e-45
31	0x00000004	6e-45
32	0x00000004	6e-45
33	0x00000004	6e-45
34	0x00000004	6e-45
35	0x00000004	6e-45
36	0x00000004	6e-45
37	0x3124014a	2.3865874e-09
38	0x00000004	6e-45
39	0x00000004	6e-45
40	0x00000004	6e-45
41	0x00000004	6e-45
42	0x00000004	6e-45
43	0x00000004	6e-45
44	0x00000004	6e-45
45	0x00000004	6e-45
46	0x3b6d0553	0.0036166504
47	0x00000004	6e-45
48	0x00000004	6e-45
49	0x00000004	6e-45
50	0x00000004	6e-45
51	0x00000004	6e-45
52	0x00000004	6e-45
53	0x00000004	6e-45
54	0x00000004	6e-45
55	0x00000004	6e-45
56	0x00000004	6e-45
57	0x3ca810e5	0.020515868
58	0x00000004	6e-45
59	0x00000004	6e-45
60	0x00000004	6e-45
61	0x00000004	6e-45
62	0x07384ba5	1.3864851e-34
63	0x00000004	6e-45
