model/SRNet_2021-07-19_14-19-59.pth (torch, 228167 bytes, 104 tensors)

encoder1.features.0.weight f4 [4, 3, 3, 3]
000000 ae a8 2f be 33 b4 95 be ce 73 d2 bd 50 ed c7 bd
       -0.1715419 -0.29239044 -0.10275994 -0.09762061
000010 e0 87 12 3e f4 19 11 3b 7a 07 cc 3d 55 ff 8b bd
       0.14309645 0.0022140713 0.099623635 -0.0683581
000020 ad cd 65 be 3d c2 89 3d 68 98 9c 3e 86 59 c2 be
       -0.2244174 0.06726501 0.30585027 -0.37958926
000030 04 86 cb 3e 97 7c 73 3f 1f 1c 88 bd 45 1b 12 be
       0.39750683 0.95111984 -0.06645989 -0.14268215
000040 18 bd 0f 3f 04 b4 07 3d a1 02 9e 3d 63 62 bb 3e
       0.5614791 0.03313066 0.07715345 0.365985
000050 79 07 75 be 2f 15 35 3f a4 b8 f5 3f 69 b0 88 3e
       -0.23928632 0.7073545 1.9196973 0.2669709
000060 e2 f8 f6 3d db 16 6d 3f c0 71 65 bd 49 df ab be
       0.120591894 0.92613 -0.056016684 -0.3356879
000070 f1 e8 b8 be d5 8d 86 be 52 5e e5 bc 61 2b 26 3e
       -0.3611522 -0.26280084 -0.027999077 0.16227485
000080 46 49 55 3e 06 b4 43 3e 7d 70 b0 3d 41 33 e5 3d
       0.20828733 0.19111642 0.086152054 0.111914165
000090 63 6a fc be 6a 91 49 be 4a 12 d7 be 96 49 0d 3e
       -0.49299917 -0.19684377 -0.4200614 0.13797602
0000a0 07 15 7b 3d 22 ab 63 3e 87 9b 41 3e 5d 73 f1 3c
       0.06129935 0.2223325 0.18906985 0.029473955
0000b0 80 07 91 3d 32 50 d9 be de e2 23 bf 6f a8 f6 be
       0.07081509 -0.42443997 -0.64018047 -0.4817538
0000c0 40 46 39 3d 11 b0 05 3d 58 a2 0d 3d 51 35 36 be
       0.04523301 0.032638613 0.03457865 -0.17793776
0000d0 b0 87 b4 3c e7 4e a0 bd 1b 3a 6d 3e 95 6f db 3e
       0.022037357 -0.078275494 0.23166697 0.42858568
0000e0 86 37 d4 3e 01 3a 1c 3e 54 2f 83 3e df f7 b5 3e
       0.4144861 0.15256502 0.25622046 0.35540673
0000f0 18 7a 69 bd 20 d1 13 3e 5d e1 c2 3e 13 4a ee 3e
       -0.057001203 0.14435244 0.38062564 0.4654089
000100 6a d7 83 3f 02 3a b1 3d cc 0a 3f 3f 75 ae 7f 3f
       1.0300114 0.08653642 0.7462585 0.99875575
000110 90 7e 17 3e f8 d1 56 be c3 7e 22 be 83 9d 21 be
       0.14794374 -0.20978534 -0.15868668 -0.15782742
000120 1b 5e 16 3e 25 9c 05 3f f4 77 23 3e 00 bd 90 3e
       0.14684336 0.5219138 0.15963727 0.28269196
000130 e3 a2 f4 3e d3 7c 1f 3d 7f 37 75 3d d0 49 11 be
       0.47780523 0.0389374 0.05986738 -0.14188313
000140 e1 2f 9f be fb cb 33 3e 59 e1 93 bd 3f 00 87 be
       -0.31091216 0.17558281 -0.07220716 -0.26367375
000150 a7 cd 4f be d7 c3 ba bc 4e 53 12 3d 10 66 b7 3d
       -0.20293294 -0.022798462 0.035723977 0.08955014
000160 70 ec ab 3e 9b f5 ac 3e a1 96 72 be 2e 38 58 be
       0.33578825 0.33781132 -0.23690273 -0.21115181
000170 fe 36 52 be d7 fa aa be 16 4e 06 be e1 84 3e 3d
       -0.2052879 -0.333945 -0.13115725 0.046513442
000180 6a 7c c0 3b e5 8f 5f 3d b6 c5 c9 3e 50 13 18 be
       0.0058742063 0.054580588 0.39408654 -0.14851117
000190 55 7a 27 be c5 b5 f8 bd 47 b1 f2 3c 78 27 15 bc
       -0.1635526 -0.12144045 0.029625548 -0.009103648
0001a0 2a d6 59 3e 3e fc 0f 3d 8f 0d 0b 3f 0c 3b d0 3e
       0.21273103 0.035152666 0.54317564 0.4067005

encoder1.features.0.bias f4 [4]
000000 4c 1c e3 bc f8 3b 8e 3c 9a 2d 3d 3d 2a 2b d1 3d
       -0.027723454 0.01736258 0.046186067 0.10213311

encoder1.features.1.weight f4 [4]
000000 2b fd 7f 3f 5d 9d 8c 3f 66 63 58 3f 3b bd 27 3f
       0.9999568 1.0985523 0.8452667 0.6552312

encoder1.features.1.bias f4 [4]
000000 77 46 32 3f 68 93 41 bf 65 0b 37 be f5 76 ba 3e
       0.6963877 -0.7561555 -0.1787544 0.36418882

encoder1.features.1.running_mean f4 [4]
000000 d4 5a 07 40 6e a5 76 bf 3a 83 4b 40 d5 77 b5 3e
       2.1149187 -0.96346176 3.1798844 0.35442987

encoder1.features.1.running_var f4 [4]
000000 2f 89 9f 3f 0b 18 84 3e 87 b7 02 40 80 43 0d 3d
       1.246374 0.25799593 2.0424516 0.0344882

encoder2.features.0.weight f4 [8, 4, 3, 3]
000000 2e 89 70 3e 37 c7 af be 76 56 37 be e0 f8 bd 3e
       0.2348983 -0.34331676 -0.17904076 0.3710394
000010 87 55 78 be e9 85 37 3e 0f 75 17 3f fe 8c f1 bb
       -0.24251376 0.17922176 0.5916299 -0.007371544
000020 dd fc 5d 3e 7e f1 2e bf a3 fe 2d bf 3a b7 3c bf
       0.21678491 -0.6833724 -0.6796667 -0.7371708
000030 84 c1 45 bc 9b 07 ee 3e 71 a3 fb 3e e9 33 aa 3d
       -0.0120700635 0.46490178 0.49148133 0.08310682
000040 a4 04 cc 3d 45 c8 e0 3d 78 99 a2 3d b2 70 e6 3b
       0.09961823 0.109756984 0.07939428 0.0070324773
000050 ed 6b 07 3f d1 50 4c 3a df 05 b8 be 90 28 93 bd
       0.52899057 0.0007794025 -0.3594198 -0.07185471
000060 07 41 b5 3b 4b a7 c4 bd cd 5c 59 be f5 b7 07 bf
       0.0055314335 -0.09602221 -0.21226807 -0.5301507
000070 04 10 6f bf ae bc 46 be dd ab 2f 3e 0a ea c1 3e
       -0.9338381 -0.19407913 0.17155404 0.3787387
000080 62 d8 11 3f ff f1 73 3e 1a 70 42 3e 0f 2c 3e 3e
       0.569708 0.23822783 0.18988076 0.18571495
000090 d8 1f f3 bd 45 18 c6 bd 00 bd 06 3e e3 61 5e be
       -0.11871308 -0.09672598 0.13158035 -0.21717028
0000a0 f1 6a 3a be bd 22 8e bd 07 64 05 bd c4 da ac be
       -0.18204857 -0.069402196 -0.032566097 -0.33760655
0000b0 b0 69 15 be b3 93 ca be 54 ce 5e be 6c cd ce be
       -0.14591098 -0.3956581 -0.21758395 -0.403911
0000c0 ee 82 e8 be 6d e7 7f be c2 3e 81 be 68 69 d0 be
       -0.4541239 -0.24990626 -0.25243193 -0.4070542
0000d0 11 a6 da bd d3 76 cc be d4 b0 03 3e c5 89 d8 3b
       -0.10676206 -0.39934406 0.12860423 0.0066082203
0000e0 5b f3 4e 3e 1f a6 ed bd 58 e7 2f be b0 18 13 be
       0.2021002 -0.11603951 -0.17178094 -0.14364886
0000f0 62 3b a6 bd f2 31 a2 be 3e 21 23 bd f0 63 70 be
       -0.08116795 -0.3167873 -0.039826624 -0.23475623
000100 fc 6b 23 bd be 3b 12 3e 8c cc fb bc 9a 75 ea bd
       -0.039897904 0.14280602 -0.030737184 -0.11448212
000110 36 b6 56 be 1d b2 55 be 9f 9e 47 be db d4 1b 3c
       -0.20967945 -0.20868726 -0.19494103 0.009511198
000120 6a 4c ee 3d e0 42 66 3e 7b 7c 21 3e de b9 48 be
       0.116356686 0.22486448 0.15770142 -0.19602153
000130 b9 0e 8a 3d db 46 97 3e 29 56 e3 bc be 0e 15 3e
       0.067410894 0.29546246 -0.027751045 0.14556405
000140 ea 78 92 3e f0 c3 21 3d 14 2b d9 3d a1 3f 67 3e
       0.28607875 0.0394935 0.106039196 0.22582866
000150 ea 57 85 bc 79 24 12 bc 8d bf 35 3e 88 70 95 3d
       -0.016277272 -0.008919829 0.17748852 0.07296854
000160 69 ed 15 be 2b 2f bc 3d 3e 10 10 3e 24 c8 7b bd
       -0.14641346 0.09188684 0.14068696 -0.061470166
000170 1c 01 45 3e fe eb fd 3d 99 ac b1 3d dc 67 d0 3d
       0.19238704 0.123985276 0.086754985 0.101760596
000180 1d 71 d0 3d 44 ed 5e 3e 44 44 fc 3d 77 24 44 be
       0.10177825 0.21770197 0.12317708 -0.19154535
000190 f5 8e 2f be 2c b6 44 be 57 40 63 be d6 2c 32 3d
       -0.17144378 -0.19210118 -0.22192512 0.04349979
0001a0 58 41 88 bc 14 3c 71 be bc ae 10 3d 46 db 55 bd
       -0.01663272 -0.23558074 0.03532289 -0.05221107
0001b0 73 c1 67 be ed f6 ef bd 01 ec a9 3c 5f 16 bc bc
       -0.22632389 -0.11717019 0.020742418 -0.022959886
0001c0 98 ce 3b be ee 09 8d bd ec da 9c bd a5 52 25 be
       -0.18340528 -0.068866596 -0.076589435 -0.16144808
0001d0 5f aa b8 bd de 33 84 3d 23 04 16 3e b0 43 80 3d
       -0.09016871 0.064552054 0.14650016 0.0626291
0001e0 b1 4b 26 3f cd 3c 28 3f 0e 61 21 3f 4c 7b 4b 3e
       0.64959246 0.65717775 0.6303872 0.19871253
0001f0 36 3c 30 3e e4 dd fe 3d 2f 7d 6a be 0c 9b d5 bd
       0.17210469 0.12444666 -0.22899316 -0.104299635
000200 a1 ce b3 bd 1b 75 30 3d 58 b5 07 be f1 65 ca bc
       -0.08779646 0.04308043 -0.13252771 -0.024706813
000210 9a 51 31 be 82 99 b9 ba 51 c8 86 be 1c d5 60 be
       -0.17316285 -0.0014160129 -0.26324704 -0.21956295
000220 d4 a1 28 be d7 47 30 bd 2c 68 9f 3d 92 18 cd bd
       -0.16467983 -0.04303726 0.07783541 -0.10014452
000230 b7 24 14 be 65 a0 0b be 1c f1 3a 3d 23 f1 cf bc
       -0.1446713 -0.13635404 0.045640096 -0.025383538
000240 09 2c f7 be c3 a7 e0 be 6d 22 8a be f7 78 f6 be
       -0.48275784 -0.43877992 -0.2697939 -0.48139164
000250 0c 47 bd be 02 66 9d be 19 68 e7 bd 26 71 29 be
       -0.36968267 -0.30741888 -0.11299152 -0.16547069
000260 cc 6a bd be d1 4b 0a be 00 3d 03 3e b8 67 96 bb
       -0.36995542 -0.13505484 0.12816238 -0.004590001
000270 c8 e7 43 be 0c 32 f5 3c 7f 42 03 be 30 4a d5 3d
       -0.19131386 0.02993109 -0.12818335 0.10414541
000280 b3 78 7a 3e 9c 8a be 3c 7c 3b 93 3e 6c 31 17 3e
       0.24460106 0.023259453 0.2875632 0.14764947
000290 12 c6 d7 3e 7e e0 78 3e 0e 94 16 3e 94 54 9d 3e
       0.42143303 0.24304387 0.14704916 0.3072859
0002a0 93 95 6a 3e e6 d9 73 3e ed 8c 5a 3e 36 59 19 be
       0.2290862 0.2381359 0.21342821 -0.14975438
0002b0 61 de c7 bd e4 c8 f9 3b 55 35 85 3d ad 5c 1b be
       -0.09759212 0.007622825 0.06504313 -0.15172072
0002c0 cf 0b 4d bd e2 1e 17 be 1b f9 a4 3d 1c e7 eb bd
       -0.05006009 -0.14757875 0.080553256 -0.1151869
0002d0 f4 50 70 3e 3d d7 d4 3e e5 9a ff 3d 48 7e 38 3e
       0.23468381 0.41570464 0.12480716 0.18016922
0002e0 c7 ee d1 3e 4a ee 85 3e 21 b4 b8 bc ec 0f d8 3e
       0.41002485 0.26158363 -0.02254683 0.42199647
0002f0 76 b2 00 3f 81 b7 12 3e e4 6e a0 3e 0e 9b 24 3e
       0.5027231 0.14327814 0.31334603 0.16074774
000300 16 a3 3d be 18 75 10 be 6e 33 bf bd 2b cb b8 bc
       -0.18519244 -0.14107168 -0.09335981 -0.022557816
000310 66 05 51 bd 5a 09 bb 3d 1a e1 9d 3e 7c 35 f6 3b
       -0.05103054 0.09132643 0.308358 0.0075137
000320 6a fe bf 3d b4 d0 52 3e 82 2f 3b bd 2a fc 97 3d
       0.093746975 0.20587426 -0.045699604 0.07421143
000330 f6 df b2 bc 31 99 18 3e c4 a3 27 3e 43 66 cd bd
       -0.021835309 0.14902188 0.16371065 -0.100292705
000340 9f a0 50 be d3 12 a4 be b4 50 0b be f0 dd ca be
       -0.20373772 -0.32045612 -0.13605005 -0.3962245
000350 48 db b7 be b8 17 e4 bd b4 94 9e be 3e e0 95 be
       -0.35909486 -0.111373365 -0.30972826 -0.29272646
000360 19 f0 11 be b2 39 6b be 6c d8 53 3e 85 07 0e 3e
       -0.14251746 -0.22971228 0.20688027 0.13870056
000370 cd f7 c5 be bc bf a1 be 11 9f 05 3d 70 9a b9 bd
       -0.3866562 -0.31591594 0.0326224 -0.0906266
000380 6e cd a4 bd 75 bc 4c bc 06 9e 59 bd 42 ef 55 bd
       -0.08046995 -0.0124961035 -0.05312922 -0.052230127
000390 00 df b9 3d fc 55 66 bd 34 72 ab bd fe 5c 83 3d
       0.09075737 -0.056234345 -0.08371392 0.06414221
0003a0 63 4c d8 3d 33 dc 35 3e 0d 67 0c bf 3d bc 8c be
       0.105614446 0.1775978 -0.54844743 -0.27487364
0003b0 78 b5 75 be 6a 52 ca be 39 6e 96 be 50 65 fb be
       -0.23995006 -0.39516002 -0.29380968 -0.49100733
0003c0 60 0a b8 bd 37 84 c2 be 59 6e e5 be 02 f9 de 3e
       -0.08986354 -0.37991497 -0.4481075 0.43549353
0003d0 d3 22 48 3e ca 8e e7 3d 5e 37 97 3e cf d4 bc be
       0.19544534 0.11306532 0.2953443 -0.3688111
0003e0 a4 9b 90 be c8 ef 00 3e 77 fc 27 3f 9c 3f 08 3f
       -0.28243744 0.1259147 0.65619606 0.5322206
0003f0 71 e8 8a bd b7 b2 e8 3e 19 54 35 3e 83 1f d1 bd
       -0.06782616 0.4544885 0.17707862 -0.102110885

encoder2.features.0.bias f4 [8]
000000 e8 c4 e6 3c 80 a1 21 3e 9b 4d c0 3d c5 21 34 be
       0.028170064 0.15784264 0.09389802 -0.17591007
000010 1f 4b 8f 3c 94 6c 32 3c 19 20 2a 3d 65 0d 83 bd
       0.017491875 0.010890145 0.041534517 -0.06399039

encoder2.features.1.weight f4 [8]
000000 27 23 4a 3f 30 78 41 3f 8f 34 14 3f 62 9b 8d 3f
       0.7895989 0.75574017 0.578927 1.1063044
000010 36 6b 3a 3f 29 05 20 3f 5c a0 29 3f 94 c6 88 3f
       0.7281984 0.62507874 0.66260314 1.0685601

encoder2.features.1.bias f4 [8]
000000 5b 43 84 be 4b 4a 39 3c 95 6c 15 bf a1 b2 26 bf
       -0.25832638 0.011309217 -0.5836881 -0.65116316
000010 8f 31 8d 3e 88 ec b1 bd de 75 f5 3e e0 37 70 3e
       0.27576873 -0.08687693 0.47941488 0.23458815

encoder2.features.1.running_mean f4 [8]
000000 2d 45 06 3f 6e 18 f3 bf 51 ad 62 3f e4 22 97 bf
       0.52449304 -1.899183 0.8854571 -1.1807523
000010 ab 83 0e c0 e0 d9 a9 3f 76 8b 36 bf c7 4a f0 3f
       -2.2267864 1.3269615 -0.7130655 1.877282

encoder2.features.1.running_var f4 [8]
000000 33 1e 22 40 ed ee fe 3f d2 51 5d 3f 15 44 80 40
       2.5330932 1.9916664 0.8645297 4.008311
000010 de 7f 72 40 43 84 4a 40 29 73 23 40 b3 c2 98 40
       3.7890544 3.1643226 2.5539038 4.773767

encoder3.features.0.weight f4 [16, 8, 3, 3]
000000 80 61 02 be 93 2b 98 bd 5e 9e e2 bd 41 28 78 be
       -0.12732506 -0.07430186 -0.110653624 -0.24234106
000010 0f bf bf bd 48 ac d3 bd b4 c7 49 be b6 38 53 be
       -0.093626134 -0.103355944 -0.19705087 -0.20627102
000020 a0 40 4c 3e 6b 50 07 3e 9a 32 a6 3e 3d 61 d9 3e
       0.19946527 0.13214271 0.3246048 0.42457
000030 ce 1a 19 be 3e f4 06 3e 62 77 41 3e f0 40 f5 3d
       -0.14951631 0.13179109 0.18893197 0.119752765
000040 ef a9 a6 3d a2 91 77 3e bf ea d6 3e 2a 10 15 3e
       0.08137881 0.24176648 0.41975972 0.14556947
000050 71 13 92 3d 10 b5 1f 3e 86 da 31 bd 6c 02 b6 bb
       0.071326144 0.15596414 -0.04342129 -0.005554488
000060 4e 71 bb 3c 79 ab f9 3c bc 83 97 3c dc 8c d2 bb
       0.022881176 0.030477272 0.018495433 -0.006425483
000070 ec eb 9e bb 40 e9 a8 3d 7d 01 fb bd 42 18 62 be
       -0.0048499014 0.08247614 -0.12256143 -0.22079566
000080 9c 57 bc bd 96 5f f9 be 2a c0 0a bf b8 a6 e0 be
       -0.09196398 -0.4870574 -0.5419947 -0.43877196
000090 15 54 70 bd 9b ce 33 be ac 04 ad bc 87 76 5f be
       -0.058673937 -0.17559282 -0.021120392 -0.21822558
0000a0 c3 f6 82 bd ab 09 a6 bc 16 f0 b3 bd 81 36 36 be
       -0.06394722 -0.020268282 -0.08786027 -0.17794229
0000b0 40 a6 20 be eb 23 ec 3e 34 7b 83 3e c9 a6 d4 3d
       -0.1568842 0.46121153 0.25679934 0.10383374
0000c0 84 02 52 3e b8 ce 6e 3c d5 e0 7d 3d be 8a ba 3d
       0.20508772 0.014575653 0.061981995 0.09108494
0000d0 f2 20 3b 3d 12 91 97 3d fb 41 d4 be 19 19 ae bd
       0.045685716 0.07400717 -0.4145659 -0.08500881
0000e0 d0 7b 3e 3e 43 b8 08 be 98 bc ce bc 3e 98 82 3e
       0.18601918 -0.1335154 -0.025236413 0.25506777
0000f0 9d 2b 06 be fe ea e7 39 93 05 79 3e 26 65 2f 3f
       -0.13102575 0.00044234836 0.24318533 0.68513715
000100 c5 aa a8 3e 3f c3 3a be 42 ff 86 3e 31 a2 18 3d
       0.32942787 -0.18238543 0.2636662 0.037264053
000110 37 28 77 be eb e6 94 3e ff 2a 1a 3e c8 2c cf bd
       -0.24136434 0.29082426 0.15055464 -0.10115963
000120 95 12 80 3e 3f 69 df be d1 bd ce be f1 ae a8 3d
       0.25014177 -0.43634984 -0.40379193 0.082364924
000130 cf b0 ca 3e f3 64 06 3e 7c c9 8d 3f 13 41 d4 3f
       0.3958802 0.13124447 1.1077113 1.6582359
000140 7b 03 9c 3f fa 5e 65 3e f1 95 ca 3e e5 b6 be 3e
       1.2188562 0.22399512 0.3956752 0.37248912
000150 c0 08 5a be 57 23 09 3e 9c 53 95 3d 5a 6d f7 be
       -0.212924 0.13392387 0.07291338 -0.48325616
000160 90 89 4f be c5 0c a1 be 15 47 c2 be 5f 3a 93 be
       -0.2026732 -0.31455055 -0.37944856 -0.2875547
000170 d1 ee 73 be 83 ff 86 3d 6f bc e7 3d 12 4e b9 3d
       -0.2382157 0.06591704 0.11315238 0.09048094
000180 67 85 ea 3e 6c 5f d4 3e e1 a2 c4 3e 54 a1 b9 be
       0.45804903 0.4147905 0.38405517 -0.36255896
000190 62 b4 e1 bd 5c 8f c5 bd ea 07 6a be 1d 8f ba bc
       -0.110207334 -0.09646484 -0.22854581 -0.02277332
0001a0 87 13 e7 3d 3e 40 8d be 7e 35 38 bd 5d 13 f7 3e
       0.112830214 -0.27588075 -0.04497289 0.4825696
0001b0 35 d1 af bd cf 80 84 be ef 86 0a be 7e 5f 1e bd
       -0.08584825 -0.25879523 -0.13528036 -0.038665287
0001c0 7d 0d fc 3e e4 91 1f 3f a4 7d 1b be 20 51 e7 3d
       0.4922904 0.62331986 -0.15184647 0.1129477
0001d0 06 fe c3 3e da cc 8d be f1 3b de be 90 f3 84 be
       0.38279742 -0.27695352 -0.43405107 -0.25967073
0001e0 6d eb b4 3d 3a da a1 bc 96 50 9a 3d 30 8b d6 3e
       0.088339664 -0.019757379 0.07534902 0.41903067
0001f0 11 fb d1 3e 90 8c 62 3e e2 a7 02 3f 30 e4 23 3d
       0.4101186 0.22123933 0.5103742 0.04001254
000200 dd 4c c1 3b 03 71 00 3f 24 ea 68 3f 48 2d 0b 3f
       0.0058990554 0.5017244 0.9098227 0.5436597
000210 a7 65 09 bf 9c 35 5e 3e b4 58 c9 3e 4f db de be
       -0.53670734 0.21700138 0.39325488 -0.43526694
000220 0f cc 19 bf f6 8b fa be d3 4e 9a 3e 02 64 8f be
       -0.60076994 -0.48934907 0.30138263 -0.28005987
000230 f7 a1 88 bd b4 93 2b 3f 1a d8 18 3f 87 85 a6 3e
       -0.06671517 0.6702225 0.59704745 0.32523748
000240 a0 8e 2d be fd 27 c4 3e 00 1b 1a 3f 4d 13 be be
       -0.16948938 0.3831176 0.6019745 -0.371241
000250 82 78 0e 3d 05 ab de 3e 16 32 b1 bd 24 ce 99 3e
       0.034782894 0.43489853 -0.08652131 0.30040085
000260 57 e9 ee 3e 7d 24 dd 3d 9a 24 65 3e 66 a6 af 3c
       0.466624 0.10797975 0.22377244 0.02144165
000270 58 e6 0e 3d 62 9f 53 be b3 0b 06 bf 16 27 a4 bd
       0.03488764 -0.20666268 -0.523616 -0.080152676
000280 50 94 8a be 22 e4 30 bf 38 12 92 be ab 55 b8 be
       -0.27066278 -0.69098103 -0.28529525 -0.3600286
000290 28 82 b4 3d 45 7a ec be bf 0a a6 be 39 0a 98 3e
       0.08813888 -0.46187034 -0.32430074 0.296953
0002a0 bc 22 e4 be 48 f0 25 be 5b ba 21 3f f5 49 8c be
       -0.4455775 -0.16204941 0.6317498 -0.27400175
0002b0 81 e4 70 be 27 61 b2 be 25 ad 96 be d2 d3 53 be
       -0.23524667 -0.34839746 -0.29428974 -0.20686272
0002c0 ff 5b 49 be 44 52 b9 be 94 92 96 be bc 22 f4 be
       -0.19664 -0.36195576 -0.29408705 -0.4768275
0002d0 95 2a ae 3c f8 4b bf 3e 85 85 12 3e 49 ba 3a bd
       0.02126054 0.37362647 0.14308746 -0.04558781
0002e0 31 a2 28 bd 6e c1 c9 bd 43 99 11 3e c1 7e c7 bd
       -0.041170303 -0.09851347 0.14218621 -0.09740973
0002f0 2e 32 fa be f0 c1 5a be 8c cb b1 be 4e c6 f6 bd
       -0.4886641 -0.21363044 -0.34725606 -0.12049542
000300 49 49 b6 be 94 41 a4 be e7 a5 58 3e 36 ec 8a be
       -0.35602787 -0.32081282 0.21157037 -0.2713334
000310 6a 0f 79 be ea ef ce 3e 18 75 49 3e 23 5c 1f 3f
       -0.24322286 0.40417415 0.19673574 0.62249964
000320 60 db b7 3e 15 de a4 3d d5 b5 e8 3d 38 96 3b 3e
       0.35909557 0.08050171 0.11362807 0.18319023
000330 57 8e c5 3e 79 93 64 3e a6 b7 65 be ba 97 8f be
       0.3858516 0.22321881 -0.22433338 -0.28045446
000340 79 07 db be 70 95 33 3d 31 22 b8 be 9e eb 87 bc
       -0.4277914 0.043843687 -0.35963586 -0.016591843
000350 12 f6 68 3f 96 f7 b3 be 65 72 1e 3e 63 18 96 3f
       0.91000473 -0.3514983 0.15473326 1.1726192
000360 72 2d 3b be c0 0a c7 3d 64 14 5b 3e 86 92 8d be
       -0.18279055 0.09718847 0.21394497 -0.2765085
000370 31 23 00 be 16 41 13 be a8 68 7e be 86 9f 61 be
       -0.12513424 -0.14380297 -0.2484461 -0.2203351
000380 5a 8c 5b be 28 9d 71 3d f5 3e b1 bc a0 cc 48 be
       -0.21440259 0.058987767 -0.021636466 -0.19609308
000390 e8 c1 81 3d d5 97 0b 3e 33 7b d1 bb 32 8d d2 3c
       0.06335813 0.13632138 -0.0063928603 0.025702093
0003a0 b3 25 e4 3d e5 99 5b 3c 31 15 e4 3e db d1 b4 3e
       0.11140003 0.0134033905 0.44547418 0.35316357
0003b0 bf 48 19 3f b6 40 62 3e 4d f3 db 3c 4a a3 d1 3e
       0.59876627 0.22094998 0.026849413 0.40944892
0003c0 c7 1f 4f 3e 9a 29 29 be 15 df 79 3e 87 1d bb be
       0.20226966 -0.16519776 0.24401505 -0.36545965
0003d0 c0 81 70 be b6 49 81 be 55 35 7f be 46 3e f3 bd
       -0.23486996 -0.2525155 -0.24922688 -0.11877112
0003e0 3f e1 2a be cf d4 e1 bd 80 a9 71 bd 9a 50 c8 bd
       -0.16687487 -0.11026918 -0.05899954 -0.097809985
0003f0 f7 ee 2c be 48 6e 07 be 97 5c 5f be a4 ac 27 be
       -0.16888033 -0.13225663 -0.21812664 -0.16374451

encoder3.features.0.bias f4 [16]
000000 7f 47 c6 bd e4 66 aa bd db 21 ca bd 0d 45 02 3d
       -0.096816055 -0.08320406 -0.09869739 0.031804133
000010 f6 70 18 3c 25 0c c0 bd 6a 04 cf bd 93 38 6f b7
       0.009304276 -0.093773164 -0.10108264 -1.4258682e-05
000020 50 9e c8 3d 59 4f 09 bd 4a 83 8d 3d e8 30 ad bd
       0.09795821 -0.033522937 0.06909807 -0.08456594
000030 5e 01 93 bd a9 23 70 bd 6b a2 86 3b b9 63 ab 3d
       -0.07177995 -0.05862776 0.004108717 0.0836863

encoder3.features.1.weight f4 [16]
000000 14 c6 3f 3f b9 03 68 3f 4e d6 67 3f 11 3d 42 3f
       0.7491162 0.9063068 0.9056138 0.7587443
000010 d9 ee 38 3f 95 35 10 3f 60 ed fc 3e 21 2f 51 3f
       0.7223945 0.5633176 0.49399853 0.8171254
000020 ea 6d 3b 3f 8b b1 2d 3f b4 29 1d 3f 8f 23 23 3f
       0.7321459 0.67849034 0.6139176 0.63726133
000030 0b b3 30 3f ab a2 4d 3f 88 e5 93 3f e6 fc 15 3f
       0.690232 0.80326337 1.1554422 0.5858902

encoder3.features.1.bias f4 [16]
000000 0e b2 7e bd e8 bc 8a be 14 5d f7 bd ae 95 f0 3d
       -0.062181525 -0.2709725 -0.120783 0.11747299
000010 88 18 1d bf af db 66 be c2 fd 83 3f ff 3f e6 3d
       -0.61365557 -0.2254474 1.0311816 0.11242675
000020 73 33 cc 3e d5 09 08 bf 63 f1 4f be 46 b8 b1 be
       0.39883003 -0.5314 -0.20306925 -0.34710902
000030 74 0b f2 3d 33 b2 c1 3c f3 5b f7 be 92 18 0b bf
       0.11818591 0.023644542 -0.4831234 -0.54334366

encoder3.features.1.running_mean f4 [16]
000000 ad b8 eb 3e 41 6c 2e 40 d6 20 02 3f 4f e4 38 bf
       0.46039334 2.7253573 0.50831354 -0.7222337
000010 b8 88 4c 40 21 75 9c c0 c2 be 71 c0 7c 7f f6 bf
       3.1958447 -4.889298 -3.777268 -1.9257655
000020 f4 1d c5 bf 99 f7 6f 40 6d 87 7e bd 03 f7 45 3f
       -1.5399766 3.7494872 -0.06214087 0.77330035
000030 fb d0 94 bf 32 c2 3a 3f a1 35 1d 3f 8e 6e 38 c0
       -1.1626276 0.7295257 0.61409956 -2.8817477

encoder3.features.1.running_var f4 [16]
000000 d6 f0 8d 40 54 80 ae 40 3b f4 44 40 7b 00 d0 40
       4.435649 5.453165 3.0774066 6.5000587
000010 dd e5 9c 40 d2 50 82 40 c5 b7 09 41 0b 5b 8c 41
       4.9030595 4.0723658 8.607366 17.544455
000020 7c fa b1 40 52 81 88 40 89 57 05 41 64 f5 8e 40
       5.5618267 4.265786 8.333871 4.467455
000030 fc 6a c3 40 b6 30 5b 40 6f ce b9 41 b2 ae 0f 41
       6.1068096 3.424848 23.225798 8.98015

encoder4.features.0.weight f4 [32, 16, 3, 3]
000000 aa ec 29 3f 7a 8b ce be 23 8e 8a be 54 a2 57 3f
       0.66376746 -0.40340787 -0.27061567 0.8423207
000010 d9 7a a4 be af 7d a5 bd 67 fe 8a 3f d3 ee 62 3c
       -0.32124975 -0.08080613 1.0858887 0.013850885
000020 9c 81 46 bd 1a cf eb 3d fa 95 74 be 2a f6 ba be
       -0.04846345 0.11514111 -0.23885337 -0.36515933
000030 8d d8 8c bd 28 d8 3f bf f5 f5 4e bf c4 eb 22 3f
       -0.06877241 -0.74939203 -0.8084405 0.63641
000040 fc bd b5 3e fa 16 e5 be 24 01 4d be 39 3f b7 be
       0.3549651 -0.44744092 -0.20019966 -0.35790423
000050 e2 69 64 be 71 8b 5d be 83 82 c2 be 4b d6 43 bf
       -0.22306016 -0.21635224 -0.37990198 -0.7649886
000060 1d b7 0a 3e 81 17 40 be 44 13 12 bf c9 4e e1 3e
       0.13546415 -0.18758966 -0.57060647 0.4400542
000070 d7 de cf be a2 98 29 bf 13 c5 09 3f a2 10 58 be
       -0.405997 -0.66248524 0.53816336 -0.21100095
000080 b9 4c 00 bf 12 9e 65 3f 20 f1 a1 bc 06 3c 85 be
       -0.5011707 0.8969432 -0.019768298 -0.26022357
000090 dc 8e ea bd a3 d5 63 bd 4b 2c 2a bd 4f 39 cd bd
       -0.114530295 -0.05562366 -0.041546147 -0.10020696
0000a0 00 d5 6f bd 41 90 02 be d8 28 74 3d af ca 75 3d
       -0.058552742 -0.12750341 0.059609264 0.060007747
0000b0 eb c2 da 3c f9 27 f3 3e 79 4c d8 3e 56 82 6a 3e
       0.026704272 0.47491434 0.42245844 0.22901282
0000c0 02 20 15 3e 46 42 cb 3e 2c bc 52 3e 32 e6 7d 3e
       0.14562991 0.39699 0.20579594 0.24794844
0000d0 a3 a0 02 3f b7 00 e5 3e 5c 32 8e be 94 62 da bd
       0.5102636 0.44727108 -0.27772796 -0.106633335
0000e0 cc 36 f6 3e 1c 16 5c be 98 c9 bb bc 10 6f c9 3e
       0.48088682 -0.21492809 -0.022923276 0.39342546
0000f0 a8 05 9b be 81 8c 1c be 23 db cf 3e 08 0b f1 3e
       -0.30277753 -0.15287973 0.40596876 0.4707873
000100 2c e8 df bd a7 2b 7b be 85 e6 e3 3e bb fc 56 be
       -0.10932955 -0.24528371 0.4451181 -0.20994847
000110 17 8d a6 be 3e 4e 57 3f f7 fa b2 3c 08 5f 02 be
       -0.32529518 0.84103763 0.021848185 -0.12731564
000120 e8 61 a2 be 22 c8 4f be 1f f7 68 3e 11 5f 1c be
       -0.31715322 -0.20291188 0.22750519 -0.1527064
000130 d9 82 ba 3c 8d 04 85 3e 43 14 69 be 66 28 ca bd
       0.022767471 0.25980034 -0.22761635 -0.09870987
000140 2c 06 18 3e 5b 38 5b be 3d a8 0f bf ea 00 02 bf
       0.14846104 -0.21408217 -0.56116086 -0.50782645
000150 4d 96 c2 3d 21 21 7b be 9f 58 2d bf 6d 8c b9 3e
       0.09501324 -0.24524356 -0.6771335 0.3623995
000160 a1 ca 58 bd 0f df 2a bf 27 32 1d be 79 39 07 bd
       -0.052927617 -0.6674661 -0.15351163 -0.033013795
000170 7e f3 4c 3e 31 d5 fa bd 64 ed 4c bd 1b 20 e6 3c
       0.2001476 -0.12247694 -0.05003108 0.028091481
000180 6b 7b 1f be 6d d4 20 bd 7f 2e 21 3e b2 79 cb bd
       -0.15574424 -0.039265085 0.15740393 -0.09935321
000190 2a dd 90 bd 22 c3 31 bd e5 02 bf bd e5 3e 07 be
       -0.07073434 -0.043398984 -0.09326724 -0.13207586
0001a0 6f 20 3b be 58 4b a3 bd 9a e4 6c be d6 ee d4 bd
       -0.18274091 -0.07973355 -0.2313408 -0.10397117
0001b0 a2 79 e8 3d 01 2e 4c 3e 0d 1c d1 3e ef 39 20 be
       0.113513246 0.19939424 0.40841714 -0.156471
0001c0 b3 4b f1 bd 49 79 1a 3e bb 6a 39 be 2a c1 1c be
       -0.117820166 0.15085329 -0.1810712 -0.15308061
0001d0 5a d9 ab 3d 43 cf 08 be d0 88 35 be 29 26 9c 3c
       0.08391066 -0.13360314 -0.17727971 0.019061165
0001e0 a3 4a 06 be 8c 7e 36 be 21 d8 3f bb cd e5 2b be
       -0.13114409 -0.17821711 -0.002927311 -0.16786881
0001f0 47 23 e7 bd 44 65 0d be d3 3e 14 be 9d 4c 07 be
       -0.112860255 -0.13808161 -0.1447709 -0.1321282
000200 49 98 9e 3d ca 2a 2a be aa 17 cb bd 72 c6 2b 3d
       0.0774389 -0.16617885 -0.09916623 0.0419373
000210 bf 32 c0 bc 9a 8c ff bb c1 7e 17 3e f9 6a da 3e
       -0.023461698 -0.0077987434 0.14794447 0.4265974
000220 15 44 b6 bd 69 bc 85 be 4b ec bd 3e 36 65 b2 3c
       -0.08899704 -0.26120308 0.3709434 0.021776777
000230 34 48 af bd d0 73 0d 3f e4 fc 1e 3e 0b de ef bd
       -0.085586935 0.5525484 0.15526158 -0.11712273
000240 9f 98 a9 be 05 e5 3f bd 98 ed 9f bd a3 7b 36 be
       -0.33124253 -0.04684927 -0.07808989 -0.17820601
000250 f1 24 3f be 42 44 de bd c8 93 81 be 78 b4 2a be
       -0.18666436 -0.10852863 -0.2530806 -0.16670406
000260 03 69 e6 bd ae 2d 97 3e 3a 26 be 3e 4c 27 dd 3e
       -0.11250498 0.29527038 0.3713854 0.43194044
000270 fe cb b1 3e f5 d2 8e 3e 43 26 76 3e d4 b2 93 3c
       0.34725946 0.27895322 0.24038033 0.018029608
000280 b6 87 86 bd bf 8f cc 3c 75 df 6f bc 91 09 25 be
       -0.065688536 0.024970887 -0.014640679 -0.1611693
000290 97 fc bc bd 98 04 38 bd f9 e6 e2 bd 47 16 e6 bd
       -0.09227865 -0.044926256 -0.11079211 -0.11234718
0002a0 e8 80 92 bd 4e 90 f1 bd e4 47 3a be f8 83 ea bd
       -0.07153493 -0.11795102 -0.18191487 -0.11450952
0002b0 a7 b6 af 3b ae 08 3c 3d 02 6c 98 bd f9 2f 6d bd
       0.00536235 0.045906715 -0.07442476 -0.05790708
0002c0 6d 9b f4 bd 44 0a 9b bd 04 b5 8e bc 51 e1 9d bb
       -0.119437076 -0.075703174 -0.0174203 -0.0048181196
0002d0 12 8e 5f 3e dc 2f 1a 3e aa 1a da 3d 8f 51 a8 3e
       0.2183154 0.1505732 0.10649617 0.32874724
0002e0 4c 57 c6 3e b9 8b 3a 3e d4 3c 91 3e a2 72 b5 3e
       0.38738477 0.18217362 0.2836672 0.3543902
0002f0 89 a1 22 3e 7b e8 e2 3d 8e 92 af 3c 09 88 ce 3d
       0.15881933 0.110794984 0.021432187 0.100845404
000300 95 4f 4b 3d 92 a5 e4 bb 92 4a d9 3d 08 66 c8 3d
       0.049636442 -0.0069777453 0.10609926 0.09785086
000310 31 d0 00 3e 33 18 21 3e c2 aa 95 3e ff 3e 6a 3d
       0.12579419 0.15731888 0.2923184 0.057188984
000320 39 f0 e2 3d a8 de ff bd 87 50 4e be 4d 81 86 bd
       0.11080975 -0.1249364 -0.20147906 -0.06567631
000330 c5 bd 36 3e 65 cb ce 3d ce 8f 2a 3e 13 02 09 be
       0.17845829 0.10097388 0.1665642 -0.13379698
000340 05 51 0b be 3c 8a 08 bd 52 1e 9a bd 9c 4e 36 be
       -0.13605125 -0.033334956 -0.075253144 -0.17803425
000350 4c 0c 4c be 09 1a 98 bd b1 33 ed bd d9 ea f8 bd
       -0.19926566 -0.07426841 -0.11582125 -0.12154169
000360 48 1e 2a 3e b9 16 56 3c da c6 fc bc db 2a 1b be
       0.16613114 0.013066941 -0.030856539 -0.15153067
000370 ff 58 b5 bd e5 3f 00 be 0a c9 65 3e 07 36 48 3e
       -0.08854865 -0.12524374 0.22439972 0.1955186
000380 bb d4 84 3e 9f 7a f6 bd 7c 65 db bd e2 5c 55 be
       0.2594355 -0.12035107 -0.10712716 -0.20836213
000390 a1 94 c0 3d 15 8e 98 bc 11 cd d3 bc a0 3d d7 bc
       0.09403349 -0.018622437 -0.02585462 -0.026274502
0003a0 30 cd fb 3c df 64 39 be 5f 4e 90 3d da 63 1a bd
       0.03073749 -0.18104886 0.07046198 -0.037692882
0003b0 aa 45 d0 bd c1 53 4b 3e d5 a2 12 3e 99 a4 2d 3d
       -0.10169537 0.19856168 0.14319928 0.0423933
0003c0 6c a6 db 3e cd 32 de 3e b1 0c 3c 3e ee 04 5c 3d
       0.42900407 0.43398133 0.18364216 0.05371564
0003d0 10 4e ab 3d 55 0c da 3c 9d c1 a2 3e 33 04 5b 3e
       0.083644986 0.026617208 0.3178834 0.2138832
0003e0 14 fb 75 3e ce 20 5d 3e bb 67 92 3e dd 62 17 3e
       0.2402156 0.21594545 0.28594765 0.14783807
0003f0 28 8b 03 3e 0b 94 12 bc 06 cc 98 bd 33 e3 8e 3e
       0.12846053 -0.008946429 -0.074607894 0.27907714

encoder4.features.0.bias f4 [32]
000000 b1 22 f3 3c e5 6b 7c 3d 3a da 5a bd 47 2d b5 bc
       0.029679628 0.061626334 -0.053430773 -0.022116316
000010 c0 60 87 bd 0c 24 10 bd 8a 59 19 3d 87 58 09 bd
       -0.066102505 -0.035190627 0.037438907 -0.033531692
000020 86 6d 4e bc a2 ed 90 bd 13 32 66 bd 94 98 7e bd
       -0.012599355 -0.07076575 -0.0562001 -0.06215723
000030 ba 78 0a 3d c8 fd 21 bd 86 a4 a7 3d 57 8e c0 3c
       0.03380654 -0.039548665 0.08185677 0.023505373
000040 b2 f1 53 3d b9 cc 20 bb 84 12 af 3b 45 88 a1 3c
       0.05174417 -0.0024536087 0.0053427834 0.019718299
000050 ed 4a f7 3c 68 f2 1e bd d1 71 5c 3d e6 c3 82 bd
       0.030187095 -0.038805395 0.05381948 -0.06385021
000060 54 9c 0d 3d 49 74 a9 3c 59 eb c1 bc 7e fc 56 bd
       0.034572914 0.020685332 -0.023671793 -0.05248689
000070 0b c5 fd bc db 74 92 3d d1 ec 94 bd 31 91 73 3d
       -0.030977746 0.07151195 -0.07271732 0.059464637

encoder4.features.1.weight f4 [32]
000000 08 d6 80 3f a4 06 31 3f 0c e6 9f 3e 41 16 1b 3f
       1.0065317 0.6915076 0.312302 0.6058083
000010 67 21 d5 3e 60 9c 64 3f a9 ee 8d 3f 4d c3 44 3f
       0.41627046 0.8930111 1.1088458 0.76860505
000020 0b fa 52 3f 7b 25 91 3f 29 2c 3a 3f 3f d8 f7 3e
       0.82412785 1.1339563 0.72723633 0.4840717
000030 7a 5d 97 3e a8 39 3d 3f cf 61 05 3f da 42 1e 3f
       0.29563504 0.739161 0.5210237 0.6182076
000040 e1 d8 a6 3f 0a 6d 43 3f b8 35 1d 3f ff db 77 3f
       1.3034936 0.76338255 0.61410093 0.9682006
000050 19 2d 4e 3f bd 80 62 3f 85 ba 9e 3f 44 2d 32 3f
       0.80537564 0.8847769 1.2400671 0.6960032
000060 78 45 b8 3e 8f 23 74 3f 30 75 d4 3e 51 19 2f 3f
       0.359905 0.9536676 0.41495657 0.68398005
000070 84 94 8b 3f b8 54 20 3f 2f 16 5f 3f b3 03 8d 3f
       1.0904698 0.6262927 0.87143224 1.1016754

encoder4.features.1.bias f4 [32]
000000 18 25 23 be 80 8b 04 bf 61 f9 25 bf 73 ef 55 be
       -0.15932119 -0.5177536 -0.64833647 -0.20892124
000010 fc 1b 0a 3f 45 64 5b 3e db 65 80 3e 29 9a c6 be
       0.5394895 0.21424969 0.2507771 -0.3878949
000020 fd 8c fa be af be 24 3f 20 27 02 bf 26 16 97 be
       -0.4893569 0.6435346 -0.5084095 -0.29509085
000030 34 cb 55 bd c6 cd 39 3e 63 41 31 3f 19 8a 7d 3f
       -0.052195743 0.18144903 0.692404 0.99038845
000040 6c cc fa bc 2d 13 f8 be 81 2b 5e be 03 2b ad 3e
       -0.030615054 -0.4845213 -0.21696283 0.33821878
000050 b7 60 0b bf d0 4f 01 bf 35 af 79 3e 25 34 fb be
       -0.5444445 -0.5051241 0.24383242 -0.4906322
000060 9c e2 51 bf 40 8e 14 bf 3d 94 b2 3e 92 6d 57 be
       -0.81986403 -0.58029556 0.34878722 -0.21037892
000070 4a e6 e9 be 1f bf ee be 79 33 4b be 2c 9a e7 3e
       -0.4568351 -0.4663019 -0.19843854 0.4523481

encoder4.features.1.running_mean f4 [32]
000000 d6 ab b1 bf d0 b6 c3 3f 33 5c 1b 3f ef 27 fc 3f
       -1.3880565 1.5290165 0.6068756 1.9699687
000010 ba 52 eb 3e 54 d1 88 40 4e fb 5a 40 dd ae 18 c1
       0.45961553 4.2755527 3.4215884 -9.542691
000020 b5 c4 94 bf a5 f2 16 3f bb e0 95 3f 32 0c dd c0
       -1.162253 0.58963996 1.1709207 -6.9077387
000030 a1 5f ee c0 0a bf d3 be 2c 00 11 c0 8d e0 00 c0
       -7.4491735 -0.4135669 -2.2656355 -2.0137055
000040 6c ac 0a c0 93 1b e6 40 eb a9 ae c0 c1 d5 bb bf
       -2.1667738 7.190866 -5.458242 -1.4674608
000050 0d 72 a6 c0 d0 c8 1d c0 63 fc 4f 40 f0 f9 1b 40
       -5.201422 -2.4653816 3.2497795 2.43713
000060 f8 f7 2c c0 29 f9 7c c0 df 3e f8 bf cc b2 83 3f
       -2.7026348 -3.9527075 -1.9394187 1.028894
000070 83 26 5e c0 b8 b9 a9 c0 f0 64 66 c0 7c 6a 3c 3e
       -3.4711006 -5.3039207 -3.5999107 0.18399996

encoder4.features.1.running_var f4 [32]
000000 9e 73 72 41 3c 32 2d 41 f3 ce c7 41 6a a9 90 41
       15.153227 10.824764 24.97605 18.082722
000010 55 b0 88 41 62 37 9b 41 de 76 59 42 f9 cc 77 41
       17.0861 19.402042 54.36608 15.487542
000020 02 45 3c 41 f4 11 73 41 ad ce bc 41 97 89 7d 41
       11.766848 15.191883 23.600916 15.846091
000030 1c 03 02 42 82 44 ab 41 39 58 ed 41 09 79 9a 42
       32.503036 21.408451 29.668077 77.2364
000040 09 24 b4 41 0f 43 83 41 90 2e 45 41 91 df aa 41
       22.517595 16.407743 12.323868 21.359163
000050 b2 d0 3a 41 d0 8a 12 41 60 27 88 41 f5 96 88 41
       11.675951 9.15889 17.019226 17.07371
000060 64 70 71 42 ab 33 3a 41 c6 ef 04 41 87 cb 05 42
       60.359756 11.637614 8.308538 33.448757
000070 44 09 0a 41 61 e4 a0 40 bc ff 56 41 f2 f0 30 41
       8.627262 5.0278783 13.437435 11.058825

encoder5.features.0.weight f4 [64, 32, 3, 3]
000000 54 38 9b be 79 e0 48 bf 41 88 9b be af 49 a5 3c
       -0.30316412 -0.7846752 -0.3037739 0.020176737
000010 5e 78 23 be 65 bc 7b bd 57 15 42 3f 31 8d f3 bd
       -0.15963885 -0.061458964 0.7581381 -0.118921645
000020 91 f0 92 3e 8f c1 8b 3e be 55 38 be 57 0f 4b 3e
       0.28699163 0.2729611 -0.18001458 0.1983007
000030 7b 2e d4 3d 8b ca 72 bd a8 6f 39 3e 3b 14 e6 3d
       0.10360428 -0.05927519 0.18109 0.112343274
000040 d7 47 87 be b3 26 ed bd b0 e0 c4 be aa e7 84 be
       -0.26421997 -0.11579647 -0.38452673 -0.25957996
000050 a8 84 5a be 97 49 88 be e8 b5 0c be 7b 56 52 be
       -0.21339667 -0.26618645 -0.13741267 -0.20540802
000060 2c 10 69 be dd 86 9e bd bd 68 a9 bd 6d 49 e4 3e
       -0.22760075 -0.07740567 -0.0827193 0.4458727
000070 d2 b1 37 3c 66 19 36 3e ef 7c 82 3e 99 c8 84 bc
       0.011211829 0.17783126 0.25485942 -0.016208934
000080 cf 19 9a 3d 73 50 e9 3e bd f9 a5 bc 56 33 23 3e
       0.07524454 0.4556919 -0.020260686 0.15937552
000090 ef 2f f7 be 42 12 e2 be 83 01 de be 33 dc 2a bf
       -0.48278758 -0.44154555 -0.43360528 -0.6674225
0000a0 6f dd dc be b9 a7 fd be c5 4a 9f be 20 6b 82 be
       -0.4313769 -0.49542025 -0.31111732 -0.25472355
0000b0 61 2c 90 be 22 76 26 be 5b 7f 64 3e 3f 55 d3 3e
       -0.28158858 -0.16256002 0.22314207 0.41275975
0000c0 85 11 ef bd 36 6d c5 3e b0 a3 e8 bc 11 e0 29 bf
       -0.116732635 0.38559884 -0.028398365 -0.66357523
0000d0 11 1f d6 be 6a c0 db be 5c c9 8f bd 0a 56 8f 3e
       -0.41820577 -0.42920238 -0.07020828 0.2799533
0000e0 b2 0a 13 3f 1e cf 8c be f5 42 b4 be 9b 1a e8 3e
       0.57438195 -0.27501768 -0.35207334 0.45332798
0000f0 3a 20 38 bf 45 1b 2b bf 6a 42 9f 3e ad be ef 3d
       -0.71924174 -0.66838485 0.31105357 0.117062904
000100 bb 5c 13 bf a3 f6 87 be 53 9b fd bd 86 8a 03 bf
       -0.5756337 -0.26555356 -0.12383141 -0.51383245
000110 e7 1b eb be cc 8e 12 3e 74 cb b2 be fc 24 16 be
       -0.45919725 0.14312285 -0.34920847 -0.14662546
000120 68 38 1e be 68 ac bf be c3 88 65 bc 5d 39 eb 3d
       -0.15451205 -0.37436223 -0.014009657 0.114855506
000130 a2 af 35 be 69 e5 6f 3d dc 9e af 3e b4 e0 0a be
       -0.1774278 0.058568392 0.34300888 -0.1356228
000140 34 9c b8 3c 03 d5 42 be 89 78 9c 3e b3 76 6d be
       0.022535421 -0.1902657 0.3056071 -0.23189811
000150 55 91 d3 be 74 70 cc 3c d6 7e 00 be 77 4b cf bd
       -0.41321817 0.024955966 -0.12548384 -0.10121816
000160 45 4b e0 bd 37 a1 da bd 80 5f e2 3e fe 8c 60 3e
       -0.109518565 -0.106752805 0.44213486 0.21928784
000170 b3 e3 d3 be 80 d2 78 3f 18 f0 0a 3f 5a 2f 38 3e
       -0.41384658 0.971962 0.54272604 0.17986813
000180 41 20 1e 3c 13 81 b1 be 47 f5 e2 be a4 3c 2a bc
       0.009651245 -0.34668788 -0.44327757 -0.010390434
000190 29 0e d5 3e 2b a0 6f 3f cd ea 73 bc 99 51 7a 3e
       0.41612366 0.9360377 -0.014887524 0.2444519
0001a0 f6 2f 0b 3f a7 b7 bc be 64 40 b7 3b 1f c1 e6 3e
       0.5437006 -0.36858866 0.0055923928 0.45069215
0001b0 65 fd 49 be d5 9f 8f 3e cb e6 19 3f 46 2c 28 be
       -0.19725569 0.2805163 0.6011779 -0.16423139
0001c0 a3 b0 6c 3e e4 8c f6 3e cf 1d 06 bf ec 53 d7 be
       0.23114257 0.48154366 -0.52389234 -0.42056215
0001d0 2b cc f4 bd 2f 72 51 be eb 70 6a 3b 4b 1f c7 bd
       -0.119530044 -0.20453714 0.003577287 -0.097227655
0001e0 94 1b df be 69 2d 44 be e8 9b f8 be d3 83 bf be
       -0.43575728 -0.19157948 -0.48556447 -0.3740526
0001f0 a9 96 86 3d b1 58 e7 bd fc 67 ca bd d2 18 93 bf
       0.06571705 -0.112962134 -0.09883115 -1.149195
000200 75 1c 5d bf bf 0a 3a be 7f 02 46 bf 96 87 93 bf
       -0.86371547 -0.18168162 -0.7734756 -1.1525753
000210 12 f1 92 3e cd b0 ac be 64 28 2b bf 3a 8d d4 bd
       0.28699547 -0.33728638 -0.66858506 -0.10378499
000220 ee a9 a3 be 74 5e e4 be 66 16 fa be 73 11 e8 be
       -0.31965584 -0.44603312 -0.48845214 -0.45325813
000230 61 b2 17 bf b5 4a 44 3e 9d 7d 8e bd a3 73 d9 be
       -0.5925656 0.19169123 -0.069575526 -0.42471036
000240 52 2d 98 bf 13 bb 20 bf 99 1d 29 3e 33 2c 7f bf
       -1.1888831 -0.6278545 0.16515197 -0.9967682
000250 ad c1 00 bf 9c 65 06 bf f9 4f 4f bf c5 99 09 bf
       -0.50295526 -0.52498794 -0.80981404 -0.5375026
000260 1d b3 56 bf 54 62 bc be 85 e3 7b 3e 59 80 d8 3e
       -0.83867055 -0.36793768 0.2459851 0.42285421
000270 10 49 94 be 88 aa bb bd 8a ec 13 bd 62 df d2 be
       -0.28961992 -0.09163386 -0.036114253 -0.41186053
000280 d9 33 95 be 56 7a 3a be b0 1b 80 bc 79 51 12 3f
       -0.2914112 -0.1821073 -0.015638202 0.5715557
000290 74 dd 8f 3f a8 33 9e be fc e6 ce 3e 4d e1 22 3f
       1.1239457 -0.30898786 0.40410602 0.6362503
0002a0 36 1e 04 bf 91 f9 5c 3e e9 65 46 3f 3f e9 0b 3f
       -0.516086 0.21579577 0.7749925 0.5465278
0002b0 81 0e 0e bf 75 e0 fb be b2 4d a8 3d 99 2d 02 bf
       -0.5549088 -0.49194685 0.08217944 -0.50850827
0002c0 c1 4f 8a bf 3d 7b 46 3f 75 19 4f 3e 55 d0 17 be
       -1.0805589 0.77531797 0.20224555 -0.14825566
0002d0 96 69 41 bf 71 18 ac be 37 d7 7b be 6f fa c3 be
       -0.75551736 -0.33612397 -0.24593817 -0.38277003
0002e0 24 38 92 3c 6d 64 38 3e 98 0f 08 bf 38 4e e4 bd
       0.017849036 0.1800706 -0.53148794 -0.111477315
0002f0 8c 49 b7 bd 17 4f 17 bf 0e 14 5c 3e dc 05 09 3f
       -0.08949575 -0.59105057 0.21492025 0.53524566
000300 87 36 21 bf b1 67 1a be 50 48 82 3e be 7c 81 be
       -0.6297383 -0.15078618 0.25445795 -0.25290483
000310 d7 cf 46 3d b7 ad 17 3e a6 1b 31 3d 64 cf a8 3e
       0.048538055 0.1481236 0.04323926 0.32970726
000320 3d bd 52 3f 67 80 d4 3e b9 31 aa 3e fb 32 1d 3f
       0.82320005 0.41504213 0.3324106 0.61405915
000330 c9 98 23 be a3 e6 8c bf 38 54 3b bf c2 f4 d5 3d
       -0.15976252 -1.1007885 -0.7317538 0.104470745
000340 f0 4d 89 be a9 8d 28 3e d9 89 66 3e a7 6d 82 be
       -0.26817274 0.16460289 0.22513522 -0.25474283
000350 98 a2 d6 3d cb 62 8d 3e a1 40 bf be e7 3d b7 bd
       0.10480231 0.27614436 -0.37353995 -0.08947354
000360 bd fe 9a 3e bd 60 50 3d ca 6a ce 3e 85 6e 06 bf
       0.30272475 0.050873507 0.4031585 -0.5251239
000370 c4 01 07 bf 3f 05 a1 be 2b cf fe be da c1 45 bf
       -0.5273707 -0.31449315 -0.49767432 -0.7724892
000380 de b2 1b bf 8a 3b 40 3e 6f 1d 3b be 07 70 bc b9
       -0.60819805 0.18772712 -0.18272947 -0.0003594162
000390 2f b2 d8 3e 1f 24 56 be 41 4e ee bd 9a a3 88 be
       0.42323443 -0.20912217 -0.116360195 -0.26687318
0003a0 06 8a 4e bf a0 b4 c0 be 92 4c 47 bf 83 1b 17 3b
       -0.8067936 -0.37637806 -0.7785121 0.002305717
0003b0 07 32 28 3d 38 04 7a bf 19 65 0d bf cc 07 a0 3d
       0.041063335 -0.9766269 -0.5523239 0.07813987
0003c0 e5 10 68 be 63 6f 45 be d6 e8 11 3c a8 6e ef 3e
       -0.22662695 -0.19280772 0.00890561 0.46764112
0003d0 96 eb bb be 44 04 80 bd 7e ab 28 3f f9 99 8a 3e
       -0.36703175 -0.062508136 0.65886676 0.27070597
0003e0 7e e4 f3 3d 56 67 4b 3f c3 b0 a9 3d 97 e8 01 3e
       0.11908816 0.79454553 0.08285668 0.12686382
0003f0 f8 c4 60 be 0d 1b 18 3f 52 2a 09 3f 08 86 4b bf
       -0.21950138 0.59416276 0.535802 -0.7950139

encoder5.features.0.bias f4 [64]
000000 bb 77 4d bd 4b 07 43 3d 40 4c 3f 3d c5 a6 00 bd
       -0.050163012 0.047614377 0.046703577 -0.031409044
000010 d3 ba eb 3b c2 08 60 bd 3d 2a c4 3c d0 34 cf bb
       0.007193902 -0.054695852 0.023945922 -0.0063234344
000020 f3 5f 28 3d 1e b9 07 bd c0 a3 d7 3b 9c e7 b7 3c
       0.04110713 -0.033135526 0.0065808 0.022449307
000030 50 d2 03 bd 52 4c 15 3d c0 ba d5 bc 9c 4c be 3c
       -0.03218299 0.036449738 -0.026090026 0.02322989
000040 bf 0a 64 bd e8 de 1f bb 68 ad 3f bd 72 33 34 3d
       -0.05567431 -0.0024394337 -0.046796232 0.043994375
000050 f7 35 d1 3c 05 6b 2c 3a c5 20 71 bd b9 af ad 3c
       0.025538428 0.00065772264 -0.058869142 0.021201955
000060 72 86 46 3c 4c 8b 3f 3d b4 36 84 bc fb a3 70 3d
       0.012117015 0.046763703 -0.016139366 0.058750134
000070 8c 29 31 bd 6e ea 1a 3c f5 a0 a4 3c 4b 0e 0d 3d
       -0.043252513 0.009455306 0.020096282 0.03443746
000080 ff f5 1e 3d c0 57 36 bd cf df 17 bd 49 1d 82 bc
       0.03880882 -0.04451728 -0.037078675 -0.015883105
000090 1a 54 72 bc 92 54 45 3d 8a b4 9a 3b db d6 fe bc
       -0.014790559 0.048176356 0.004721229 -0.03110831
0000a0 8f 3d 0a bd 51 86 a7 3b fd 14 92 3a 2a 77 13 3d
       -0.033750113 0.0051124473 0.0011145171 0.036002316
0000b0 b7 cc 35 bd ed 68 54 3d 00 eb fd bc 65 69 57 3d
       -0.044384684 0.051857878 -0.030995846 0.052590746
0000c0 aa 1d 6f bd f4 4a 56 bd ab 8a 4b 3d c2 0c 05 bd
       -0.0583779 -0.052317575 0.04969279 -0.03248287
0000d0 fa 12 d5 3c ae 36 1c bd 05 fb 1b bd e3 9b ca 3c
       0.026010025 -0.038138084 -0.038081188 0.024732536
0000e0 9c 1d 93 bc c3 c6 40 bd b6 66 04 bd 6b f8 92 ba
       -0.017958455 -0.047064554 -0.032324515 -0.001121295
0000f0 59 fd 38 3c 81 e6 8b 3a 07 c6 3f bd f3 ea 1d 3d
       0.011290872 0.0010673554 -0.046819713 0.038554143

encoder5.features.1.weight f4 [64]
000000 49 ce 84 3f 21 75 00 3f 6d b3 3c 3f 41 28 76 3f
       1.0375453 0.50178725 0.7371128 0.9615517
000010 3b 1e 60 3f c9 ee cd 3d 46 40 28 3f 37 92 3a 3f
       0.8754613 0.1005531 0.65723073 0.72879356
000020 9f bb 2f 3f 6e 0c 5c 3f 24 d0 93 3f df 32 43 3f
       0.6864566 0.85956466 1.1547894 0.762495
000030 a6 9b 5c 3f 8f 3b 4f 3f 8e 85 bb 3f 93 70 4b 3f
       0.86175 0.80950254 1.4650133 0.7946865
000040 c0 64 26 3f a5 52 2a 3f cf da f5 3e c3 23 15 3e
       0.6499748 0.66532356 0.480185 0.14564423
000050 dd f6 4e 3f 95 80 28 3f fa bd 4a 3f a2 3a 77 3f
       0.80845433 0.658212 0.7919613 0.9657384
000060 c2 45 77 3f 52 6e 06 3f 9a 34 13 3f d4 47 69 3f
       0.96590817 0.52512085 0.5750214 0.91125226
000070 8e bc 9b 3f d0 34 33 3f aa 69 dc 3e d1 69 5f 3f
       1.2166917 0.7000246 0.43049365 0.8727084
000080 01 40 63 3f 4d 39 88 3f 1d 29 63 3f 8b 7c aa 3f
       0.8876954 1.0642487 0.8873461 1.3319257
000090 53 e5 03 3f 0b 22 3f 3e 58 6a d5 3e f1 55 8f 3f
       0.51521796 0.1866533 0.41682696 1.1198102
0000a0 6d 73 c2 3e 05 41 41 3f 16 df 7d 3f ac 5d 86 3f
       0.37978688 0.75489837 0.9916853 1.0497336
0000b0 97 a8 85 3f 76 14 98 3f a5 9e 7e 3f 83 1c 3d 3f
       1.0442075 1.1881244 0.9946082 0.7387163
0000c0 16 e8 55 3f 00 52 9f 3f b8 40 6a 3f bc 6e 1a 3f
       0.8355726 1.24469 0.91505 0.6032522
0000d0 6d bb 53 3f 1d 49 68 3f 75 79 17 3f 19 53 72 3f
       0.82707864 0.9073656 0.59169704 0.94658047
0000e0 c5 d9 60 3f 2d c7 94 3f ec 49 8e 3f f8 57 3e 3f
       0.8783229 1.1623284 1.1116309 0.7435298
0000f0 8b d3 8f 3f f9 19 cd 3e b9 8b 8a 3f 10 38 2e 3f
       1.1236433 0.40058878 1.082389 0.68054295

encoder5.features.1.bias f4 [64]
000000 fd 82 aa 3c 38 94 20 bf 31 a6 8b be 68 82 be be
       0.020814413 -0.62726164 -0.2727523 -0.37208867
000010 7c a2 19 3f 1e 3f bf be 9e 56 35 bf d1 85 1b be
       0.60013556 -0.37352842 -0.7083529 -0.15187766
000020 d0 81 5c bf 97 d0 b3 be a5 f3 01 bf d4 d5 92 3f
       -0.8613558 -0.3512008 -0.507624 1.1471505
000030 c3 24 11 bf ab ef 37 bd 28 dd ab 3d 33 84 c7 be
       -0.5669672 -0.0449063 0.083917916 -0.38968047
000040 9e ee 88 be ce d7 ec 3e 2a 80 0e bf da 9a 38 bf
       -0.2674455 0.46258396 -0.5566431 -0.72111285
000050 40 0c 2e 3f 9b 1c df be 04 30 c0 be f7 83 34 3f
       0.6798744 -0.43576512 -0.37536633 0.7051386
000060 23 22 bd be 2d 9d 46 bf 56 2e ed be 8c ed c6 bd
       -0.36940107 -0.7758358 -0.46324414 -0.09713277
000070 77 ef 8f be ed b9 2c be 5e 70 2f bf 7d 7a a8 be
       -0.28112385 -0.168678 -0.68530834 -0.3290595
000080 fe a4 84 3e 61 df 9b 3f 35 2f 6e 3f 6a 23 8a 3f
       0.2590713 1.2177545 0.9304078 1.0792058
000090 52 b6 82 be cb 03 31 bf 05 ed 10 bf db bf 25 be
       -0.25529724 -0.6914641 -0.56611663 -0.16186468
0000a0 b1 76 0d 3f be 3b 5a 3f 72 6c df b9 ed 70 25 3f
       0.55259234 0.8524741 -0.00042614673 0.64625436
0000b0 7b d8 2a 3f df da 5c 3f 35 a1 e1 be 7d d1 3c 3e
       0.66736573 0.8627147 -0.44068304 0.18439288
0000c0 53 15 8c be 72 8f 1c be 1a f2 91 be c0 9d 43 bf
       -0.2736002 -0.15289095 -0.2850502 -0.7641258
0000d0 75 d1 ee 3e 9e 31 a0 3f 02 1b 7e 3e 0b 6d e5 3e
       0.46644178 1.2515142 0.2481499 0.44809756
0000e0 b3 e3 50 3f 36 c2 c8 be 1e 54 6f bf d5 22 a8 be
       0.8159744 -0.3921067 -0.9348773 -0.32839075
0000f0 70 26 a8 bd 41 d2 0a bf 98 45 0e 3f d1 82 10 bf
       -0.08210456 -0.5422707 0.5557494 -0.5644961

encoder5.features.1.running_mean f4 [64]
000000 14 58 65 c1 57 ea 6e c0 96 51 22 c1 58 cc 25 c1
       -14.334003 -3.733053 -10.144918 -10.362389
000010 63 c3 f0 3e 63 5d db 3f 0d 37 0b bf 0f b7 22 c1
       0.47024068 1.7137874 -0.54380876 -10.169692
000020 bf 1d 9c 3e 4d fc 1a c1 6a 19 8d c1 2a d1 22 c1
       0.30491444 -9.686597 -17.63741 -10.176065
000030 03 6a 1a c1 90 fd 52 c1 94 92 df c0 38 db 93 bf
       -9.650882 -13.186905 -6.986643 -1.1551275
000040 d4 c0 47 c1 59 da c0 c0 61 be 7f c0 01 46 90 bf
       -12.484577 -6.026654 -3.9959948 -1.1271363
000050 02 ff 5c c1 7d 2b 18 c1 b8 3f 5d c0 71 3e 1b 40
       -13.812258 -9.510617 -3.457014 2.4256861
000060 e6 8e 52 c1 91 d5 ce bf 3b 3e b7 3f 17 25 4e c1
       -13.159887 -1.6158925 1.4315866 -12.884055
000070 b9 69 0a c1 8b aa 35 c1 48 15 f6 bf a9 75 71 40
       -8.650811 -11.354136 -1.9225245 3.7728064
000080 96 76 2d c1 c8 72 55 c0 e0 29 6a c0 a4 d7 0a 41
       -10.841452 -3.3351307 -3.6588058 8.677647
000090 9c 4e c7 c0 49 4b 9a be ae e1 2a c0 bf 27 7a c1
       -6.228346 -0.30135563 -2.6700244 -15.634704
0000a0 25 d9 b5 c0 2c 36 e6 3f 3e 94 15 c1 ca ae c4 c0
       -5.682757 1.7985282 -9.348692 -6.1463366
0000b0 30 cd 97 c0 fb 72 b5 40 5d b1 17 c1 b7 58 16 c1
       -4.7437973 5.6702857 -9.480802 -9.396659
0000c0 7c 5e be c0 b6 cb 1f c1 ff 04 3b c1 38 1d 16 c0
       -5.9490337 -9.987234 -11.68872 -2.3455334
0000d0 08 dc 19 c0 ef 72 4d c0 0c 61 81 3f 61 06 be c0
       -2.4040546 -3.21014 1.0107741 -5.9382787
0000e0 eb 14 8c c0 b8 5a c3 c1 ef 61 16 c1 50 16 21 c1
       -4.3775535 -24.419296 -9.39891 -10.067947
0000f0 08 e2 9f c1 95 ee 7c c0 bf dd 94 c0 4c 4f 1d 40
       -19.985367 -3.952062 -4.6520686 2.457965

encoder5.features.1.running_var f4 [64]
000000 75 3d c6 42 d7 04 5f 41 de fa 3b 42 a9 09 28 43
       99.12003 13.938682 46.994987 168.03773
000010 ee 19 01 43 1a 51 b7 41 dd 0c 56 42 f9 6d 7a 42
       129.10129 22.9146 53.51256 62.607395
000020 30 6e 6f 42 88 82 f0 42 99 8c 87 42 8c 70 8d 42
       59.857605 120.254944 67.774605 70.71982
000030 fb 4d 8b 42 2e 01 da 42 a7 c0 66 43 07 1f 64 42
       69.652306 109.002304 230.75255 57.0303
000040 b8 3c 91 42 76 21 a7 42 86 c3 e6 40 e6 69 0c 41
       72.61859 83.56535 7.2113676 8.775854
000050 6e 13 83 42 f7 05 25 42 a7 99 1b 43 16 01 6b 42
       65.53795 41.255825 155.6002 58.75106
000060 2c d2 0c 43 3b 20 16 41 40 ad 10 41 bd ec 23 43
       140.82098 9.382869 9.042297 163.92476
000070 9c 70 cb 42 9b ae b1 42 79 94 dc 40 a6 be 39 42
       101.71994 88.84103 6.893124 46.43618
000080 16 a5 b5 42 35 40 3f 43 71 5e 97 42 68 57 a7 42
       90.82243 191.25081 75.684456 83.670715
000090 b6 dc f3 41 4a 4f 34 43 ad 0b f3 40 4f 5d 2f 43
       30.482769 180.30972 7.5951753 175.36449
0000a0 e3 2e 9c 42 4c fa db 42 f7 ac 28 43 9d c3 da 42
       78.091576 109.98886 168.67564 109.38206
0000b0 2a da 5a 42 bd 78 f1 42 8b 59 2e 43 cd 04 a2 42
       54.71305 120.73582 174.34978 81.00938
0000c0 ec 28 58 42 9e a2 56 43 cc 6a fe 42 fd 99 99 41
       54.039963 214.63522 127.20859 19.20019
0000d0 03 ce da 42 d5 47 9d 42 a4 59 63 42 09 51 86 42
       109.40237 78.6403 56.83754 67.15827
0000e0 77 7d e3 42 3e 1e a5 42 d2 52 89 42 9f 01 ea 41
       113.74505 82.55907 68.66176 29.250792
0000f0 2a 02 19 43 c9 8e 5c 41 4d aa 5c 42 e0 3a 33 42
       153.00845 13.78486 55.16631 44.807495
