model/SRNet_2021-07-20_00-22-22.pth (torch, 228167 bytes, 104 tensors)

encoder1.features.0.weight f4 [4, 3, 3, 3]
000000 f1 ad 59 3e e1 df b5 3d c4 ff f3 bd 67 09 bb 3d
       0.2125776 0.08880592 -0.11914018 0.09132653
000010 89 05 36 3e e3 69 0d 3e 68 c5 56 3d 73 ef 1b be
       0.17775549 0.13809924 0.052434355 -0.15228061
000020 38 3c 9c 3d 59 85 ee bd 60 64 c1 bd da f5 15 be
       0.07628673 -0.11646528 -0.09442973 -0.14644566
000030 bd 81 54 be bf c0 cc bd 13 c8 a1 bd 21 3b 49 be
       -0.20752616 -0.09997701 -0.07899489 -0.19651462
000040 6b 90 76 be a9 8b 5c 3d da 46 bd bc 78 e1 5c be
       -0.24078529 0.053844128 -0.023105074 -0.21570385
000050 32 f1 bb bd 05 07 f3 bd 53 8e 73 bd 0f b7 3f be
       -0.09176864 -0.11866573 -0.059461903 -0.18722175
000060 cb 51 36 bd b4 23 fe bd b4 4f 35 be a7 ed 8c be
       -0.044511598 -0.124091536 -0.17706186 -0.27525064
000070 00 ad 0f bf ca 81 98 be c7 d7 90 be 00 43 12 bf
       -0.5612335 -0.2978652 -0.28289625 -0.57133484
000080 b6 d0 79 be 06 22 30 be e7 43 e7 be 2b d7 c1 be
       -0.24396023 -0.17200479 -0.45168993 -0.37859473
000090 cd ee fd bd 10 7d 38 be c6 b1 8c be d0 5d ac be
       -0.12399063 -0.18016458 -0.2747938 -0.33665323
0000a0 f9 6c be be 36 d8 1c bd b4 ed 19 be 75 f2 c9 bd
       -0.37192515 -0.038292132 -0.15032083 -0.09860698
0000b0 01 a8 69 be 36 3b 4b 3e f2 78 63 3d 75 98 0d 3e
       -0.22817995 0.19846806 0.055535264 0.13827689
0000c0 73 c1 63 3d 2b a0 b4 bd 50 33 84 3e d2 a2 26 3e
       0.05560441 -0.08819612 0.25820398 0.16273049
0000d0 c4 f9 45 bb 85 c6 98 3e 11 ce 41 be d2 af 47 be
       -0.0030208686 0.29838958 -0.18926264 -0.19500664
0000e0 97 f2 ba 3d c3 c5 99 3c 9b e3 3a be 9c c7 40 bd
       0.091283016 0.018771058 -0.18250887 -0.047065362
0000f0 60 df 2d be 3e c5 86 be cf 53 fd bd 41 ab 83 be
       -0.16979742 -0.2632236 -0.12369501 -0.25716594
000100 24 fc a6 bd 40 55 07 3e 65 18 81 3d b4 76 b2 3d
       -0.08153561 0.13216114 0.06303481 0.08714047
000110 58 89 1d be e8 49 2d be 83 6c 59 3d 5f 14 55 bb
       -0.15384424 -0.16922724 0.053082 -0.0032513363
000120 e3 d4 28 3d 7d bb f4 bd 2b a7 69 be 74 10 88 be
       0.04121865 -0.11949823 -0.22817676 -0.26575053
000130 e6 17 46 be 62 dd 53 be b2 5c 08 be 3d 0d 96 be
       -0.19345054 -0.2068992 -0.1331661 -0.29306975
000140 53 f9 99 be b2 7b c8 3d 8e bd 16 3d 81 eb 9a bd
       -0.30073032 0.09789218 0.036801867 -0.0756445
000150 6a 19 1b 3e fa 61 7b 3e 39 f7 06 3d 5c 74 8b 3d
       0.15146413 0.24549094 0.032950614 0.06809303
000160 bb 74 bc 3b f8 7d 51 bc 00 1c 92 be 64 49 03 3f
       0.00575122 -0.012786381 -0.28536987 0.5128386
000170 93 ae b6 3e 8e 5a d6 bd de db 55 3f 51 35 eb 3e
       0.35680065 -0.10466491 0.83538616 0.45939115
000180 48 39 b2 bd c1 df 9a 39 7c e2 17 bd 6d be 13 be
       -0.08702332 0.0002953988 -0.037081227 -0.1442811
000190 5f 32 3f 3f a8 87 43 3e 75 a7 1c 3e dc e7 8c 3f
       0.74686235 0.19094718 0.15298255 1.1008258
0001a0 21 85 35 3f fa dc 97 be 45 41 07 3e cd db 89 be
       0.70906264 -0.2966078 0.13208492 -0.26925507

encoder1.features.0.bias f4 [4]
000000 40 93 0c be 39 96 d8 3d 92 dc 63 bd a2 5a a8 bc
       -0.13728046 0.10575528 -0.055630274 -0.02055103

encoder1.features.1.weight f4 [4]
000000 1d 90 7f 3f 4c ef 88 3f db 7a 7e 3f b1 ed 9e 3f
       0.99829274 1.0698028 0.9940621 1.2416288

encoder1.features.1.bias f4 [4]
000000 1c a2 6b be 8c 1a 62 be 6f 52 01 bf 47 2d a2 3e
       -0.23011059 -0.2208044 -0.5051641 0.3167517

encoder1.features.1.running_mean f4 [4]
000000 cf 9c 3f bf f4 1b 01 c0 49 b7 b5 bf de 0e ee 3f
       -0.74848646 -2.0173311 -1.4196559 1.8598287

encoder1.features.1.running_var f4 [4]
000000 bd f2 ef 3d db 79 63 3f 4a 6e d1 3e 0e 96 59 3f
       0.117162205 0.8885781 0.40904456 0.8499459

encoder2.features.0.weight f4 [8, 4, 3, 3]
000000 86 5c 2e 3e 32 79 a6 3e 9d 8a 19 3e 79 bb ae 3e
       0.17027482 0.3251434 0.14994283 0.34127405
000010 61 37 3c 3e b6 c6 df 3e 7d b0 66 3e 41 1e a3 3e
       0.183805 0.43706292 0.22528262 0.3185902
000020 41 3d d8 3e e3 d7 16 3e 34 13 12 3c f2 59 25 3e
       0.42234233 0.14730792 0.008915711 0.16147593
000030 47 b7 c4 3d b7 a2 a4 3d 54 cf eb bd 61 cb 37 3e
       0.0960527 0.08038848 -0.11514154 0.17948677
000040 9f 06 70 3e 54 65 94 3e 42 5f 78 3e 32 80 e9 3d
       0.23440026 0.28983557 0.24255088 0.114014044
000050 64 5c af 3e d0 86 cf 3e b9 b3 89 3e 88 03 c1 3e
       0.34250176 0.4053254 0.2689493 0.37698007
000060 31 9d 94 3e d8 ec 89 3e 4e 01 5d 3e a9 0c 36 3e
       0.29026178 0.2693851 0.21582529 0.17778267
000070 75 a2 27 3e ef eb db 3d 9d a6 21 3d 15 d4 91 bd
       0.16370566 0.1073836 0.039465535 -0.071205296
000080 c1 77 9c bc 9b b5 38 be f2 24 9c 3d 0f 90 4a be
       -0.019100072 -0.18038027 0.07624234 -0.19781516
000090 a8 cc 0d 3e 54 a8 f7 3d d0 2e a4 bd 2a 7b 56 3d
       0.13847601 0.12092653 -0.08016741 0.052363552
0000a0 f8 a0 04 bc d1 8e 30 3e f6 0b 79 3e fc 7a 06 3e
       -0.008095019 0.1724198 0.24320969 0.13132852
0000b0 15 09 8d 3e 7e 2e 0c 3e 98 97 07 3e 73 ac 49 3e
       0.27545992 0.1368961 0.13241422 0.1969469
0000c0 18 05 23 3e 8f df a4 3e 54 bd 5e 3d 70 00 7b 3d
       0.15919912 0.32201812 0.054379776 0.061279714
0000d0 2e 25 4f 3d 9f b6 3c 3e 62 5e 7b 3e e5 7c 8a 3d
       0.050572567 0.1842904 0.24547723 0.06762103
0000e0 e9 d2 89 3e ba 1b 5a 3e d1 ab d1 3d 62 30 cf 3e
       0.26918724 0.2129964 0.102378495 0.404666
0000f0 6d 3e 88 3e d6 c9 8e 3e ad f9 ea 3d c5 96 00 3d
       0.26610127 0.27888364 0.11473403 0.031393785
000100 3e ef 5d bd 49 10 9f bd 3e 3d 10 be 8c 8d 3f be
       -0.054183237 -0.07766778 -0.14085862 -0.1870634
000110 9a 0d ea 3d e5 3e c3 bd f1 5e 1c 3e 67 fa 2b 3c
       0.114283755 -0.095334806 0.15270592 0.010496712
000120 d3 e6 9e bd 7b 9b 94 3c 92 03 1f be 7b f4 da ba
       -0.0775887 0.018140545 -0.15528706 -0.0016704941
000130 37 f3 ce bd e4 06 0c be a7 88 61 3d ee a2 6d 3d
       -0.10104983 -0.13674504 0.055061962 0.05801671
000140 ba ba 91 3c da 7c 68 be 74 71 17 be af 38 2c be
       0.017789233 -0.22703877 -0.14789373 -0.16818498
000150 51 ea 7d be a6 f5 af be a5 20 d0 bc 5b e5 b7 be
       -0.24796416 -0.34367102 -0.025406191 -0.35917172
000160 b1 4d 87 be e9 9b 9e be fe a0 37 be f5 32 bb bc
       -0.2642646 -0.30978325 -0.17932507 -0.022851447
000170 19 fa 49 3c 4c d8 50 be 91 c2 1e 3c f3 fa 61 be
       0.012327694 -0.2039501 0.009689943 -0.22068386
000180 6c f9 05 bd a6 b8 2b bc ca 91 88 be bb 59 96 be
       -0.03270857 -0.010481035 -0.26673728 -0.29365334
000190 6f bc 34 be e1 d2 83 be e1 51 e7 3d e4 d6 01 3d
       -0.17650007 -0.25746825 0.11294914 0.031699076
0001a0 cb 2b 01 3e df 96 38 bc 0b 53 2c be 6b df 8e 3e
       0.12614362 -0.011266439 -0.16828553 0.2790483
0001b0 50 54 e1 3e d5 34 fa 3c 96 fe ad bd b0 c7 be 3e
       0.44009638 0.03054277 -0.08495824 0.37261724
0001c0 b8 17 1b bd 74 c4 6f be ae 32 69 3e 2d cc 51 be
       -0.037864417 -0.23414785 0.22773239 -0.20488043
0001d0 0d d2 98 be a5 92 86 3d a1 0c 92 be 4e 3d bd be
       -0.29847756 0.06570939 -0.2852526 -0.36960834
0001e0 e1 da 2c 3f 8b 7f a2 3e 8b 29 e0 3d 42 0e 3d 3f
       0.6752148 0.31737933 0.10945424 0.7384988
0001f0 73 e5 14 3f 77 94 8b 3e 86 69 bc bd 94 bd ec be
       0.5816261 0.27261707 -0.091998145 -0.46238387
000200 05 72 b8 be 27 53 97 3d dd ad 17 be e7 22 5b be
       -0.3602449 0.07388907 -0.14812417 -0.21400033
000210 c7 40 46 3e 7a b6 c1 bd 65 8e 85 be 4a 63 43 be
       0.19360648 -0.09458633 -0.260852 -0.19080845
000220 36 b5 f6 3e c0 92 02 3f e8 be 83 be b1 83 d1 3e
       0.48185128 0.5100517 -0.25731587 0.40920785
000230 a8 c5 d0 3e fe 74 62 bf ea 76 54 be d4 61 83 be
       0.407758 -0.88459766 -0.20748487 -0.25660574
000240 66 e2 75 3e b2 f7 98 3e b2 f1 81 3e 4f 66 4b 3d
       0.24012145 0.29876477 0.2537971 0.049658116
000250 f9 4e d3 3d 1e b8 99 3e 14 83 0d 3e cc e8 53 3e
       0.10317797 0.30023283 0.13819534 0.20694274
000260 14 45 95 3d 27 18 c2 bd 4c f2 1c 3d 6c 7d 42 be
       0.07288566 -0.09477263 0.03831701 -0.18993157
000270 7b 6d 54 bc 4c 6f 40 be c3 0e 48 be 12 26 b7 3c
       -0.012965555 -0.18792456 -0.19536881 0.02235702
000280 5d f5 80 be c2 22 63 be bd 29 be bc 43 9c 9b bd
       -0.25187197 -0.22181228 -0.023213262 -0.07598164
000290 83 a3 88 3d f3 c3 98 3d 18 36 2f be 06 c6 0a 3e
       0.066718124 0.07459249 -0.17110479 0.13552102
0002a0 00 64 57 bd 4b 7b ff bd 18 49 27 be 3c a6 31 be
       -0.0525856 -0.12474688 -0.16336477 -0.1734857
0002b0 e0 97 f9 bc 16 ba 96 3d 41 f9 f5 3d 29 b9 03 be
       -0.030467927 0.07359712 0.12010432 -0.12863602
0002c0 6d 99 f0 3d 67 06 b7 bd 9d d5 0f be f8 15 1a be
       0.11748014 -0.08936768 -0.14046331 -0.15047443
0002d0 52 db 01 be f2 1b 32 bc c0 25 1b 3e 1e fc 64 be
       -0.1268132 -0.0108709205 0.15151119 -0.223618
0002e0 45 29 66 be 85 e1 ea 3d e3 fe 82 bc b1 dd 1e bc
       -0.2247668 0.11468796 -0.01599068 -0.00969641
0002f0 3c 06 18 bd 1d f3 b0 bc cc 96 5d 3e cc 3f bc 3e
       -0.03711532 -0.0216003 0.21639556 0.36767423
000300 ea e5 08 be dc f9 5c be a9 b6 88 3e d7 4b a8 be
       -0.13368955 -0.21579689 0.2670186 -0.3287036
000310 f1 47 f5 bd fb cb 22 3c 72 6c 13 be 6a 6a a8 3b
       -0.11976612 0.009936328 -0.14396837 0.0051396387
000320 5c d2 55 3d a8 65 95 be 1c 64 79 bd 5a 61 06 be
       0.052202567 -0.2917912 -0.060886487 -0.13123074
000330 33 e6 00 be c2 b9 87 be 1e e0 58 3d e3 04 0b 3e
       -0.12587814 -0.2650891 0.05294811 0.13576083
000340 68 0a 29 3e e6 1a 0c 3d 3f 9c 87 3e 81 bc 24 3e
       0.16507876 0.03420534 0.26486394 0.16087534
000350 ca ec f9 3d fd 88 96 3e 29 4c 19 3e b9 da dc 3b
       0.12203367 0.2940139 0.14970459 0.006739941
000360 0c 11 47 3e 9a 6f b0 bd 6e 9a d1 bd 51 be 66 be
       0.19440097 -0.08615036 -0.10234533 -0.22533537
000370 5d 16 20 3c 2c 98 1b bc a1 3a b1 bd 0e ca da bc
       0.009770957 -0.00949673 -0.08653761 -0.026707675
000380 91 59 43 be 25 29 0d be 2b 86 a4 be 1b d1 a1 be
       -0.19077136 -0.13785227 -0.32133612 -0.31604847
000390 5f 82 bd be 8f 37 5e be 7a 08 e1 be 66 0a b6 be
       -0.37013528 -0.21700881 -0.4395178 -0.35554808
0003a0 b6 e8 b3 be 60 b0 f2 bd 1d 4f d9 bd ab ab 4e be
       -0.35138482 -0.11850047 -0.10610793 -0.20182674
0003b0 78 8c 0c be f0 d7 1d be 6a 66 58 be 90 fb 28 be
       -0.1372546 -0.15414405 -0.21132818 -0.16502213
0003c0 cd 66 a4 be 0d c1 bb be cc 11 25 be 7c ce c3 3c
       -0.3210968 -0.36670724 -0.1612007 0.02390217
0003d0 a6 35 2c be 31 a7 a9 3d ab 31 5a 3e 68 f1 37 3e
       -0.1681734 0.08283842 0.2130801 0.17963183
0003e0 a0 0d f5 bd e9 46 0a be 5a 92 1b bd b0 af 9c be
       -0.119654894 -0.13503613 -0.03798137 -0.3060279
0003f0 b0 f2 97 3d 79 64 0f 3e ea 39 70 3d 2b 66 6d 3e
       0.07419336 0.14003171 0.05864898 0.23183505

encoder2.features.0.bias f4 [8]
000000 20 d9 0b 3e 3a 42 cb 3d ff c8 1a be 65 75 fc 3d
       0.13657045 0.09924741 -0.15115736 0.12327079
000010 20 db 63 3d 69 bc d2 bd 97 d6 34 be b9 15 74 3c
       0.055628896 -0.10289843 -0.17659985 0.014897757

encoder2.features.1.weight f4 [8]
000000 1e ca 75 3f 79 68 7d 3f 6c e7 64 3f 0b d5 0d 3f
       0.9601153 0.9898754 0.8941562 0.554032
000010 a2 2e 67 3f 82 f5 55 3f 10 1a 68 3f 8f de 3a 3f
       0.9030553 0.8357774 0.9066477 0.7299585

encoder2.features.1.bias f4 [8]
000000 b4 a3 b7 be cb 3c e6 be ee 49 ab 3c 6b 69 a1 be
       -0.35867083 -0.44968256 0.020909276 -0.3152574
000010 68 0b 81 be 25 39 ed 3d 42 45 20 3c 21 7f da be
       -0.25204015 0.11583165 0.009782137 -0.42675117

encoder2.features.1.running_mean f4 [8]
000000 11 23 fc 3f 47 18 94 3f 40 68 b8 bf 37 e6 12 3f
       1.9698201 1.1569909 -1.4406815 0.5738253
000010 14 9c 3b be b1 ba 0c 3f 57 30 ee bf e5 9c 50 3f
       -0.18321258 0.5497237 -1.8608502 0.814894

encoder2.features.1.running_var f4 [8]
000000 9b 53 a6 40 d3 c8 4a 40 a1 9d f2 3f dc f9 78 3f
       5.1977057 3.1685073 1.8954355 0.97256255
000010 b2 8b e4 3e 08 25 01 40 ff 8a 83 40 1f 35 31 3f
       0.4463783 2.0178852 4.1107173 0.6922168

encoder3.features.0.weight f4 [16, 8, 3, 3]
000000 2a 35 18 be 6f e2 80 be 48 68 a6 bd 0d 6a 41 be
       -0.1486403 -0.25172755 -0.08125359 -0.18888111
000010 83 ef 04 be 35 7b 58 be 9c d2 90 bd 44 d7 d7 bd
       -0.12981991 -0.2114075 -0.070714206 -0.105391055
000020 f2 1a 85 be 43 f7 ac bb 06 cb cb bc 05 46 d8 bd
       -0.2599712 -0.0052784993 -0.024877083 -0.1056023
000030 4f cd 1c be b1 ce 0c bd 42 7d e9 bc c8 28 40 3c
       -0.15312694 -0.034376804 -0.02850211 0.011728473
000040 0a fd 19 be 7c 26 e7 3b 48 8b 17 3e 9f 06 55 3e
       -0.15037933 0.0070541482 0.14799225 0.20803307
000050 8a e7 6f 3d bb 00 7b 3e 06 5d 3b 3e fd d5 26 3e
       0.058570422 0.24511997 0.18297204 0.16292568
000060 d5 de 92 3c fc 84 86 3d bf 15 2c 3e b7 39 9d bd
       0.01792852 0.065683335 0.1680517 -0.07677024
000070 3a 99 26 3e 28 f6 8f bd 72 f8 09 3d 12 48 68 3e
       0.16269389 -0.070293725 0.0336842 0.22683743
000080 20 73 b8 bd 87 e1 08 3e 49 0b f1 3d 4b 23 0f be
       -0.09006333 0.13367282 0.117697306 -0.13978307
000090 0e cd 08 3e 60 82 49 3d 2a 73 a3 3e b2 a9 4e 3e
       0.13359472 0.0491966 0.319238 0.20181921
0000a0 28 86 3f 3e f3 74 3e 3e ad 71 62 3e 6a 4f eb 3d
       0.1870352 0.185993 0.22113676 0.114897564
0000b0 9d d3 15 3e fe 9b 63 bb 73 23 24 3e 96 c1 82 3b
       0.14631505 -0.003473043 0.16029148 0.0039903624
0000c0 e7 f6 76 3e d5 51 1a 3e b3 ee 40 be 66 95 1b 3e
       0.24117623 0.15070279 -0.18841057 0.1519371
0000d0 7f 40 86 be 40 2d 04 bf f8 a5 85 3e 96 d9 8c 3e
       -0.26221082 -0.51631546 0.26103187 0.27509755
0000e0 e4 53 a5 3e e6 bf 94 3e fe 61 a4 3e 9b 66 f3 3e
       0.32290566 0.29052657 0.32106012 0.4753922
0000f0 b3 4a ad 3e ff 35 81 3e 16 bd b8 3e 59 c7 de 3d
       0.33846053 0.25236508 0.3608176 0.10877866
000100 6f 4c 3a 3e ab 90 12 be f1 21 84 3e 47 d0 91 3d
       0.1819322 -0.14312999 0.25807145 0.07119804
000110 f9 33 6d be 9d db 03 3e f0 2d 47 be a4 bb d2 be
       -0.23164357 0.12876745 -0.19451118 -0.41158783
000120 ed e3 28 bd 82 64 b4 bd 90 ce 19 be 2c 47 50 be
       -0.041232992 -0.08808233 -0.15020204 -0.2033965
000130 32 cd 22 be 56 9a bf 3c 2e 59 85 be ab 29 dc bd
       -0.15898588 0.023389023 -0.260446 -0.10750135
000140 ec 06 eb bd 78 3d 71 be 51 4a 8b be 3d 45 15 be
       -0.114759296 -0.23558605 -0.27205136 -0.14577194
000150 a9 ef 1a be 67 5d f0 bd cb bf 28 be a7 37 a2 be
       -0.15130486 -0.11736565 -0.16479413 -0.31683084
000160 e3 33 78 be c9 6b 76 be 04 63 f9 bc 3d 09 5c bc
       -0.24238543 -0.24064554 -0.030442722 -0.013429937
000170 0c 07 9a 3c 36 d8 7a bd 06 fe c9 bd 53 0c 2e bd
       0.018802188 -0.06124135 -0.09862904 -0.042492222
000180 62 f0 c1 bc e6 ec 87 bd f0 c5 1c be 1e 16 22 bd
       -0.023674194 -0.06636982 -0.15309882 -0.039571874
000190 d8 3f 87 bd 7c c3 38 be e5 f7 16 3d 7d ef 4e 3c
       -0.06603974 -0.18043321 0.036857504 0.012630341
0001a0 70 39 2b be fe b4 b5 bd 63 1c 1d bd 8d e5 2a be
       -0.1672113 -0.08872412 -0.03835715 -0.16689129
0001b0 59 40 b4 bd e6 91 35 be 90 a4 89 bd f2 58 88 bd
       -0.08801336 -0.17731437 -0.06720841 -0.0665759
0001c0 9f f3 8b bd c1 87 8b bc c8 1c b8 bd 42 d4 bb bc
       -0.068335764 -0.017032506 -0.089898646 -0.02292836
0001d0 be fe b6 bd 1d c5 1a be 99 a7 88 be 53 9b a8 be
       -0.08935307 -0.15114255 -0.26690367 -0.32931003
0001e0 33 34 7d be f2 a3 ab be 3a 95 b8 be ab 86 69 be
       -0.24726944 -0.33523518 -0.3605135 -0.22805278
0001f0 f2 38 eb bd 45 52 6c be 32 7a 88 3c 26 31 80 be
       -0.11485471 -0.23078258 0.01665983 -0.25037497
000200 d1 48 49 be 32 bc 0a be 6b 7b 9e be fb 83 4d be
       -0.19656684 -0.13548353 -0.30953535 -0.20069878
000210 6a 3a 01 be cb b6 04 be 2a 35 06 be 0b c2 03 be
       -0.1261994 -0.12960355 -0.13106218 -0.1286699
000220 66 ef 90 bd 6d 21 02 be 78 19 90 be ee d2 99 bd
       -0.07076912 -0.12708063 -0.2814443 -0.07510935
000230 57 ba 8c be fe 4b 10 be 0e 0e 0e be 36 a2 3b be
       -0.27485916 -0.14091489 -0.13872549 -0.18323597
000240 e1 af 58 be ec 16 df bd 59 46 32 be 54 12 5f be
       -0.21160842 -0.10893044 -0.17409648 -0.21784335
000250 e3 f0 8a be e3 f1 7d be c4 d0 8d be 9e 6e 29 be
       -0.27136907 -0.24799304 -0.27698338 -0.16546103
000260 2f e5 4b be e5 85 32 3d 1c dd c2 bd 95 46 f0 3c
       -0.19911645 0.043584723 -0.095148295 0.029330531
000270 22 f9 8d ba 06 2e b1 bd 01 70 4f bd a6 80 d4 bd
       -0.0010831694 -0.086513564 -0.050643925 -0.103761
000280 85 8b 5f be f3 39 76 be de 4e 50 3e 14 5d 6d 3e
       -0.21830566 -0.24045543 0.20342585 0.23180038
000290 39 32 02 3e 7d 49 1f 3e 8a 14 da 3d d9 ca 40 3e
       0.12714471 0.15555377 0.10648449 0.1882738
0002a0 00 04 3d 3e 5b 27 52 3e 73 95 c9 3d be 56 26 3d
       0.18458557 0.20522825 0.09842958 0.040610068
0002b0 ab 44 ab 3b 4a 27 eb bc f6 e7 89 3d a6 94 2a 3e
       0.0052266917 -0.028705258 0.06733696 0.16658267
0002c0 31 d3 98 bc cc 9a d4 3d 4b 34 c4 3c c6 7a 1a be
       -0.018655391 0.10381088 0.023950716 -0.15085897
0002d0 29 a6 79 3c 3f 43 81 3e f3 7e 45 3e c6 93 46 3e
       0.01523737 0.25246617 0.19286709 0.19392309
0002e0 3b 06 8b 3e 4d 22 d4 3d e6 2f 2d 3d f7 ef 0d 3e
       0.2715319 0.10358105 0.042282008 0.1386107
0002f0 7c a3 9b bd ab 1a 1c bd 2e d0 2b 3e 25 7a a3 bd
       -0.075995415 -0.03811137 0.16778633 -0.079822816
000300 76 5f 90 3d 44 62 1b 3e 25 8d c6 3d 93 de c5 3d
       0.07049458 0.15174204 0.0969489 0.09661593
000310 8c 20 9e 3d a5 d8 5f 3d 2f f8 0e be 51 94 01 3c
       0.077210516 0.054649968 -0.13961862 0.007908897
000320 9d d5 89 3c ed ad f9 3d 1d cb 4a 3e cc 5d e8 3d
       0.016825492 0.12191377 0.19804044 0.11346015
000330 07 0e 12 3e 3f bf ee 3d f1 9f 8d 3d a6 74 56 3d
       0.14263164 0.11657571 0.06915272 0.05235734
000340 56 1c eb 3d c0 be a0 bd f3 af 59 3e 44 52 6a 3e
       0.11480014 -0.07848883 0.21258526 0.22882944
000350 b8 36 51 3b 6f 06 09 3e 40 6b 06 3e 95 68 fc bd
       0.0031923484 0.1338136 0.1312685 -0.12324635
000360 63 75 8f bd af 32 f1 bd 24 a1 dd bd 7b 85 1e bc
       -0.070048116 -0.11777245 -0.10821751 -0.009675379
000370 e6 0d 5e bc 09 66 ca 3d a3 e2 41 be 68 d0 9e bc
       -0.013553118 0.09882743 -0.18934111 -0.019386485
000380 2e 39 f1 bd e0 37 7d be d2 a7 9a bd cf f0 41 be
       -0.11778484 -0.24728346 -0.075515404 -0.18939517
000390 17 50 1c bc 96 d5 40 bd 76 a8 56 bd 0f 48 02 be
       -0.009540579 -0.04707869 -0.05240675 -0.127228
0003a0 dd b5 43 be 86 c2 2a be ee 13 13 bd fb 0a bc bd
       -0.19112344 -0.16675767 -0.03590768 -0.09181782
0003b0 a6 6f 04 be 2b cc 94 be b4 9d f7 bc d8 9a 47 be
       -0.12933215 -0.29062018 -0.030226566 -0.19492662
0003c0 d8 51 56 be ae 98 a0 be 1d 9f a3 bd 01 1c aa be
       -0.20929658 -0.31366485 -0.07989333 -0.3322449
0003d0 15 af 04 be eb 12 e4 be c4 e7 7d be e7 30 28 be
       -0.12957413 -0.44545683 -0.24795443 -0.16424905
0003e0 f8 18 01 bf 1a 5b 0b bf 1c 97 fe be b0 4a 40 bf
       -0.50428724 -0.54435885 -0.49724662 -0.75113964
0003f0 d7 7a b9 3e 49 f4 2f 3e 8f 8a 2e 3e ea b9 09 3e
       0.36226532 0.17183031 0.17045043 0.13449827

encoder3.features.0.bias f4 [16]
000000 64 b1 a0 bc d6 72 bf bc bb 64 86 3d 1d 5e 5a 3d
       -0.019615836 -0.023370188 0.065621816 0.05331241
000010 be 2e 4e 3d ec 0e 31 bd 47 1f e2 bd 18 ac 77 3d
       0.050337546 -0.04322712 -0.11041122 0.060466856
000020 03 3c b8 3d 6b 27 6e bc 3d 04 d5 bc 51 91 f3 3c
       0.08995821 -0.014535765 -0.026002998 0.029732378
000030 32 5a e4 bc 5b 03 e4 bb 35 57 9b 3b 11 2e 8e bc
       -0.02787504 -0.006958408 0.0047406205 -0.01735595

encoder3.features.1.weight f4 [16]
000000 0a 05 33 3f 83 e8 57 3f eb 99 37 3f d6 99 a9 3f
       0.69929564 0.8433916 0.71719235 1.3250072
000010 99 bb 21 3f f2 23 84 3f 4e 5b 11 3f a1 36 7b 3f
       0.63176876 1.032347 0.56779945 0.9813023
000020 ef 8b 87 3f 96 29 90 3f 2a 34 78 3f 35 73 59 3f
       1.0589579 1.1262691 0.96954596 0.84941417
000030 d5 06 47 3f fd eb 57 3f a2 1e 64 3f 77 5b 47 3f
       0.777448 0.84344465 0.8910924 0.7787394

encoder3.features.1.bias f4 [16]
000000 83 ed c7 bd e9 bb 80 bd 51 63 04 be 5c 8a bc 3e
       -0.09762099 -0.06285841 -0.12928511 0.3682431
000010 27 ca 04 bf 03 3c 73 be 41 2d 8b be f0 d6 5a 3e
       -0.5187096 -0.23753361 -0.27182963 0.21371055
000020 ab 3e 0d bf 7e 9e 04 3e b4 bc 89 3e 2d 93 3a be
       -0.5517375 0.12951085 0.26901782 -0.18220206
000030 3c 2d 91 3d d6 f3 ca bd 6d 79 5b bf e4 b3 36 be
       0.07088706 -0.09909789 -0.85732156 -0.1784206

encoder3.features.1.running_mean f4 [16]
000000 ed 66 ad 3f da 78 48 c0 04 41 5b 3f 1d f6 ab c0
       1.3547035 -3.1323762 0.8564608 -5.373793
000010 92 a7 68 3f 7d 56 fd 3f 09 4c 19 3f b3 f9 97 bf
       0.9088069 1.9792019 0.59881645 -1.1873077
000020 cb 7b a4 40 26 bf cf bd d3 c3 af 3e 18 51 c2 bf
       5.1401114 -0.101438805 0.3432909 -1.5180998
000030 ad 6f 46 c0 83 d5 71 3e cc 5c 7b 3e 45 9e af 3f
       -3.1005661 0.23616605 0.24547118 1.3720175

encoder3.features.1.running_var f4 [16]
000000 07 f9 8f 40 0a ec 6c 40 1b 66 98 40 3b 5c d8 41
       4.499149 3.7019067 4.762464 27.045034
000010 6e 95 b5 3f 96 bb b4 40 d4 ea 04 40 ec 52 c7 40
       1.4186227 5.6478987 2.0768328 6.2288723
000020 ff ed 8d 40 51 48 ab 40 14 43 a4 40 86 b2 86 40
       4.4353023 5.3525777 5.1331882 4.2092924
000030 49 3a 72 40 2c 20 83 40 4e a9 40 40 54 b4 e9 40
       3.7848074 4.097677 3.0103335 7.3032627

encoder4.features.0.weight f4 [32, 16, 3, 3]
000000 87 2e a6 3d dd 60 ca bc a2 d2 0c 3d 4e 88 33 3d
       0.08114343 -0.024704391 0.034380563 0.043831162
000010 42 c7 02 be 10 35 d9 bd ae 86 98 bc 58 e0 a8 be
       -0.12771323 -0.10605824 -0.018618908 -0.3298366
000020 64 92 97 be 9b 3c 18 3e 13 a9 55 3e e0 0b 45 3f
       -0.29603875 0.14866869 0.20865278 0.76971245
000030 58 11 bc be 02 a7 e1 be a1 ff 43 3e 49 fa 9b be
       -0.36731982 -0.4407273 0.19140483 -0.3046439
000040 86 b6 90 be 80 2c 16 3e a0 ad 18 3e d2 e4 d5 bd
       -0.28264254 0.14665413 0.14909983 -0.10444035
000050 5f 0e 2a be 9e b6 38 3e 79 9b eb 3d 39 dc e7 bd
       -0.16607045 0.18038413 0.115042634 -0.11321301
000060 38 eb d0 3e 84 bd 0a 3e f4 a0 92 3d 6c 39 c1 3d
       0.40804458 0.13548857 0.071596056 0.094347805
000070 3e 6e 18 bd 55 f0 4d 3f 9a e9 00 bf fb 28 36 bf
       -0.03721451 0.8044484 -0.5035645 -0.7115628
000080 5d 65 01 be 17 d7 1a bf ee c5 5e bf a4 a0 a2 be
       -0.12636323 -0.6048445 -0.87020767 -0.31763184
000090 19 1f da bd 2e ed a8 be 52 1c 8c be 8b 48 16 bc
       -0.10650463 -0.32993454 -0.27365357 -0.009172569
0000a0 3d d4 e7 bd bf b3 8e be 84 17 17 3d 49 8f 77 bd
       -0.11319778 -0.2787151 0.03688766 -0.06043938
0000b0 ed 7a 28 be 92 14 90 3d 79 93 b3 bd f7 91 a4 bd
       -0.16453142 0.070351735 -0.087683626 -0.08035653
0000c0 34 69 1a 3e 26 65 09 be 14 d3 11 be c0 ea c0 be
       0.15079194 -0.13417491 -0.14240676 -0.376791
0000d0 54 f1 7b be cf 4d 84 bd 3e 08 15 3c bf eb 38 ba
       -0.24603778 -0.06460153 0.009096203 -0.0007054172
0000e0 3c d1 95 bd 4a f9 78 bd 21 0e c8 bd a4 ea 45 be
       -0.07315299 -0.060784616 -0.0976832 -0.1932779
0000f0 77 4c a3 bd 41 5d 8a be 40 ab b5 bd 2d 7e 62 3a
       -0.07973569 -0.27024272 -0.08870554 0.00086400175
000100 cd c6 63 3e 09 69 e8 3e 69 19 99 be 0d 01 a0 be
       0.22243805 0.45392635 -0.299022 -0.31250802
000110 12 1d 90 3d fc c9 03 bf 8d 80 cd be 88 64 4a be
       0.07036795 -0.5148008 -0.4013714 -0.19764912
000120 71 cb 4e be 9b 28 6f be 2e c3 a5 be 6c 2b 09 3d
       -0.20194794 -0.23355334 -0.32375473 0.033488676
000130 34 1a c1 3c ab 8b 99 be 88 03 1e be 07 bd d3 bd
       0.023572065 -0.2998937 -0.15431035 -0.103387885
000140 00 2c 6c be 51 b4 36 3e be 35 08 3f ee 86 f4 3e
       -0.2306366 0.17842223 0.53207004 0.47759193
000150 06 f7 23 be d3 9d 0f 3e d7 b0 b9 3e b8 c1 93 be
       -0.160122 0.14025049 0.3626773 -0.28858733
000160 68 19 f1 bd f6 5d f0 3d e4 07 89 bd 0d 78 b5 be
       -0.11772424 0.117366716 -0.06690958 -0.35443154
000170 70 33 21 bf 2d d0 e2 3e 32 8e 78 bc 2a f7 9f be
       -0.6296911 0.4429945 -0.015170621 -0.3124326
000180 67 3a 1e 3f 87 00 cf 3e 91 18 2b 3e 71 95 42 3e
       0.61807865 0.4043009 0.1670859 0.1900232
000190 4b ff 52 3e ff 7c 61 3e 42 f8 00 3c b2 7e e1 bc
       0.20605199 0.22020338 0.007871689 -0.027526233
0001a0 ed be 1a 3e a5 96 9e 3d 62 a3 97 3c a7 f5 8e 3c
       0.15111895 0.07743577 0.018510524 0.01745112
0001b0 0d ab 15 3c cc 28 af bd 55 d3 26 3d be 4f 97 bc
       0.00913502 -0.08552703 0.040728886 -0.018470641
0001c0 55 2e 58 be b1 82 52 be dd 4b 6b bd 1a e9 22 bd
       -0.21111424 -0.20557667 -0.057445396 -0.039773084
0001d0 d6 c8 3d be d2 0e cd bd bd 5b 10 be b0 c1 16 be
       -0.18533644 -0.100125924 -0.14097495 -0.14722323
0001e0 83 84 60 bd 1d 21 0b be 01 6d a4 bd ce 5b 54 be
       -0.054813873 -0.1358685 -0.08028603 -0.20738146
0001f0 4c 74 51 be e2 d7 3e bc 5a 62 f9 3c b9 e2 4f bd
       -0.2045452 -0.01164815 0.030442405 -0.05075333
000200 a4 f5 1c 3d a7 87 8b 3c 2e f0 9f bd a0 20 6e be
       0.0383202 0.017032458 -0.078094825 -0.23254633
000210 34 a7 2b be db 8b a8 be ab 8a 33 be 8a 2d 13 be
       -0.16763002 -0.329192 -0.17533366 -0.1437284
000220 b3 04 ad be e5 dc 8c be 81 53 12 3c 3a 88 38 be
       -0.33792648 -0.2751228 0.008931042 -0.18020716
000230 00 bd 35 be da 20 65 be c8 7b 0a bd ec 38 13 bd
       -0.17747879 -0.22375813 -0.033809453 -0.035942957
000240 d4 e5 7b be ee 05 dc bd 37 54 2f be 4d 58 dd be
       -0.24599391 -0.107433185 -0.17121969 -0.4323143
000250 44 52 b3 be db 60 e0 be 8e 8d 08 bf 9b b8 c5 be
       -0.350237 -0.43823895 -0.53340995 -0.38617405
000260 49 3b 08 bf 8c 0c 9b 3d 36 bf 98 3e db 91 b6 3e
       -0.5321546 0.075707525 0.29833382 0.35658154
000270 6b 61 ab 3d 7a 3a 8a 3e 9a 8c 66 3e a5 d5 ac 3d
       0.083681904 0.2699774 0.22514573 0.08439187
000280 a7 05 89 3e 1f ce 68 3d da c0 3d be 28 9f e5 bd
       0.26762125 0.056837197 -0.18530598 -0.11211997
000290 30 3a 6e be af 4b b4 be 0c c5 92 be 1f 87 89 be
       -0.23264384 -0.35213992 -0.2866596 -0.26860902
0002a0 30 52 15 bf b6 05 1f bf 58 ec 09 bf fb 99 ab 3e
       -0.58328533 -0.6211809 -0.53876257 0.33515915
0002b0 d2 03 b4 3e df ff c3 3e bb 4d 25 3e f4 4c a8 3e
       0.35159165 0.38281152 0.16142933 0.3287121
0002c0 df 52 83 3e 70 5f 2e 3d 2f 57 bd 3d 0d 27 20 3e
       0.25649163 0.042571485 0.092451446 0.15639897
0002d0 37 e4 b8 3d 38 15 42 bd 1c 49 ba 3c 72 8d be 3d
       0.090279035 -0.047383517 0.02273994 0.09304322
0002e0 3b a7 28 bd 90 9d 62 bd d5 3c b8 bd 84 0c c9 bd
       -0.04117511 -0.055326045 -0.08995978 -0.0981684
0002f0 64 0b a8 bd 83 df ce be bc cd a4 be 2c c5 08 3d
       -0.082052976 -0.404049 -0.32188213 0.033391163
000300 cc 3d 28 be 7b 19 12 be 8e de 8e 3e 7f 65 a6 3e
       -0.16429824 -0.14267533 0.2790417 0.3249931
000310 8a 75 c9 3e c3 da 3b 3f ee 2d 2d 3e 00 25 2d 3e
       0.39347488 0.7338068 0.16912052 0.16908646
000320 04 06 8a 3d 4e bd 7f 3d 35 41 e7 3d 92 f3 fb 3c
       0.06739429 0.062436394 0.11291734 0.030755792
000330 cb 2d 5d be 53 5d 4f be 68 a5 66 be 0b b7 a0 be
       -0.215995 -0.20250444 -0.22524035 -0.3138965
000340 8d 0a 5c bd 90 cc 1c be 0c 01 90 be 52 44 43 bd
       -0.053721 -0.1531241 -0.281258 -0.047672577
000350 5b 3d 42 be 6d 7e a6 be 49 a6 6e be fa 54 ce be
       -0.18968718 -0.3251833 -0.2330562 -0.40299207
000360 fd 36 4f be 88 91 3a 3d 81 ba 3e 3e b0 fe 0d 3c
       -0.2023582 0.045548946 0.18625833 0.008666679
000370 b2 92 22 3b 52 e5 1f 3e 15 03 5a 3e 2a 76 a8 3e
       0.0024806676 0.15614823 0.21290238 0.32902652
000380 15 f6 dc 3e f3 89 bf be 49 f9 13 be f5 99 91 be
       0.43156496 -0.37409934 -0.14450563 -0.28437772
000390 f3 f3 98 be c6 61 c1 bd 49 ca a1 be 3a 83 08 bf
       -0.29873618 -0.09442477 -0.31599644 -0.53325236
0003a0 0a 62 b6 be 43 eb 09 bf b0 e8 bd be 61 19 db be
       -0.35621673 -0.53874606 -0.3709159 -0.427928
0003b0 70 19 92 be ce 56 6a be 65 d2 81 be b2 5b a4 be
       -0.28535032 -0.22884676 -0.2535583 -0.32101208
0003c0 fc 14 e9 be 99 11 c3 be 6d 8c 08 bf b8 ad a8 bd
       -0.45523822 -0.38099363 -0.5333927 -0.08236259
0003d0 bf 07 06 be 7e 75 d7 bc fb 0b 01 3d a1 c9 d2 3d
       -0.13088892 -0.026301142 0.031505566 0.10292364
0003e0 4e c0 f4 3c 3b 37 9a 3d 3d 9b db 3c 4b 5c b9 bd
       0.029876854 0.075300656 0.026807422 -0.090508066
0003f0 d5 00 bd bd 69 be 39 3d bc 85 59 3d 62 3c f7 bc
       -0.09228674 0.045347605 0.053106055 -0.03018016

encoder4.features.0.bias f4 [32]
000000 13 09 d6 3c 9c 26 34 3d 44 c3 96 bd 17 7c 8c bd
       0.026127374 0.043982133 -0.07361463 -0.06859606
000010 e7 e1 a0 3d 73 ca 14 bc 07 7c b5 3c 10 9c 92 3d
       0.078555875 -0.009081471 0.022153867 0.07158673
000020 19 6c 6e bd 88 58 0e 3c e4 fb a7 bd f0 c0 52 3d
       -0.05820856 0.0086881 -0.08202341 0.05145353
000030 11 f9 88 3d 24 7c f8 bc 24 02 b2 bc 8a 33 32 3d
       0.06688131 -0.030332632 -0.021729536 0.043506183
000040 86 46 22 3d 2f 61 5b 3d a9 7e ec bc 44 67 7f bd
       0.039618038 0.05355948 -0.02886899 -0.06235434
000050 cc 48 7d 3d 12 62 a1 bd 0c 65 8f 3d af db 81 bd
       0.061837003 -0.078800336 0.07001695 -0.063407294
000060 bd 30 c6 3b a7 cd 75 3d 9d ae 2a 3d 7d fa a3 3d
       0.0060482905 0.06001058 0.04167043 0.08006761
000070 26 fc 3e bc 1d 63 87 3c 29 5a c5 bc 19 b4 bf 3c
       -0.011656797 0.016526753 -0.024090843 0.023401307

encoder4.features.1.weight f4 [32]
000000 29 83 8e 3f 97 a0 82 3f 50 cd 5f 3f 00 8d 8b 3f
       1.1133777 1.0205258 0.87422657 1.0902405
000010 17 eb 41 3f d3 f0 99 3f 90 fc 76 3f b7 d6 06 3f
       0.75749344 1.2026619 0.9647913 0.5267138
000020 7b 7b 8c 3f 17 47 32 3f ed 01 9e 3f d5 ee 64 3f
       1.0975183 0.69639724 1.2344338 0.8942693
000030 70 bf 3f 3f 5f 56 bc 3e 12 bf f7 3e 23 64 4e 3f
       0.74901485 0.36784646 0.48387963 0.80621547
000040 a4 82 f2 3e 4c 0d 59 3f 2e 52 2b 3f 0c 6e 54 3f
       0.47365296 0.84785914 0.6692227 0.8298042
000050 e6 63 57 3f 6b 34 01 3f 2a f7 0a 3f e8 52 66 3f
       0.8413681 0.5047061 0.5428339 0.89970255
000060 e2 aa 97 3f af 08 89 3f bc 55 63 3f 1d c8 11 3f
       1.1849024 1.0705775 0.88802695 0.56945974
000070 32 17 37 3f d8 22 8d 3f 11 ca ee 3e 39 30 6b 3f
       0.7151977 1.1026258 0.4663854 0.91870457

encoder4.features.1.bias f4 [32]
000000 61 7d 59 be 79 e7 8e 3e 5d 47 e6 be d1 5c 0e bf
       -0.21239235 0.27910975 -0.4497632 -0.55610377
000010 d4 0b 01 bf 31 da c3 3b e7 74 f0 be be 10 a7 be
       -0.50408673 0.005976938 -0.4696419 -0.3262996
000020 37 d4 a1 be fb 38 7d bf 2a 8d a1 be b1 b9 92 3e
       -0.3160722 -0.9891507 -0.31553012 0.28657296
000030 1d e0 e6 bd 21 dc 0c bf bc 2c 38 bf 8f a6 bd 3e
       -0.11273215 -0.5502339 -0.7194326 0.37041137
000040 7f c0 20 bf a1 c4 f9 bd fb 69 0e bf 55 6a 84 3e
       -0.62793726 -0.12195707 -0.55630463 0.25862375
000050 69 32 56 be 4c 27 29 bf 59 56 21 bf ab 0c c6 be
       -0.20917667 -0.6607559 -0.6302238 -0.3868154
000060 3e 39 56 be be a0 99 3d d4 a1 6f be da cb b5 be
       -0.20920274 0.07501362 -0.23401576 -0.3550709
000070 c6 fa 14 3f 12 ba b7 3d 80 3b 0a bf 33 02 0b bf
       0.5819515 0.08971037 -0.5399704 -0.5430023

encoder4.features.1.running_mean f4 [32]
000000 fb 6d 4f c0 36 1b 21 c0 6f f5 00 c1 15 58 b3 3f
       -3.2410877 -2.5172858 -8.05992 1.4011256
000010 83 58 d2 40 2d b7 11 c0 c5 21 8a 40 db 51 54 be
       6.5733047 -2.2768052 4.3166223 -0.2073435
000020 d0 0c 89 c0 0e c7 71 40 53 9a 8b 40 29 15 ad c0
       -4.282814 3.7777743 4.3625884 -5.408833
000030 10 12 ae c0 7c 3a a2 c0 c9 ea bc 3f ca 90 75 c0
       -5.439705 -5.069639 1.4759151 -3.8369622
000040 ab 15 88 40 14 a1 e6 c0 49 31 31 3f eb ee cf bd
       4.252645 -7.207163 0.6921583 -0.10152992
000050 a6 85 2c c0 f6 a6 3e 3f ad b4 41 40 ba f0 2f 3f
       -2.6956573 0.7447351 3.0266526 0.68726695
000060 b0 9c 7a c0 50 ae a3 c0 1c 01 01 c1 90 80 cd 3d
       -3.9158134 -5.1150284 -8.062771 0.10034287
000070 94 a0 78 bf bb 31 44 bf 22 36 cb 3f 89 d7 25 c1
       -0.9712002 -0.7663838 1.5875895 -10.365121

encoder4.features.1.running_var f4 [32]
000000 77 2d 90 41 b0 da 0b 42 8d a1 31 41 80 ae ca 41
       18.0222 34.963562 11.101941 25.335205
000010 3c d6 6d 41 44 b9 c1 41 f1 65 b4 41 49 f3 62 41
       14.864803 24.215462 22.549776 14.184396
000020 05 91 7e 41 bd af a5 41 a0 b1 b3 41 59 88 5f 42
       15.910405 20.71081 22.461731 55.883152
000030 6d bc da 41 93 90 17 41 7f 4b 77 41 32 9b 80 41
       27.342005 9.472796 15.455932 16.075779
000040 e5 0a 36 41 eb 5e 97 41 b6 e5 ab 41 16 0b b2 41
       11.37766 18.921347 21.487164 22.255413
000050 d1 6f 3d 41 db 3a 36 41 9e ce 48 41 1a f5 36 41
       11.839799 11.389369 12.550444 11.434839
000060 3e 6c 14 41 94 13 c3 41 ab b1 3c 41 fc 5a 34 41
       9.276426 24.38456 11.793376 11.272213
000070 f6 a5 e1 41 fd 55 4a 42 5a 2a 9a 41 bb 78 d7 41
       28.206036 50.583973 19.27068 26.93395

encoder5.features.0.weight f4 [64, 32, 3, 3]
000000 4c 0b 7c 3e ab fa c9 3e c3 d5 0a 3f c4 20 bd bd
       0.24613684 0.39449057 0.54232424 -0.09234765
000010 3c 35 cf 3d 84 85 97 3d 13 26 01 bd e7 cb 33 3e
       0.101175755 0.07398513 -0.03153045 0.17558251
000020 f4 73 14 be 59 d1 71 be 50 81 41 be 7e 02 82 bd
       -0.14497358 -0.23615016 -0.18896985 -0.063481316
000030 4b 4f 45 be 9e b8 d2 be 65 51 b1 be ac 1e d6 3e
       -0.19268529 -0.41156477 -0.34632412 0.41820276
000040 d7 e3 fb bc fd b2 01 3f 60 5f b4 3e b5 d8 38 3e
       -0.030748291 0.5066374 0.35229015 0.18051417
000050 cb 00 d4 3c 7d 96 05 b9 82 41 c7 3c dc a3 6c be
       0.025879284 -0.0001273993 0.024323229 -0.23109382
000060 33 6d 94 bd c4 03 8d be b4 ab e0 be f2 00 36 be
       -0.072473906 -0.27541935 -0.43881 -0.17773798
000070 88 f1 65 be c6 d9 95 be 21 fd 9d be ec 48 91 be
       -0.22455418 -0.2926771 -0.30857185 -0.28375947
000080 14 54 90 be c3 05 0c 3d c7 5e 69 bd 65 4a 25 3e
       -0.28189147 0.034185182 -0.056975152 0.1614166
000090 13 66 1e be 81 b7 a9 bc b6 bc 56 be a6 f3 42 be
       -0.15468626 -0.020717384 -0.20970425 -0.19038257
0000a0 62 c3 d7 bd 52 c1 1d 3d 9e 0e 2f 3d 3c 69 ef 3d
       -0.10535313 0.038514443 0.04273855 0.11689994
0000b0 70 5d 4b 3d 7d c6 85 bd 04 39 3c 3e df e3 bc be
       0.049649656 -0.06531999 0.18381125 -0.36892602
0000c0 59 cd af 3e 4d 05 d4 3d 54 89 c4 3d 71 9a aa bd
       0.34336355 0.103525735 0.09596506 -0.083302386
0000d0 a1 c8 f2 bd 10 6b cb 3d 9c b6 c9 be 72 83 e8 be
       -0.11854673 0.0993253 -0.39397132 -0.45412785
0000e0 f5 74 fd be 9d c4 a6 be 76 79 d7 be ec ec d7 be
       -0.49503294 -0.3257188 -0.42084855 -0.42172945
0000f0 e6 02 ba 3b 37 4c a3 bd a1 be 97 3c f0 f4 a6 bc
       0.005676615 -0.07973521 0.018523516 -0.020380467
000100 f3 fe bf bc 6c af 97 3d 06 5e 12 be ca e4 4c be
       -0.023436999 0.07406506 -0.1429368 -0.20009151
000110 aa 1b 65 bd 8a 5e 93 3c 3e ef 9d 3c dc d0 68 3e
       -0.055934586 0.017989416 0.019279119 0.22735924
000120 62 0c a1 3c 92 2e c1 3e b1 b1 4d 3f 9c fc ed bd
       0.019659225 0.37730843 0.8034926 -0.11620447
000130 b1 94 04 3e 14 66 bf 3e 8d 08 b1 be 4b c2 15 3e
       0.12947346 0.37382567 -0.34576836 0.14624898
000140 56 0f 9f 3e 50 c3 89 be 58 56 b5 be bc f1 af be
       0.31066388 -0.26906824 -0.35417438 -0.34364116
000150 b1 83 ae be 59 9e bc be 8a b5 a5 be 17 23 7e be
       -0.34084848 -0.3683956 -0.32365066 -0.24818073
000160 6a fc bf be 6b ea 0b be b7 34 46 3f 88 dc dc 3d
       -0.37497264 -0.13663642 0.77424186 0.107842505
000170 24 b9 b0 3e f9 fe ea 3e b4 ca 04 be a8 db 0e be
       0.3451625 0.45897654 -0.1296795 -0.1395098
000180 95 83 50 3e 43 be aa be 70 73 8e be 59 a3 c2 3d
       0.20362695 -0.33348283 -0.27822447 0.09503812
000190 4e b3 92 3e 39 51 e8 3d 9e d3 87 3e 24 c6 cd 3e
       0.28652424 0.11343617 0.2652864 0.40190232
0001a0 51 1f be 3e de 31 3e 3e 56 20 94 3e 6b 28 63 3e
       0.37133268 0.1857371 0.2893092 0.22183387
0001b0 7f 77 d1 bc fa 53 2d 3e 4c 96 3b 3e 12 dc 47 3d
       -0.025569675 0.16926566 0.18319052 0.04879386
0001c0 b4 f8 c1 3d 0c ec f4 3c 40 48 aa bd 03 22 b8 3d
       0.094712645 0.029897712 -0.08314562 0.08990862
0001d0 f4 e5 a6 bd b9 82 68 bd 8e 32 6c be 56 76 90 be
       -0.08149329 -0.05676529 -0.2306616 -0.28215283
0001e0 5b f1 2e be e1 e5 54 be ca 7d 8e be 78 57 3a 3e
       -0.17084257 -0.20790817 -0.27830344 0.18197429
0001f0 78 35 0b bc c5 60 39 be 05 e4 b5 bc ba 14 4c be
       -0.008496635 -0.18103321 -0.022203455 -0.19929782
000200 54 9b ad bd 85 65 aa be 58 3f 85 be 9b ae 73 be
       -0.08476892 -0.33280578 -0.2602489 -0.23797075
000210 a1 53 2e 3d 54 4e 61 bd 1e 8f e8 3c 22 4d 02 bf
       0.042560223 -0.05500634 0.028388556 -0.50898945
000220 28 1f 0d bf f0 27 0d bf 82 e7 48 be 7a 9d 2f be
       -0.55125666 -0.55139065 -0.19619563 -0.17149916
000230 9f 90 6e be b3 9d 01 3f da 75 25 3f 9e 97 3d 3f
       -0.23297356 0.50631255 0.6463295 0.74059474
000240 d1 42 5e be ef ea aa be 73 ca a9 be 0d 68 6e be
       -0.21705176 -0.33382365 -0.3316227 -0.2328188
000250 29 4d 8d be d2 91 45 be bd 7f 17 be 7d fa 18 be
       -0.2759793 -0.19293907 -0.14794822 -0.14939304
000260 04 62 ba bc 06 e0 3a be 0f 7f 12 3d 5e 08 56 be
       -0.022751816 -0.1824952 0.035765704 -0.2090163
000270 9f ce cb 3e 56 fb 04 3f fc ee 95 3e 1b d7 ee 3e
       0.39806077 0.5194601 0.29283893 0.46648487
000280 f6 44 13 3f 4a b0 9c 3e 0a 5d 7b be d6 49 ca be
       0.575271 0.30603248 -0.2454721 -0.39509457
000290 80 ba 85 be 31 ac 8d be fe 70 7a be 8e b2 75 be
       -0.2611885 -0.27670434 -0.24457166 -0.23993894
0002a0 b6 1e c3 ba 4d f6 bb bd 2c 28 cf bd d5 c3 9e 3e
       -0.0014886472 -0.091778375 -0.10115084 0.31008783
0002b0 1e 65 8a 3e 0f fc 16 3f e7 a3 eb 3c d1 bc d5 bd
       0.2703027 0.5897836 0.028764678 -0.104364045
0002c0 f1 78 9c 3e ff ed 5f be f6 fe 19 be e8 58 ad 3e
       0.3056102 -0.21868132 -0.15038666 0.33856893
0002d0 16 cf 05 3f 57 5e ee 3e 42 40 ea 3e 8a e8 34 3e
       0.52269113 0.4655635 0.4575215 0.17666832
0002e0 3d 59 77 3d a8 47 53 3d 3d 18 24 3d 78 c0 38 be
       0.06038784 0.05158201 0.040062178 -0.18042171
0002f0 a1 bc 81 be bb 1e 86 be bf d8 57 be a0 2b 9f be
       -0.25339225 -0.2619532 -0.21078776 -0.3108797
000300 ff 33 3e be 44 ed 13 be 89 28 78 be df 71 2b be
       -0.18574522 -0.14445978 -0.24234213 -0.16742657
000310 ec 7e 32 be 42 60 e3 bd 12 9e c9 be a8 82 e2 be
       -0.1743123 -0.11102344 -0.3937841 -0.44240308
000320 57 bd c1 be 82 b9 b7 be 13 90 90 be ee cf 88 be
       -0.37839767 -0.3588372 -0.2823492 -0.26721138
000330 a9 7a 29 be e5 cf e2 bd 0e ec 65 be 4e 99 d6 3b
       -0.16550697 -0.11074809 -0.22453329 0.006549037
000340 21 29 78 be 81 8d ac 3c 41 7d 1d 3d 5c a8 81 be
       -0.2423444 0.021063568 0.03844953 -0.2532376
000350 74 f7 da bd bb 7d ad 3e 6a d2 49 3d 6d eb 8f 3e
       -0.10691729 0.33884987 0.049272932 0.28109303
000360 5a c9 9c 3f 7b 89 17 3f 31 28 6b 3d 06 22 8a 3e
       1.2248948 0.59194154 0.057411376 0.26979083
000370 7c 57 60 be d9 e5 4c bf 6c e4 c8 3e de 73 b2 be
       -0.21908373 -0.8003822 0.39236772 -0.34854025
000380 cd 2d 5a bf a6 04 68 3f 38 6c 6d 3f 7d 27 7f 3f
       -0.85226136 0.9063209 0.92743254 0.9966963
000390 33 00 7e 3e 32 8c 8a 3e 86 f3 c6 3e a3 de 3d be
       0.24804763 0.27060086 0.3885767 -0.1854196
0003a0 a1 09 d5 bd 1e 46 4c bd 3f 78 81 3d 50 26 0e bd
       -0.10402227 -0.049871556 0.06321763 -0.034704506
0003b0 ae 58 fe 3d a3 12 3c 3e 81 d7 02 3e 66 f9 06 3d
       0.12419258 0.18366484 0.1277752 0.03295269
0003c0 f1 6d 71 3e 89 64 42 3c 0c 44 5d 3d 4b 9d 99 be
       0.23577096 0.01186479 0.054019973 -0.30002818
0003d0 f0 c3 b5 be 4c 18 3e be ad 1b 04 bf ed 2d 01 bf
       -0.3550105 -0.18563956 -0.5160473 -0.504607
0003e0 dc e5 ce be da c1 61 bc 57 2b bf bd 6b 34 23 be
       -0.40409744 -0.013779128 -0.09334438 -0.15937965
0003f0 fc ce 81 3a 5f 54 38 be 3f 3c a8 3d 7b 05 d5 bd
       0.0009903605 -0.18000935 0.08214616 -0.10401436

encoder5.features.0.bias f4 [64]
000000 59 53 20 bd a9 f3 35 3d 1d 7c aa 3c 3f 35 3f 3d
       -0.039141987 0.044421826 0.020811135 0.04668164
000010 93 ec 51 bc b8 19 58 bd 17 cb 0f 3d 4e 00 6c 3c
       -0.012812751 -0.052758902 0.03510579 0.0144043695
000020 bc 67 4b bc cb 32 d4 3c e1 22 09 bd 09 23 8b ba
       -0.012414869 0.025903126 -0.03348053 -0.00106153
000030 c5 83 30 3d 14 aa a9 3c aa c6 a8 bc 1b d6 21 bd
       0.043094415 0.020710982 -0.020602543 -0.039510828
000040 44 c8 69 3b 8c 1c 8d bb 5c b2 91 3c f1 8e 10 3c
       0.0035672346 -0.0043063816 0.017785244 0.008823142
000050 05 13 40 bd 88 fb 23 bd 50 65 63 bd eb f7 4c 3d
       -0.04689314 -0.0400348 -0.05551654 0.05004112
000060 31 f6 53 bd 94 c9 8c 3b 7b 25 06 3d 30 d0 3a 3b
       -0.05174846 0.004296491 0.032750588 0.0028505437
000070 71 49 32 bc 2c 1e 42 bd 34 3a c6 bc 76 b7 d2 bc
       -0.010881768 -0.047392055 -0.024197675 -0.025722247
000080 55 a2 78 ba 73 b0 e8 3c 4b 87 e8 3b e8 60 2e bd
       -0.00094846386 0.02840445 0.0070962063 -0.042572886
000090 92 08 be bc d6 2a 58 3d 0a 52 58 bc a3 85 1f 3d
       -0.023197446 0.052775227 -0.013203153 0.038945805
0000a0 6b d9 3e bd 82 6e 75 3c dd c2 2d 3d 53 20 8c 3c
       -0.046594065 0.01497996 0.042422164 0.017105257
0000b0 99 8a 37 3d 31 35 d6 3c 77 0c 18 bd 06 9c 67 bd
       0.04480991 0.02614841 -0.037121262 -0.05654528
0000c0 e8 dc 03 bd 4c 51 eb 3c a3 b6 b8 bc f2 62 61 3d
       -0.032193094 0.028725289 -0.022548025 0.055026002
0000d0 07 32 06 bb da 74 d0 3c 7f c8 5c bd 7d 10 0c 3d
       -0.0020476596 0.025446344 -0.053902145 0.034195412
0000e0 99 fa 30 bd 7a 71 2b bd 14 b0 77 3c 55 83 10 bd
       -0.04320774 -0.041856267 0.015117664 -0.035281498
0000f0 13 df 14 3c 25 9a 02 3c a2 03 28 bd d3 35 23 3d
       0.009086388 0.007971321 -0.04101909 0.039846253

encoder5.features.1.weight f4 [64]
000000 b3 7c 08 3f 7f 6f 80 3f 95 1a 28 3f a4 44 41 3f
       0.53315276 1.0034026 0.6566556 0.7549536
000010 3b 99 1f 3f 54 95 e8 3e b0 ca 8a 3f 73 b2 59 3f
       0.62343186 0.45426428 1.0843105 0.85037917
000020 99 02 71 3f e3 91 ed 3e ae 63 4c 3f 60 95 2f 3f
       0.9414459 0.46400365 0.798396 0.68587303
000030 7e 0c 1a 3f b6 71 28 3f 66 7b a3 3f ec d3 75 3f
       0.6017531 0.6579851 1.2772033 0.9602649
000040 85 32 5d 3f 0f 62 9a 3f 79 d0 3e 3f f4 69 a0 3f
       0.8640521 1.2061175 0.74536854 1.2532334
000050 db 9b 8c 3f fd b2 8d 3f bb 05 4d 3f d3 c6 6e 3f
       1.0985063 1.1070248 0.8008687 0.9327213
000060 da 5a 76 3f 3c 31 48 3f 73 06 67 3f d2 5b 42 3f
       0.9623238 0.78200126 0.90244216 0.75921357
000070 f3 a4 99 3f 24 8f 66 3f 26 4e 64 3f e8 ff 21 3f
       1.2003464 0.90062165 0.89181745 0.63281107
000080 ac 8b 21 3f 4f 2a 49 3f c0 92 9c 3f 65 a6 85 3f
       0.6310375 0.7858018 1.2232285 1.0441405
000090 78 16 8c 3f 49 63 87 3f 6b 5e 99 3f 14 f0 93 3f
       1.0944357 1.0577174 1.1981939 1.1557641
0000a0 7a 9c 2d 3f 27 5b 52 3f 62 b9 8f 3f 27 26 36 3f
       0.6781689 0.8217034 1.1228449 0.71151966
0000b0 fd 65 71 3f 4c 90 67 3f d7 81 9a 3f 5e 6c 1c 3f
       0.94296247 0.90454555 1.2070874 0.61102855
0000c0 91 da 0c 3f 3a df 65 3f cb d0 55 3f 20 14 8a 3f
       0.55021006 0.8979374 0.8352172 1.0787392
0000d0 df 89 be 3f 04 07 4d 3f bc 41 76 3f ff 52 9f 3f
       1.4885825 0.8008883 0.9619405 1.2447203
0000e0 e4 c9 98 3f b3 32 ca 3f cb 5f 82 3f 86 b3 8a 3f
       1.1936612 1.5796722 1.0185484 1.0836036
0000f0 34 c8 8f 3f 84 f5 d4 3e f6 d0 81 3f 06 84 0e 3f
       1.1232972 0.41593564 1.0141895 0.556702

encoder5.features.1.bias f4 [64]
000000 c1 28 bd be cd 20 06 3f d9 67 67 bd 22 79 f7 3e
       -0.36945155 0.523938 -0.05649552 0.48334605
000010 4c 19 b0 3e 4e 7e 00 bf 93 62 17 3f 66 32 63 be
       0.343943 -0.50192726 0.5913479 -0.22187194
000020 ab 57 af 3e b7 8e d8 be 81 f4 af 3d ad 6d 47 bd
       0.34246573 -0.42296383 0.08591557 -0.04868858
000030 3b 5a 3f bf c5 1d 22 be f5 83 3f 3d 5e 25 a8 3e
       -0.74747056 -0.15831669 0.046756703 0.3284101
000040 08 ab 3e bf 0d b1 00 3f 24 c7 8a 3d 11 7b 30 3f
       -0.7447972 0.5027016 0.06776264 0.68937784
000050 00 00 c1 be b5 64 e3 3e 54 63 19 bf da f5 53 3d
       -0.37695312 0.4441277 -0.5991719 0.051748134
000060 ec 7b 37 be 34 04 cc be 21 41 87 be b0 1e 1d bf
       -0.17918366 -0.39846957 -0.26416877 -0.6137495
000070 ad dc 08 be d3 60 58 bf 33 83 2d 3f c5 5b e8 be
       -0.13365431 -0.8452274 0.6777832 -0.45382515
000080 e2 72 20 bf f4 40 94 be ec f5 f3 3e 57 55 c2 3e
       -0.626753 -0.28955805 0.4764856 0.37955734
000090 19 4b a6 3e 45 e5 8b 3e 2c 06 48 bf c1 66 9d 3e
       0.3247917 0.27323356 -0.7813442 0.30742458
0000a0 b4 59 3b bf a1 d2 e1 be 48 36 6e 3e 76 4c 3e bd
       -0.7318375 -0.4410601 0.23262894 -0.046459638
0000b0 59 0d 0c bf 92 40 c3 3e 71 0f d1 3e 84 5e b6 be
       -0.54707867 0.381352 0.40832093 -0.35618985
0000c0 03 ac f5 be 53 b7 2c 3e 53 14 1f 3e 3a 72 97 bf
       -0.47982797 0.16866808 0.15535097 -1.1831734
0000d0 2c ca 01 3f 62 3c 4a bf 0b 4f 17 3d 30 f9 a6 3e
       0.50699115 -0.78998387 0.036940616 0.3261199
0000e0 6e 96 ca be 34 e8 a1 3e 8b 1c 96 be bd 56 84 3e
       -0.39567894 0.3162247 -0.29318652 0.25847426
0000f0 90 e7 59 bc 19 94 1b bf 1b 7c 20 be d0 98 d0 be
       -0.013299838 -0.60772854 -0.15672342 -0.40741587

encoder5.features.1.running_mean f4 [64]
000000 88 4d a8 40 5e 75 e3 bf 50 43 84 3f 1f b3 f7 bd
       5.2594643 -1.7770193 1.0333042 -0.120947115
000010 46 39 d1 bf 4d 4d cc bf 1c 07 b4 c0 75 5d 26 c1
       -1.6345603 -1.596109 -5.625868 -10.397817
000020 a3 d5 19 c1 bd 0b bc c0 07 a8 fe 3f 37 ac 67 c1
       -9.614657 -5.876433 1.9895028 -14.479545
000030 c9 d6 ad 40 02 e3 f2 c0 9d 3e b6 c1 eb 69 ff c0
       5.432469 -7.590211 -22.780573 -7.9816794
000040 7a 02 a5 40 5a 90 00 c1 b5 5f 23 c1 b0 76 df 40
       5.1565523 -8.035242 -10.210866 6.983238
000050 70 25 ac c0 65 45 40 c1 15 96 f8 40 d2 da 07 41
       -5.37957 -12.016942 7.7683206 8.490923
000060 eb e0 85 40 09 c8 13 c0 35 6b 01 c0 4b e3 56 bf
       4.183706 -2.3090842 -2.0221684 -0.8394057
000070 ea 95 88 c1 66 da 12 40 e5 55 10 40 ce 47 88 40
       -17.0732 2.29458 2.2552426 4.258765
000080 3b bd ed 3f 6d c9 b0 c0 63 ad d5 40 0b 0f 88 be
       1.8573374 -5.524588 6.6774154 -0.26573977
000090 a0 ac a8 bf 41 ae 9e 40 1f fb fd 40 e4 68 20 c1
       -1.3177681 4.958771 7.9369044 -10.025608
0000a0 7b e2 ef 3d a3 8e 1a 3e af 07 03 c1 1c 07 ec c0
       0.117131196 0.15093474 -8.189376 -7.375868
0000b0 34 90 75 40 6e 4a 88 c0 dc 9e 17 41 4e 82 e8 c0
       3.8369265 -4.2590857 9.476284 -7.2659063
0000c0 9a 06 5a 40 df ea cb 3f b2 e6 14 3f 23 26 51 41
       3.406653 1.5931052 0.58164513 13.071811
0000d0 81 12 af c1 8a b6 5e 3f 5c c1 26 41 62 4d b8 be
       -21.884035 0.8699728 10.422207 -0.35996538
0000e0 a4 91 15 41 c3 ea ce c1 43 9f 9e 40 37 2d 15 40
       9.348057 -25.86463 4.956941 2.3308847
0000f0 d6 0a 02 41 a6 00 e3 bf ba f4 38 40 2f 05 b7 c0
       8.1276455 -1.7734573 2.889937 -5.719383

encoder5.features.1.running_var f4 [64]
000000 3a d9 c3 42 cd 77 dc 42 21 bb 55 42 84 46 ac 42
       97.92427 110.233986 53.432743 86.137726
000010 ff 5d 96 42 46 5e b9 41 9f 38 87 42 bf 8c 1a 43
       75.183586 23.171032 67.61059 154.54979
000020 a7 45 0b 43 9e e7 5e 41 51 ba 4f 42 1d 89 c6 42
       139.27208 13.931547 51.93195 99.2678
000030 c8 c4 56 42 9a ef bc 42 ca 77 1d 43 a1 ef fb 42
       53.69217 94.46797 157.46793 125.968025
000040 43 b0 b5 42 86 70 e6 42 1f 61 04 42 c0 51 a0 42
       90.84426 115.21977 33.094845 80.15967
000050 e5 b2 7c 42 e0 c1 04 43 81 c2 a5 42 02 94 02 42
       63.1747 132.75732 82.87989 32.64454
000060 9d 2b fa 41 91 1d 47 42 17 5e 14 42 9c ee 0e 42
       31.271296 49.778873 37.091885 35.733017
000070 a6 68 bf 42 0a f7 65 42 6e ca af 42 1f f8 c1 42
       95.70439 57.49125 87.89537 96.98461
000080 0e ed 88 42 d9 2a 4a 42 12 fd b5 42 7a 0d a5 42
       68.463 50.541843 90.99428 82.52632
000090 5a 47 8a 42 bb 6b 58 42 64 85 d3 42 86 41 cc 42
       69.13936 54.105206 105.76053 102.127975
0000a0 38 63 2f 41 68 33 63 42 41 2e e5 42 0b 9a a5 42
       10.961723 56.8002 114.59034 82.800865
0000b0 3b 06 f4 41 8e 15 09 43 23 b7 c6 42 60 17 4b 42
       30.503042 137.0842 99.35769 50.772827
0000c0 2a b2 de 42 5b fc 6f 42 2d 1d 3f 42 c9 9a 6f 42
       111.34798 59.99644 47.778492 59.901157
0000d0 ad d4 08 43 70 35 a9 42 75 52 ea 42 63 16 ab 42
       136.83076 84.60437 117.16105 85.543724
0000e0 25 4c 92 42 2a 2f 28 43 42 03 a8 42 7a f4 9b 42
       73.14872 168.18423 84.00636 77.97749
0000f0 73 37 d8 42 de d5 dd 41 13 f5 0f 42 b9 07 58 42
       108.1083 27.729427 35.98933 54.00754
