model/SRNet_2021-07-18_22-38-34.pth (torch, 201431 bytes, 78 tensors)

encoder1.features.0.weight f4 [4, 3, 3, 3]
000000 72 5d 01 3c 43 29 be bb 07 c5 e1 3a 58 48 26 bd
       0.007895814 -0.0058032586 0.0017224856 -0.040596336
000010 02 74 04 3e 72 cd 21 bd 2e 30 56 be f4 13 4c be
       0.12934878 -0.03950257 -0.20916817 -0.19929487
000020 a9 53 49 be 8b 69 b7 3d 0b c7 8b bc d7 1f 01 be
       -0.1966082 0.089556776 -0.017062685 -0.12609802
000030 72 e1 34 bd 02 f2 4a bd d6 e2 1e 3d 33 c1 5d be
       -0.044160314 -0.049547203 0.038790546 -0.21655731
000040 3d e3 b7 bd 5b 97 7c be e8 d4 82 be 9b c0 68 3d
       -0.08978889 -0.24667113 -0.2555306 0.056824308
000050 9b 89 28 be f5 f6 f3 3c c8 3f 03 3d 5b 47 c4 3d
       -0.16458742 0.029780844 0.03204325 0.095839225
000060 5e bd 01 3e f7 60 f8 bd 26 24 86 3d 6b b3 9a 3d
       0.12669894 -0.121278696 0.065498635 0.075537525
000070 29 0f 68 3c 75 ed b9 3c 2a 66 86 3d 7c aa 12 bd
       0.014163771 0.022696236 0.06562455 -0.035807118
000080 24 78 c0 bd 65 73 51 be a0 b4 5d 3c 4e 8f 17 bc
       -0.09397915 -0.20454176 0.013531834 -0.009250475
000090 35 75 c5 3d 9b 39 30 be 5e ae 21 be fa 5e 8c bd
       0.09641496 -0.17209475 -0.15789172 -0.06854053
0000a0 d7 4c 6e bc 32 1f ec 3d b9 05 fa bd 4a 2b 5c be
       -0.014544687 0.115293875 -0.12208123 -0.21500888
0000b0 cf 6b 9a bd 00 40 2e be 2b 38 10 be 73 5a ff 3c
       -0.07540094 -0.17016602 -0.14083926 0.03117106
0000c0 ef 59 64 be b7 66 2d be 73 ec 90 be c4 f4 fd bd
       -0.22299932 -0.16933714 -0.28305396 -0.12400201
0000d0 2f bc 58 be 4f 64 98 bd b1 78 d0 bd 82 a1 0a 3c
       -0.21165536 -0.07441007 -0.1017927 0.008461358
0000e0 5a cf be 3d 5c 7d fe 3c 55 71 bb 3e 67 61 ba bd
       0.09316893 0.031065635 0.36609903 -0.09100609
0000f0 50 d6 62 be b7 cb 09 be eb e5 6d bd 93 45 48 be
       -0.22152066 -0.13456617 -0.058080595 -0.1955779
000100 8f d9 5c 3e cc 04 b4 bc 50 7e de 3e 2d 2a 7e 3f
       0.21567367 -0.021974944 0.43455744 0.99283105
000110 49 3a 14 3e c0 45 b1 3d eb 1c 92 3e 41 08 0c bc
       0.14475359 0.08655882 0.28537688 -0.00854689
000120 df 3f fc bd 8b cb 55 3e 75 d8 36 be 7f f3 13 3e
       -0.1231687 0.20878427 -0.1785601 0.14448355
000130 a6 8d 95 3f db df 0c 3e d9 fc 06 be 01 69 48 3e
       1.1683853 0.13757269 -0.13182391 0.19571306
000140 c8 52 51 be 35 da 41 3e 3b 5f 15 3e bd 0b 83 3e
       -0.20441735 0.18930896 0.14587109 0.25594893
000150 cc a4 12 3e 24 71 d1 bd e3 7d db 3d 05 af 89 3e
       0.14320678 -0.10226658 0.1071737 0.26891342
000160 ea 35 6e 3e bc e0 69 3e ab 33 6e be c0 27 30 be
       0.23262754 0.22839636 -0.23261897 -0.17202663
000170 b7 5d 2f be 54 8f 4c 3e 54 f7 81 3c 56 29 53 bd
       -0.17125593 0.1997655 0.015865006 -0.051553093
000180 f1 d6 bf 3e a5 e7 52 3e e2 38 ce bd f5 c7 73 3d
       0.37468675 0.20596178 -0.10069443 0.059516866
000190 fc 6b 71 be 49 07 5e be 7d 38 8c 3e 5f 00 62 bd
       -0.23576349 -0.21682467 0.27386847 -0.055176135
0001a0 c9 ca 07 be eb ee e7 3e af 42 a6 3e 2d 03 25 be
       -0.1326095 0.45299467 0.3247275 -0.16114493

encoder1.features.0.bias f4 [4]
000000 8c 7e c2 bc bc 14 16 3e cd 56 c5 3d a7 f5 98 3c
       -0.023741983 0.14656347 0.096356966 0.018671824

encoder1.features.1.weight f4 [4]
000000 ab c0 64 3f ab ac 51 3f f5 d2 91 3f 4e 6d 52 3f
       0.8935649 0.81904095 1.1392504 0.82198036

encoder1.features.1.bias f4 [4]
000000 af 48 b3 be af 17 8e 3e 44 8d 5a bd d6 98 14 bf
       -0.3501639 0.27752444 -0.053357378 -0.5804571

encoder1.features.1.running_mean f4 [4]
000000 7e 54 35 bf f4 e2 45 bf 43 b8 bf 3f 5f 86 89 3f
       -0.7083205 -0.7729943 1.4978107 1.0744132

encoder1.features.1.running_var f4 [4]
000000 60 f1 b4 3d 5d ca 41 3e 62 f9 dd 3e a6 6b 5c 3e
       0.08835101 0.18924852 0.43354326 0.2152544

encoder2.features.0.weight f4 [8, 4, 3, 3]
000000 c1 c9 b6 bd 30 1b a0 bd 66 c5 01 3e 4e 38 55 3e
       -0.089252 -0.078176856 0.12672958 0.2082226
000010 35 59 e8 3d 45 9f 1d 3d 83 7c 05 be 4f 63 71 bd
       0.1134514 0.03848197 -0.13035779 -0.0589326
000020 2c 68 ae bd 11 1f 43 3e c7 2c 47 3d ef 9a 1a 3e
       -0.08515963 0.1905482 0.048626687 0.15098165
000030 a5 a4 03 3e fd ee 11 3e 28 eb 9b 3e 61 52 6f 3e
       0.12855776 0.14251323 0.30452847 0.23371269
000040 a1 11 0b 3e 14 e9 a0 3d fd 06 c4 bd 16 89 1d bd
       0.13580944 0.07856956 -0.095716454 -0.038460813
000050 a0 1a 48 be e0 30 2b 3d c2 38 8d bd 05 ef 8f 3c
       -0.19541407 0.041794658 -0.06895591 0.017570028
000060 fa 5a 69 3d 73 1e 16 be 25 f5 8c be 5c f0 f9 bd
       0.056971528 -0.14660053 -0.2753078 -0.12204048
000070 37 76 fa bd 83 20 b5 3d a1 7d 07 3e fa d6 08 be
       -0.12229579 0.08844092 0.13231517 -0.13363257
000080 c3 59 ce 3d 52 8c 34 be ff bb ec bc 35 06 07 3d
       0.100757144 -0.17631653 -0.028898237 0.032964904
000090 a1 a8 62 bc ea ff 02 3d 38 e3 70 bd 0a 39 45 3e
       -0.01383415 0.03198234 -0.058810443 0.1926004
0000a0 35 8e ae 3e 8f f1 c0 3e 79 d1 12 be a6 46 b1 bb
       0.3409287 0.37684295 -0.1433772 -0.0054100333
0000b0 22 3a 32 bd 65 fb 5d 3d 48 9a 59 3e 03 01 8e 3d
       -0.04351247 0.054194827 0.2125026 0.06933787
0000c0 88 d5 8d 3a 44 d9 3a 3e 07 97 2a 3c 63 0c 55 3d
       0.0010821084 0.18246943 0.010411984 0.052013766
0000d0 1d be 25 be c5 65 c5 3c 6b 5f 11 be 6a 76 42 be
       -0.16185804 0.024096379 -0.14196555 -0.18990484
0000e0 ad 01 8e bd ef 47 43 bd 4d 73 73 bc 12 3a b4 bd
       -0.069339134 -0.047676023 -0.014859033 -0.088001385
0000f0 9a 7d 94 be 8a b1 bc be 18 70 b6 be 3f 6e 29 3d
       -0.29002076 -0.36854202 -0.35632396 0.041364904
000100 60 e1 5f 3c cd b5 ef bd 6b 9c 9f bd cb e9 f7 3d
       0.013664573 -0.117045976 -0.07793506 0.12105139
000110 e5 bf 77 3d 3b 1f c0 bd 4e c5 41 bd d5 e5 c9 bd
       0.06048574 -0.09380957 -0.047307305 -0.0985829
000120 ad 24 8e bc c0 30 c7 3b 5e e7 ce 3d 11 d3 22 3d
       -0.017351473 0.0060788095 0.101027235 0.03975207
000130 f3 5d 93 3e 65 0a c0 3d 6a 55 67 be f1 2b 33 be
       0.28782615 0.093769826 -0.22591177 -0.17497231
000140 55 5d 0e ba 1d 33 3c be f0 0b 13 be 93 2a 77 3c
       -0.00054307777 -0.18378873 -0.14360023 0.015085834
000150 91 19 d3 bd ae 9f 84 3e 98 7f f1 3c 35 99 79 be
       -0.10307611 0.25903076 0.029479787 -0.2437485
000160 87 3b 21 3e a3 7d eb 3d 78 e8 82 be 35 46 a6 be
       0.15745364 0.11498573 -0.25567985 -0.3247544
000170 18 75 cb be a6 26 e0 be fc 23 c2 be 43 94 96 be
       -0.39737773 -0.43779486 -0.3791808 -0.2940999
000180 8a ba a6 be 58 ad d8 be 42 39 c3 be 02 dd 9b be
       -0.32564193 -0.4231975 -0.38129622 -0.30442053
000190 80 0a 1d be 99 e8 3c be 22 23 a8 be 8b 58 dd bd
       -0.15336037 -0.18448104 -0.32839304 -0.10807904
0001a0 60 0c 95 bd f5 d5 e9 bd 0a 7f 31 be e2 d4 5d be
       -0.07277751 -0.11417762 -0.17333618 -0.2166324
0001b0 5b 82 2b be 97 2c 1b bd 53 d8 41 be ac d4 1e bd
       -0.16748945 -0.03788432 -0.18930177 -0.03877704
0001c0 73 ee 96 3c 42 09 72 3d 04 b3 b6 be 05 e2 a9 be
       0.018424248 0.05909086 -0.35683453 -0.33180252
0001d0 a4 be 68 be 8b 45 93 3c 89 f5 7e be 65 58 3f be
       -0.22728974 0.017977497 -0.24898352 -0.18686064
0001e0 b0 78 b6 bd 4e 7b de be a1 b9 0a be a6 06 19 bf
       -0.08909738 -0.4345345 -0.13547374 -0.5977577
0001f0 a3 4f 27 bf 0d 9d ff be 83 41 29 be 38 fc 22 be
       -0.6535589 -0.49924508 -0.16528897 -0.15916526
000200 0c 97 e8 bd f1 7e 49 be 74 b4 e5 be e3 69 d2 3c
       -0.11356935 -0.1967733 -0.44864237 0.025685256
000210 35 da 8b be b1 54 94 bd 15 40 69 be 7b f8 70 3d
       -0.27314916 -0.07242716 -0.22778352 0.05883072
000220 55 28 14 3e 71 94 2c bd a4 d3 69 3e 9e 8a 36 be
       0.1446851 -0.042133752 0.2283464 -0.17826316
000230 cc 41 5b 3e 9b ca 06 be 13 c5 c7 bc a0 08 fa 3d
       0.21411818 -0.13163225 -0.024385964 0.12208676
000240 4d 2f ca 3d cf b5 19 3e b0 e0 a6 bd 89 ff bb 3e
       0.09872303 0.1501076 -0.081483245 0.36718395
000250 85 24 bb 3e c2 c0 cb 3e 10 e5 0f be fc d5 60 be
       0.365513 0.397955 -0.14052224 -0.21956629
000260 03 ad 8a bc 98 84 39 bd 12 c6 81 3d bc aa 71 3e
       -0.016928202 -0.045292467 0.06336607 0.23600286
000270 24 95 39 3e d9 2f d4 3d eb 2b 81 3d d7 2a 23 be
       0.18123299 0.10360689 0.06307205 -0.15934311
000280 e8 3b 46 be 4f 4f 63 be f3 02 90 bd 7b c2 fb bc
       -0.1935879 -0.22198223 -0.070318125 -0.030732384
000290 83 5e a7 3c 5c 6f 38 3e 53 eb 7f bc f8 be 5a 3e
       0.020430809 0.1801123 -0.0156200705 0.21361911
0002a0 3f f1 fd bd 5d 32 09 3e 86 d0 93 bc 7e f7 f0 3d
       -0.1239953 0.13398118 -0.018043768 0.117659554
0002b0 c5 ac f8 3d 38 69 28 3d 4f 73 cc 3d ed b6 ae 3d
       0.12142328 0.04111597 0.09982931 0.08530984
0002c0 67 00 7b 3e 50 79 d1 3d 6e 03 12 3d db a9 a5 bd
       0.24511872 0.10228217 0.035647802 -0.08089038
0002d0 ef 0e a9 bd 5f ed 21 be 2d 7b 46 be 68 f9 83 be
       -0.082548015 -0.15813206 -0.19382925 -0.2577622
0002e0 e3 84 b9 be 35 de c2 bd 52 24 52 3d 8f cb d1 3d
       -0.36234197 -0.09515039 0.05130417 0.10243904
0002f0 a9 f8 a2 3d a4 2c 26 3e e1 d8 01 3d a7 d6 ab 3d
       0.079575844 0.16227967 0.031700972 0.08390551
000300 83 de 4b 3e 16 52 6d b9 05 a9 66 3e 8d ba e6 3d
       0.199091 -0.0002263266 0.22525413 0.112660505
000310 03 dc 69 bd 18 87 32 3d 6c 34 75 3c 83 c1 4e be
       -0.057094585 0.043585867 0.014966112 -0.20191006
000320 cc c6 51 bd 5d 82 d7 bc af 8f 9a bd 0c 4e b4 bd
       -0.051214978 -0.02630728 -0.07546937 -0.08803949
000330 ce 30 a4 be 68 74 90 be 8f b3 8b be 8b 9c c2 bd
       -0.32068485 -0.2821381 -0.2728543 -0.095025145
000340 32 56 7e 3d a4 62 ff bd 21 29 51 3d 73 91 a9 bb
       0.06209392 -0.12469986 0.051064614 -0.0051748096
000350 1e 6b 03 be af 62 cd bd 00 d9 39 be 4b 67 a2 3d
       -0.1283383 -0.10028588 -0.18149185 0.07929858
000360 2b 1b ac bb 58 be 11 be 67 ce 01 3d 2c 4e b2 bd
       -0.005252262 -0.14232767 0.03169098 -0.08706316
000370 93 38 11 3e 30 38 89 3d 42 b1 a9 bd 41 51 01 be
       0.14181738 0.0670017 -0.08285762 -0.12628652
000380 f9 a8 65 be 0f d4 2f 3e df 2e 37 3e 1f 96 14 bb
       -0.22427739 0.17170738 0.17888974 -0.0022672487
000390 40 b8 97 3e 02 40 01 3e d6 a4 5d 3e 3a 5d a0 3d
       0.2963276 0.12622073 0.21644911 0.078302816
0003a0 c6 f2 43 3c df da 69 3c 38 42 99 3e 9b 07 95 3e
       0.011959737 0.014273374 0.29933333 0.29107365
0003b0 5f ad 6e 3e f9 2e b8 3e 4c 2e c4 3e fe ca ae 3e
       0.23308323 0.35973337 0.38316572 0.34139246
0003c0 40 ef 33 3e 95 94 5c 3e d2 33 77 3e 58 39 90 bd
       0.17571735 0.21541055 0.24140862 -0.070421875
0003d0 6a 49 40 3e f8 77 4f bd 2a 6b 3c 3d 31 10 71 3d
       0.18778005 -0.05065152 0.046000637 0.058853332
0003e0 e5 ba 76 3e 2d 1b 51 be 9a d8 c2 bc c9 f4 45 3e
       0.24094732 -0.20420523 -0.023784924 0.1933166
0003f0 42 c3 3e 3e 66 09 52 bc 4b 03 03 3e 19 d3 98 3d
       0.18629172 -0.012819624 0.12794225 0.07462139

encoder2.features.0.bias f4 [8]
000000 f2 9d fa 3d e4 65 de bd dc d5 ca bd d9 d0 d7 bd
       0.12237157 -0.10859278 -0.09904072 -0.105378814
000010 37 05 a9 bd cb 2a 0b be 82 02 07 bd b1 81 58 3d
       -0.08252948 -0.13590543 -0.032961376 0.05285806

encoder2.features.1.weight f4 [8]
000000 ac e8 43 3f 68 15 31 3f 55 2d 64 3f 82 a7 3b 3f
       0.76526904 0.6917329 0.8913167 0.7330247
000010 09 33 ce 3e 7c a6 87 3f 9d 8a 09 3f c1 d6 2b 3f
       0.40273312 1.0597682 0.5372713 0.67124563

encoder2.features.1.bias f4 [8]
000000 fe b0 3e bf 6b 69 c0 be e0 18 77 3e 98 20 39 3e
       -0.7448882 -0.37580428 0.24130583 0.1807884
000010 01 65 91 bf 2d b6 8f bd 89 28 77 bf 36 a3 3a bf
       -1.1358949 -0.07017169 -0.96546227 -0.7290529

encoder2.features.1.running_mean f4 [8]
000000 4a b9 03 3f 92 a2 f4 be 48 f8 e7 bf cd bb 28 c0
       0.51454604 -0.4778028 -1.8122644 -2.6364625
000010 52 ed bb 3e 4e 35 fa be b9 2e dd 3f 28 8a 7f 3f
       0.367045 -0.48868793 1.7279884 0.99820185

encoder2.features.1.running_var f4 [8]
000000 62 1e af 3f 49 b4 f3 3f e9 6d bc 40 39 92 0b 40
       1.3681147 1.9039394 5.888417 2.1807997
000010 99 f5 54 3e d4 02 a3 3f b8 00 00 40 a8 c0 27 3f
       0.20796813 1.2735238 2.0000439 0.65528345

encoder3.features.0.weight f4 [16, 8, 3, 3]
000000 fe be 39 bd 58 d6 51 bd f6 4f e8 3d 30 c4 e2 3d
       -0.04534816 -0.051229805 0.11343376 0.11072576
000010 c6 c6 4e 3e a8 ab 7f 3e b9 c8 5b 3d d6 a4 8e 3d
       0.20193014 0.24967825 0.05365822 0.06965034
000020 da 31 1e 3e 5e 33 32 be f7 62 0c be 40 0d 7c bd
       0.15448704 -0.17402408 -0.13709627 -0.061536074
000030 4d 4d 06 bd 0b 1b 1b be 44 82 e6 bd 26 b6 25 be
       -0.032788564 -0.15147035 -0.11255315 -0.16182765
000040 c4 a3 26 be 88 a0 7e 3d 47 e8 90 be fd b2 8d be
       -0.16273409 0.062164813 -0.28302214 -0.2767562
000050 a7 46 79 be c3 01 9d be 5a 9c ab be 86 9b a7 bd
       -0.24343358 -0.30665407 -0.33517724 -0.081839606
000060 1e f9 71 be cb a1 6c be 7c 50 47 be c0 59 8c 3d
       -0.23630187 -0.23108594 -0.19464296 0.06853056
000070 53 f6 a4 3d 88 88 41 3e d4 31 84 3e 1d 73 0c 3e
       0.08054795 0.18899739 0.25819266 0.13715787
000080 af a6 6c 3e cf 4a 1d 3e 6c a9 c8 3d f0 bf 00 3e
       0.2311046 0.15360568 0.0979794 0.12573218
000090 12 01 5f bd bf 4e 75 bd 5f 7e 0a be 8d 8f 6d 3d
       -0.05444438 -0.05988955 -0.13524769 0.05799823
0000a0 fb cb 2c 3e 94 c5 75 3d de 1b 64 3d 2c 47 e1 3d
       0.16874687 0.06000288 0.05569064 0.10999903
0000b0 9a 80 8b 3d a4 d6 89 be 73 f6 72 bd e3 99 01 3b
       0.06811638 -0.2692157 -0.059317064 0.0019775562
0000c0 54 d9 28 3e e2 ad 2e 3e d6 09 80 3d 41 c9 b6 bd
       0.16489154 0.17058519 0.06251876 -0.08925105
0000d0 79 69 c1 bc 8e 58 29 3d f2 b4 2f be 4a 5e 70 bc
       -0.023609864 0.041344218 -0.17158869 -0.014670918
0000e0 47 1e ed bd 37 53 92 3d 94 1a bc 3c 7c fe 13 bd
       -0.115780406 0.07144778 0.022961892 -0.036131367
0000f0 3f ba d6 bb 57 73 cd ba e8 31 c4 bc d9 6a 2f 3c
       -0.006552964 -0.0015674633 -0.023949578 0.010706627
000100 17 e3 9b bd 74 2a e0 3d ca bc a6 bc c4 60 04 3e
       -0.07611673 0.10945597 -0.020353694 0.12927538
000110 79 9d 16 3e 6b 04 b0 3d 75 be 18 3e 84 5c db 3d
       0.14708509 0.08594593 0.14916404 0.10711005
000120 96 96 fe 3d 6b 53 87 3d b0 80 10 3e 59 00 7d 3e
       0.12431066 0.066077076 0.1411159 0.24707164
000130 e5 d7 ce 3d c7 d7 95 3e 18 bf 11 be e0 d8 91 bd
       0.10099772 0.29266188 -0.14233053 -0.07121444
000140 7c c0 eb bd 16 d4 c6 3d 22 fa 13 bd 38 12 b1 3b
       -0.11511323 0.09708421 -0.036127217 0.005403783
000150 5f a8 3f 3e 8d 7f 23 3e 07 ef 9a 3e 8e a3 6d be
       0.18716572 0.15966626 0.30260488 -0.23206922
000160 ed 44 42 be c7 ab 1e bd 0b 5b 01 3d da 9f 31 3d
       -0.18971606 -0.03873804 0.031580966 0.043365337
000170 26 68 48 3d 2c 8d cc 3d bb 84 f0 3d 5f 23 62 3c
       0.04892745 0.09987864 0.11744066 0.013802378
000180 66 d5 bb bd 38 c5 a6 bd 59 80 24 3d 24 4c 09 3c
       -0.09171562 -0.08143085 0.040161464 0.00837997
000190 96 72 a7 3d d2 3d 0d be 3b 7c f5 3d 98 ef a5 3d
       0.081761524 -0.13793114 0.11986586 0.081023395
0001a0 e3 8d 25 3e 3d c5 9c bd 39 af 00 be 21 2e fe bd
       0.16167407 -0.07654808 -0.12566842 -0.12411142
0001b0 a1 3e 6f 3d f5 20 c2 3c 5e cd 07 3e 35 9c 63 3e
       0.058409337 0.023697356 0.13261935 0.22227557
0001c0 f6 41 c7 3e 62 1e 9f 3e d9 fa 06 3e de 1d 82 3d
       0.38917512 0.31077868 0.13181628 0.06353353
0001d0 d4 0f f3 3d f9 b5 d1 3b 02 2a 09 3e ee 44 90 3c
       0.11868253 0.0063998667 0.13394931 0.017610993
0001e0 7c a0 a7 3e f4 b7 9c 3e b9 f3 92 3e 14 6b 99 bc
       0.32739627 0.30609095 0.2870157 -0.018727817
0001f0 bc fb 81 3c 08 16 d5 bc e4 c2 d2 bc 77 4f be 3d
       0.015867107 -0.026011482 -0.025727697 0.092925005
000200 9a 91 8d bc 1b ff 79 bc e5 ea 51 3d 5d fa be 3d
       -0.017281342 -0.015258576 0.051249404 0.09325097
000210 4c 61 fd 3d ab dd 0f 3e 7c 9a cd 3d 8c 80 a2 3e
       0.123720735 0.14049403 0.10039231 0.31738698
000220 ec df a5 3e cf a7 c1 3e ec 5d 8f 3e 07 e6 93 3e
       0.323974 0.3782334 0.28001344 0.28886434
000230 e1 2d 90 3e 89 4b 19 be 03 c4 a5 3b 6a 7d 87 bd
       0.28160003 -0.1497022 0.005058767 -0.06615718
000240 83 71 7e 3d 00 3f 80 3d 71 d3 28 3e d4 08 a3 3d
       0.062119972 0.06262016 0.16486908 0.07960668
000250 fb 9a 51 3e 51 a8 64 3e 9d cf bf bd e7 67 7c 3d
       0.20469277 0.22329833 -0.09365771 0.061622526
000260 be ad 0f bd 0f dc 1a 3e 96 65 aa 3d 4b b7 ea 3d
       -0.035077803 0.15123008 0.08320157 0.114607416
000270 11 03 47 3e f4 3e 0b 3e dd 89 af 3e 7f ed d5 3c
       0.19434763 0.13598233 0.3428487 0.026114224
000280 95 9f 05 3e e5 9d d3 3d 44 22 1d be 29 9f 8c bd
       0.13049157 0.1033285 -0.15345103 -0.06866295
000290 76 d6 61 bc 41 11 88 3d b7 0b 4a bd 80 4d 5c bc
       -0.013784042 0.06643916 -0.04932758 -0.013446212
0002a0 ce f0 18 be 50 89 05 be 0f c0 96 3b d8 0d 10 bd
       -0.1493561 -0.13040662 0.004600532 -0.035169452
0002b0 1d 33 e3 bd 42 7d ca bd a5 fd 14 3d 93 d5 1d bd
       -0.110937335 -0.09887172 0.036374707 -0.03853376
0002c0 8a f2 2b 3e 78 db 1a be 22 18 20 bd ef 5b 8f 3c
       0.1679174 -0.15122783 -0.039085515 0.017499892
0002d0 f9 76 64 be 92 9d 0e be 80 50 3c be d8 e8 31 3e
       -0.2231101 -0.13927296 -0.18390083 0.17373979
0002e0 70 a7 7b 3e cd d7 61 3e 47 f8 82 3d e6 e6 4e 3e
       0.24575591 0.22054978 0.063950114 0.20205268
0002f0 6a 23 c4 bb fb bf 0e 3e 85 b4 4d 3d fb a5 52 3d
       -0.005985667 0.13940422 0.050220985 0.051427823
000300 73 cf 5e 3e 82 2f 3a 3e 94 59 ca 3d c5 f3 e4 bc
       0.21758823 0.18182185 0.09880367 -0.02794827
000310 55 84 31 3e 21 f3 dc 3d bc aa 90 3c e4 fd 01 3d
       0.17335637 0.10788561 0.017659537 0.03173627
000320 ca 1b 1e 3d 70 31 cc bd f2 ee 96 bd 1c 98 18 bd
       0.03860072 -0.09970367 -0.07369794 -0.037254438
000330 4d 8e 00 3e 9f f7 c2 3d c9 b2 34 be 2e b3 98 3d
       0.12554283 0.09519886 -0.17646326 0.07456051
000340 cf 9c 28 3d b7 9e ef 3d c8 95 fc 3d 15 c1 0c 3e
       0.04116517 0.11700194 0.12333256 0.1374553
000350 0f 01 3d 3e 40 49 6b bd 28 2f a0 3d 81 22 cd 3d
       0.18457435 -0.057442904 0.07821494 0.10016347
000360 bc e1 8f be 08 6d 96 be c7 cb a3 bd 4f b3 06 be
       -0.2810191 -0.2938006 -0.07997852 -0.13154338
000370 47 c7 51 be 32 54 8f bd cb a4 51 be ee c2 8b be
       -0.20486175 -0.06998481 -0.2047302 -0.27297157
000380 0a 19 4f be 1d ce ef 3d ec 51 40 be 30 b6 06 3e
       -0.20224395 0.11709235 -0.1878125 0.13155437
000390 3d 3f 66 be d3 ff 9a be 65 83 34 be 2f f9 f7 3d
       -0.22485061 -0.30273303 -0.17628248 0.12108075
0003a0 ab 13 7d be 6d 80 28 be 6c 4c 1f 3e f9 fe 3f be
       -0.24714534 -0.1645524 0.15556496 -0.18749608
0003b0 f2 ce 81 3d 0d f8 2f be 3c aa 0d bf 00 82 39 be
       0.063383 -0.17184468 -0.5533788 -0.18115997
0003c0 6c 4d b8 be 0e 10 24 bf f5 df 84 be 37 4b b2 be
       -0.35996568 -0.64087 -0.25952116 -0.3482301
0003d0 fe 7e 24 be 2a ef f1 be 01 27 5a be ad 0e e6 bc
       -0.16064069 -0.4725278 -0.21303941 -0.02808317
0003e0 de 52 75 be 5d f4 31 bd 50 69 6b 3e d8 ec 82 bc
       -0.23957393 -0.043445934 0.22989392 -0.015982077
0003f0 51 6a a4 3c 3a ea cb 3d c9 24 40 3e a9 e1 7d bd
       0.020070227 0.099567845 0.18764032 -0.061982784

encoder3.features.0.bias f4 [16]
000000 ff b9 1f 3d a1 d8 8f bc ae 07 63 bd 43 8d 91 3d
       0.03899574 -0.017559351 -0.055427246 0.07107022
000010 5e ae e5 bd 04 3a 99 3d 32 c1 c3 3d 1e e8 a4 3c
       -0.112148985 0.07481769 0.095583335 0.020130213
000020 84 e0 bf bd e5 e1 43 bd d1 19 82 3d e5 65 d2 bd
       -0.09368995 -0.04782285 0.0635258 -0.10273341
000030 b4 16 2c bc 51 d1 b5 3c 89 bd d1 bd 9a 65 e7 bc
       -0.01050346 0.022194536 -0.10241229 -0.02824669

encoder3.features.1.weight f4 [16]
000000 4c b8 27 3f ef d2 10 3f 5e 09 10 3f 9d 34 79 3f
       0.6551559 0.5657186 0.56264293 0.97345906
000010 6c b9 21 3f 24 53 5c 3f 01 59 64 3f 55 84 78 3f
       0.63173556 0.8606436 0.8919831 0.9707692
000020 95 6b 68 3f f1 21 58 3f ca 6a 32 3f ed 25 49 3f
       0.9078916 0.8442679 0.696942 0.78573495
000030 af c4 60 3f 6c e8 4d 3f 69 c5 25 3f c7 76 6d 3f
       0.87800115 0.8043277 0.6475435 0.92759365

encoder3.features.1.bias f4 [16]
000000 a7 2d 4c bf c3 10 6e bf 37 c4 e3 be ab 45 48 3e
       -0.7975716 -0.92994326 -0.44485638 0.19557826
000010 a9 2d 22 3d 3f 9e f7 be 32 63 c8 be 04 15 2e be
       0.039594326 -0.4836292 -0.3913818 -0.17000204
000020 5d 0e 6d 3d bc cc 06 bf 7a 07 1a bf 2f 8e 57 bf
       0.057875026 -0.5265615 -0.6016766 -0.8420133
000030 88 93 c0 3c 34 db 1b bf db f2 ef be 6b 20 71 3e
       0.023507848 -0.6088135 -0.46864972 0.23547523

encoder3.features.1.running_mean f4 [16]
000000 b4 49 0f bf 72 6e 19 3f 9e a5 74 3e 57 10 32 c0
       -0.5597184 0.5993415 0.23891303 -2.7822473
000010 16 f0 29 3f c3 f5 13 c0 35 9f 9d be c8 89 25 c0
       0.6638197 -2.311875 -0.30785528 -2.5865345
000020 8e 8c 55 bd be f3 b2 3f f0 08 7a bd fd 62 07 c0
       -0.052135997 1.3980634 -0.06104368 -2.1154168
000030 88 ab 4b 3e 68 3c c5 3e ff 3d 92 be d5 f7 44 c0
       0.19889653 0.3852265 -0.28562924 -3.0776265

encoder3.features.1.running_var f4 [16]
000000 a8 fe 86 3f 1b 85 fe 3e d7 7b f2 3e 46 aa 4e 40
       1.0546465 0.49710926 0.47360107 3.2291427
000010 cc 1d 61 3f 3a 40 b2 3f 9e 69 03 3f 45 a8 c5 3f
       0.8793609 1.392585 0.51333034 1.5441977
000020 cb 96 88 3f f5 d0 3e 3f c7 8c 0b 3f 01 0f 83 3f
       1.0671018 0.74537593 0.54511684 1.0238954
000030 52 cc 95 3f f7 79 3b 3f 00 75 bf 3f be a1 ce 40
       1.1702979 0.7323298 1.495758 6.457244

encoder4.features.0.weight f4 [32, 16, 3, 3]
000000 22 4b 29 bd 92 80 73 bd 16 be 2f be 45 b3 bb bd
       -0.041331418 -0.059448786 -0.17162356 -0.09165052
000010 ca fe db bd 94 85 be bd d6 66 09 be 4f 5e 70 be
       -0.107419565 -0.09302822 -0.13418135 -0.23473476
000020 a1 1f 44 be 12 28 be bd 02 9c e8 bd 85 31 b6 3c
       -0.1915269 -0.092849866 -0.11357881 0.02224041
000030 79 31 b9 bd 22 97 4b bd 09 55 d2 bd 8b c7 32 be
       -0.09042639 -0.04970468 -0.102701254 -0.17458932
000040 25 7b 9d be ad 2b 8e be ed 44 06 3d 40 21 96 bd
       -0.30758014 -0.27767697 0.032780576 -0.07330561
000050 e1 88 50 3c 7a fc 48 be 1c cb 38 be b1 32 30 bd
       0.012727947 -0.19627562 -0.1804623 -0.043017093
000060 61 55 e8 bd 6c 78 15 be e6 ec 14 be b8 95 84 bd
       -0.1134441 -0.14596719 -0.14543495 -0.06473869
000070 f7 cf 22 be fc 08 bf 3d df a6 47 be 21 23 4d be
       -0.15899645 0.093278855 -0.1949725 -0.20032932
000080 3e b4 b6 3c 35 cb 1b 3d 00 7a e1 3d 4f 13 fe 3e
       0.022302743 0.03803559 0.11009598 0.49624106
000090 0f e7 53 bd a6 08 83 3d 86 51 4c 3d 57 27 1b be
       -0.051734027 0.06398134 0.049882434 -0.15151726
0000a0 9b 14 16 be 8b 09 0a be c0 df 4c be 8b eb 55 be
       -0.14656298 -0.13480203 -0.20007229 -0.20890634
0000b0 62 eb ee bd 88 58 66 be 03 89 8b be 00 44 35 be
       -0.116659895 -0.2249471 -0.2725297 -0.17701721
0000c0 26 ab 93 be a0 78 3f be c9 e5 2d be 12 55 32 be
       -0.28841513 -0.18698359 -0.16982187 -0.17415264
0000d0 f0 cb a3 be 6a e4 71 be 56 ac 84 ba e7 1f cd 3b
       -0.3199153 -0.2362229 -0.0010122161 0.0062599066
0000e0 4c 4d 84 3d ab 0a 35 3d b2 7a c3 3c 83 3b 44 bd
       0.06460056 0.044199627 0.023862217 -0.047908317
0000f0 aa 79 9a 3d 30 3e 5e 3e 4e b0 f8 3d e4 39 41 be
       0.07542737 0.2170341 0.121430025 -0.1886974
000100 97 08 63 be 3f c6 2d be 06 d5 79 be 92 a1 a4 be
       -0.22171246 -0.16970156 -0.24397668 -0.32154518
000110 c5 f1 15 be 58 10 42 3d 03 d9 81 bd c9 1e 6b 3d
       -0.14643009 0.047378868 -0.0634022 0.057402406
000120 0a 44 44 be 88 54 0d be 38 fa 40 3e 4e 8a cb bd
       -0.1916658 -0.13801777 0.18845451 -0.09938489
000130 2a a9 2b bd db 76 fa 3d 22 ff 27 be be 21 3e 3d
       -0.041909374 0.12229701 -0.16405919 0.046418898
000140 28 0e 65 3e ce 4c a1 3d 4f b8 3b 3d 66 c9 4a 3e
       0.22368681 0.078759775 0.045830067 0.1980339
000150 28 45 e5 bd a8 c1 10 3d ba 69 ee 3d 6f ad 17 bc
       -0.11194831 0.035340935 0.116412595 -0.009257658
000160 3b 87 89 3d c7 3a 3a 3d 9b 87 0c be a8 cb 48 be
       0.06715246 0.04546621 -0.13723604 -0.19608939
000170 65 9d 26 bd 78 06 a4 3c ca e2 81 bd 7b 83 73 3c
       -0.040677447 0.020022616 -0.06342085 0.01486289
000180 87 25 82 bc 95 6c dc bc c4 c3 02 bd d3 1c a7 3c
       -0.015887035 -0.026907245 -0.031924978 0.020399487
000190 64 75 43 be 8e 53 4a be c2 f9 9b bd 29 be 1d bc
       -0.1908775 -0.19758436 -0.07615997 -0.009627857
0001a0 9d 2c fd bd 26 54 00 bd b9 e5 18 3d bf d9 88 bd
       -0.12362025 -0.03133025 0.037328456 -0.06682157
0001b0 c0 6f bd bd 55 89 20 3d b5 06 d9 3e 3e a4 0b be
       -0.0924983 0.03919347 0.4238793 -0.13636872
0001c0 da 40 97 bd a4 23 6c 3e a4 d5 8d bd 8e 5e 89 3c
       -0.07385416 0.23060471 -0.06925514 0.01676872
0001d0 7a 3c 6a 3d 76 7c 7e bd db 12 5f 3c 33 ad 05 3d
       0.05718658 -0.062130414 0.013615335 0.03263588
0001e0 bd c9 36 be 9b cb 11 be e0 9c 85 bd cd 8b 6b be
       -0.17850395 -0.14237826 -0.06524062 -0.23002549
0001f0 5f ae 2c be e3 9f e0 bd 71 fe 8f be ab 53 80 bd
       -0.16863392 -0.10967996 -0.2812381 -0.062659584
000200 e1 0d a4 3d c5 86 43 be aa b3 16 be 2c 7f 7e bc
       0.0801046 -0.19094379 -0.14716974 -0.01553325
000210 b4 15 ee bd 93 f3 2b be 4c d0 12 be fd 82 4b bb
       -0.11625233 -0.16792135 -0.14337271 -0.0031053417
000220 f7 5a 50 be 65 71 90 3e 29 97 6a be 4b 20 89 be
       -0.203472 0.28211513 -0.22909226 -0.2678245
000230 20 7d 81 3d 38 65 72 3d 8f e7 5c bd 72 d9 7f 3e
       0.06322694 0.05917856 -0.05393177 0.24985293
000240 8e 8a a4 be c5 45 3e be 22 d3 7f be 6e 4c fa bd
       -0.3213696 -0.18581302 -0.24982885 -0.12221609
000250 e1 f5 60 be ec 2f 6c be 48 ed ea be 1f 3a a5 be
       -0.21968795 -0.23065156 -0.45884156 -0.32270905
000260 4d 94 01 bf 9b 1d 5b be 7d 95 1f be 86 03 e8 bd
       -0.50616914 -0.21398012 -0.15584369 -0.11328797
000270 c4 6b 8b 3d 57 95 e3 3c ca c7 9b 3d 9a 0e 69 be
       0.06807664 0.027781172 0.07606466 -0.22759476
000280 a0 9c 81 bd 7a 8c a4 bc 38 54 88 be 4e b4 2d be
       -0.06328702 -0.020086516 -0.26626754 -0.16963312
000290 51 03 b0 be 24 f3 81 3d 4c 80 e8 bd 34 8e 30 3c
       -0.3437753 0.063452035 -0.11352596 0.010776091
0002a0 98 cc 1d be 16 07 a0 be a4 6a eb be 89 87 6f bc
       -0.15410078 -0.31255406 -0.45979798 -0.014619716
0002b0 dd a8 c2 3e e8 aa 82 3f d1 d6 d7 be 06 da 31 bf
       0.38019457 1.0208406 -0.4215608 -0.694733
0002c0 e9 3f 17 bd 7c f2 b2 bd 69 80 bf be 6d fd 70 3e
       -0.036926184 -0.087376565 -0.37402657 0.23534174
0002d0 0f 50 4d be fb 93 73 be db 06 cb bd e7 a3 06 be
       -0.20050071 -0.23786919 -0.09913417 -0.13148461
0002e0 14 1c 5c be 5d 39 17 be 56 61 de bc 62 c5 06 be
       -0.21495086 -0.14767976 -0.027146023 -0.13161233
0002f0 07 e4 a0 bc 66 cd e9 be 66 53 a3 be dc ab 30 be
       -0.019639982 -0.4566452 -0.31899565 -0.17253059
000300 49 1d 4d be 9e 52 8f be 81 9d 00 be 86 d0 9f bd
       -0.20030703 -0.2799272 -0.12560083 -0.078034446
000310 e7 18 e6 be df 31 c4 be dd af c0 3d 1e cc 1b 3d
       -0.44940874 -0.383193 0.09408543 0.03803646
000320 df f5 07 3d 0a 75 42 3e d0 03 b0 bd 24 2a 9f be
       0.033193465 0.1898996 -0.08594477 -0.31086838
000330 30 1a 2c 3f 84 64 3f 3f ea 90 70 3e 15 f0 5a be
       0.6722746 0.7476275 0.2349278 -0.21380647
000340 ea 4c 67 be 13 98 80 3d 25 de 93 be 6d 31 30 bf
       -0.22587934 0.06279006 -0.2888042 -0.6882542
000350 bc 90 b2 be bc a8 a1 3d 4a 75 c0 be bc 72 39 bd
       -0.3487605 0.07893512 -0.37589484 -0.045275435
000360 c8 9d 36 3e b3 3a 6a 3e 96 20 ac 3e 04 8c 20 3e
       0.17833626 0.22873954 0.3361861 0.15678412
000370 11 51 9d 3e ed 4c d1 3e 96 a4 a6 be d1 67 88 be
       0.3072591 0.40879002 -0.32547444 -0.26641706
000380 af b7 ec bd 1d 13 75 3e 8f 11 f2 3e 74 bb 18 3f
       -0.11558472 0.23933072 0.4727902 0.5966103
000390 d6 9d 9b be 74 94 8d be 1c a4 74 be c3 b8 a3 be
       -0.30393857 -0.27652323 -0.23890728 -0.319769
0003a0 54 b7 cd bd 52 53 80 bc ad 36 8e 3e 40 71 f2 3e
       -0.10044733 -0.01566473 0.2777609 0.47352028
0003b0 a6 4a 18 3f 6e 7e 09 bb 16 7a 9c 3d 7b b7 43 3e
       0.59488904 -0.00209799 0.076404735 0.19112961
0003c0 a8 bc 05 be 98 88 4f be 1b 9e de 3d 5e e9 cb bd
       -0.13060248 -0.2026695 0.1087 -0.09956621
0003d0 e8 55 59 be ec 13 8b be 59 f1 59 3d 98 63 42 bd
       -0.21224177 -0.27163637 0.053208683 -0.04745826
0003e0 78 8d b7 bd f9 9a aa 3c b2 ba 23 be 45 2c 01 bf
       -0.0896253 0.02082585 -0.15989187 -0.50458175
0003f0 4e d8 6d bd 7e db 9c 3c 4c 31 5d 3e 5d a8 8d bc
       -0.058067612 0.01914763 0.21600837 -0.017292196

encoder4.features.0.bias f4 [32]
000000 5b c7 02 3d 22 d8 3a 3b 04 f6 31 3d 27 91 64 3c
       0.0319284 0.0028510173 0.04344751 0.013950623
000010 25 5a 61 3c e5 21 9c 3d aa 2a 9d 3d cb 90 57 bd
       0.013754402 0.07623652 0.07674153 -0.05262832
000020 b9 fc 50 3b 5d 86 f1 bc c3 fe d9 3c b3 97 d5 3c
       0.0031888916 -0.029483015 0.026610738 0.026073312
000030 fc 6f 84 bd 80 24 2a 3d dc 13 72 bd 29 54 a7 3c
       -0.06466672 0.041538715 -0.05910097 0.020425873
000040 a8 a3 1b 3d 85 9d e0 3c cb 3d 9f bd c0 a6 a1 bc
       0.03799787 0.027418861 -0.07775458 -0.019732833
000050 a0 2f d2 bc 91 e7 5f bd b4 68 dc 3b 43 4e 87 3d
       -0.025657475 -0.0546642 0.006726349 0.06606724
000060 60 05 1a 3d 85 e6 95 bc 8a 57 85 bd 0b d2 33 ba
       0.037602782 -0.018298397 -0.065108374 -0.0006859607
000070 83 20 15 bd a5 bd 4a bc 41 b9 97 3d 70 81 d9 3b
       -0.03640796 -0.012374316 0.07408381 0.0066377446

encoder4.features.1.weight f4 [32]
000000 71 e3 14 3f b3 97 57 3f 48 73 8c 3f ed 9f 47 3f
       0.5815955 0.8421585 1.0972681 0.779784
000010 d6 6c 96 3f c7 a4 f5 3e a1 b6 20 3f 6f 7f 18 3f
       1.1751964 0.47977278 0.6277867 0.5956945
000020 d3 4f 26 3f ec 3b 03 3f da ef 0e 3f 32 ac 81 3f
       0.6496555 0.5126331 0.55834734 1.0130675
000030 69 1f 53 3f b8 ef 47 3f d9 98 08 3f 74 2c 88 3f
       0.82469803 0.78100157 0.53358227 1.0638566
000040 7a a8 0b 3f e1 3b 82 3f 1d e9 fe 3e f8 35 53 3f
       0.5455395 1.0174524 0.49787226 0.82504225
000050 32 f1 12 3f 52 87 62 3f 79 72 76 3f 8a f2 1c 3f
       0.57399285 0.8848773 0.9626842 0.61307585
000060 79 67 b9 3f ec 0a 79 3f 1d 25 36 3f 9b 77 8a 3e
       1.4484702 0.9728229 0.7115038 0.27044377
000070 02 3e 2c 3f ef 6c 30 3f 5f 89 98 3f 8f 29 ff 3e
       0.67282116 0.6891622 1.1916922 0.49836394

encoder4.features.1.bias f4 [32]
000000 da 08 9f be 92 31 a0 be d1 d5 4e be 6c 38 c4 be
       -0.3106144 -0.3128782 -0.20198752 -0.38324296
000010 22 1a 5d bf a0 d8 f6 bd c5 37 65 be 90 5f 93 be
       -0.86368 -0.12053037 -0.22384556 -0.28783846
000020 55 f5 1a bf 3c 21 0f bf 6f 14 55 bf 54 ea d6 3e
       -0.60530597 -0.55910087 -0.83234304 0.41975653
000030 d1 05 2e bf 64 57 ec bc 79 30 10 bf 77 d6 58 be
       -0.67977625 -0.028850265 -0.56323963 -0.21175562
000040 b4 07 9e be 05 83 54 bf c9 6c 87 bf 65 cd fb be
       -0.30865252 -0.8301242 -1.0580074 -0.4918014
000050 db 34 70 be 39 5f 80 be f3 70 0e be bd 62 56 bf
       -0.23457663 -0.2507265 -0.13910274 -0.8374441
000060 a9 7a 97 be 35 30 5d bf 79 b9 f8 be ac 28 ab be
       -0.2958577 -0.86401683 -0.48579004 -0.33429468
000070 c1 4c 14 bf 2b b5 35 3f 41 81 c3 be c9 0b cd bc
       -0.5792962 0.70979565 -0.3818455 -0.025030034

encoder4.features.1.running_mean f4 [32]
000000 c9 0e b3 bf eb 74 62 bf 82 94 14 40 de 00 4a 40
       -1.3988887 -0.8845965 2.3215642 3.156303
000010 5d 7d 8a 40 92 45 a5 bf d9 23 8f 3f 3b d7 4a 3f
       4.327803 -1.2911856 1.1182815 0.79234666
000020 06 a6 cd bf ee 22 93 be e4 85 a9 bf ed 1e 10 c1
       -1.6066291 -0.28737587 -1.3243985 -9.00755
000030 56 ad 1c 40 42 02 9a c0 e1 ba 00 40 11 fa 1d 3f
       2.4480796 -4.8127756 2.0114062 0.61709696
000040 aa 7f 9b 40 9a a2 4d c0 7c 31 da be 3d 1d 7d c0
       4.859334 -3.2130494 -0.4261588 -3.9549096
000050 39 f3 0e c0 37 00 88 c0 10 11 cb bf 6a 9d 43 40
       -2.2335951 -4.250026 -1.5864582 3.0564828
000060 ad cf 23 bf 45 8f 70 40 00 6d 70 40 12 15 09 c0
       -0.63988763 3.7587445 3.7566528 -2.141911
000070 f0 5c 0a c0 3a 3f f5 c0 27 cd 60 c0 82 a3 91 3d
       -2.1619225 -7.663968 -3.5125215 0.07111265

encoder4.features.1.running_var f4 [32]
000000 bf a6 29 40 74 41 bd 40 45 2d 23 41 0b bc ac 41
       2.6508024 5.91424 10.198552 21.591818
000010 72 36 80 41 fc c7 cc 40 15 13 ca 40 a1 ed 2f 41
       16.026585 6.399412 6.3148293 10.995515
000020 d9 24 e7 40 3c a3 18 41 da 53 7b 41 93 a4 8a 42
       7.223248 9.539852 15.707972 69.321434
000030 cc 73 12 41 45 a6 df 41 05 de ff 40 20 4e aa 41
       9.153271 27.956186 7.995852 21.288147
000040 d6 d0 da 41 d0 ba 1f 41 38 75 9b 41 61 49 00 41
       27.35197 9.9831085 19.432236 8.017915
000050 8f e7 0c 41 b5 5e 13 41 ed bb 65 41 07 97 17 41
       8.806533 9.210622 14.35838 9.474372
000060 ad c9 38 41 42 49 b0 41 3c 8c 28 41 3a 83 2d 40
       11.549237 22.03577 10.534237 2.7111344
000070 50 8e e9 40 17 4b 4e 42 d4 58 04 41 26 4c 8d 40
       7.298622 51.57333 8.271687 4.4155455

encoder5.features.0.weight f4 [64, 32, 3, 3]
000000 26 73 2d be 3b 45 4e be f0 77 11 be 5b ab d7 bd
       -0.16938457 -0.20143597 -0.14205909 -0.1053073
000010 19 a8 11 be 0e 7b 0b be 00 57 11 be fd b8 15 be
       -0.1422428 -0.1362116 -0.14193344 -0.14621349
000020 36 cf 2b be 34 c3 08 bd e5 b8 8e bd 6e a9 b6 3b
       -0.16778263 -0.033389285 -0.069688596 0.005574397
000030 eb 43 a4 bd df dc 81 bd 45 f8 97 bd 9e 15 c5 bd
       -0.08020767 -0.06340956 -0.074204005 -0.09623264
000040 d6 ca c0 bb 62 1b cb bc 95 34 0d be 20 5b 5b be
       -0.005883555 -0.02479333 -0.1378959 -0.2142148
000050 ce 37 ea bd 77 67 14 be ee 70 c1 bd 00 2d e8 bd
       -0.11436425 -0.14492594 -0.09445368 -0.11336708
000060 8d 14 2c 3c a7 7f b4 bd 15 46 84 bd d8 a1 da bd
       0.010502947 -0.0881341 -0.064586796 -0.106754005
000070 9a 0d bb bd 8d f3 a5 bd e5 1b 43 bd 41 b7 c6 bd
       -0.09133454 -0.08103094 -0.047634024 -0.09702922
000080 49 8a e3 bd 9f d7 02 be a8 25 8b bd 8e be 10 be
       -0.1111036 -0.12777565 -0.06794292 -0.14135191
000090 08 28 63 bd f7 2f 4b be 45 1d c6 bd 63 51 a2 bd
       -0.0554581 -0.19842516 -0.096735515 -0.079256795
0000a0 a7 41 d1 bd 3c e9 cb bd 21 02 13 3c 81 c9 50 bd
       -0.102176 -0.09956595 0.008972676 -0.05097342
0000b0 35 b1 c2 bd fc ab 8b bd 27 af b5 bc 31 d3 19 bc
       -0.09506456 -0.06819913 -0.022178246 -0.009388731
0000c0 69 2a ab bd d2 f5 fa bc eb c0 8f bd e8 c8 98 bd
       -0.083576985 -0.030634794 -0.07019218 -0.07460195
0000d0 0a 0a c1 bc 31 32 c9 bd 50 6e 20 be 97 72 0c be
       -0.023564357 -0.098240264 -0.15667081 -0.13715588
0000e0 68 6d 79 bd 27 b7 9f bd 4b 40 23 be e7 fc bb bd
       -0.060895354 -0.077986054 -0.15942495 -0.09179097
0000f0 b0 99 14 be d0 42 ea bd ab 18 03 be 02 71 00 be
       -0.14511752 -0.11438525 -0.12802379 -0.12543109
000100 18 2f 83 bd 4f 92 7e bc a5 15 bb bd 1f 3c b6 bd
       -0.06405467 -0.015537812 -0.09134988 -0.08898186
000110 c1 4a 61 bc dc a0 b8 bd f3 89 84 bc 2f 29 e4 bc
       -0.013750733 -0.090150565 -0.01617906 -0.02785167
000120 f9 1f 96 bd 15 e8 91 bc 25 c3 b2 bc 3d 83 2a bd
       -0.07330317 -0.01781086 -0.021821568 -0.041629065
000130 73 95 fc bd 19 27 a2 bd 5c 43 bd bd 70 7c 24 bd
       -0.12333193 -0.079176135 -0.092413634 -0.040157735
000140 a5 3a f4 bd 00 cd a8 bd e8 6e 69 bd 30 4b 11 be
       -0.11925248 -0.08242226 -0.056990534 -0.14188838
000150 b7 fc 9e bd b8 5e 45 bd 8c 24 14 be 7a ac 3c bc
       -0.07763045 -0.048186034 -0.14467067 -0.011515731
000160 06 a0 eb bc 7e 8a 5f bd 68 36 84 bd a5 5e f6 3a
       -0.028762829 -0.054575436 -0.0645569 0.0018796517
000170 85 e3 59 bd 67 bc 37 bd 29 d2 65 bd 4c 37 b0 bb
       -0.053195495 -0.04485741 -0.056108627 -0.0053776857
000180 fc 98 3f ba 66 00 77 3c 4d c8 9f 3d eb 4f 3a bd
       -0.0007308868 0.015075779 0.07801876 -0.045486372
000190 ce 07 41 3d bc 96 cf 3b 22 ef 7d 3d c8 90 51 3e
       0.047126584 0.0063351076 0.061995633 0.20465386
0001a0 1a f0 1c bc 5c c0 8a bd 34 46 34 3c ca 5e 01 be
       -0.009578729 -0.06774971 0.011003066 -0.12633815
0001b0 47 23 d2 bd 53 b1 ea bc e3 d5 8a bd ee 05 60 bc
       -0.10260635 -0.028649008 -0.06779077 -0.013673289
0001c0 3a a7 71 bd cd 21 4b bd eb 4c 3a bd f5 62 61 3b
       -0.05899737 -0.04959278 -0.04548351 0.0034391258
0001d0 1c 8f 93 bd a6 9e 4d 3d 12 07 d0 3d 0d d6 dc 3c
       -0.0720503 0.050200127 0.101575986 0.026957536
0001e0 09 73 76 3d 0e 78 6e 3d 7d b0 47 bc 1d 2f c3 3d
       0.0601683 0.05821996 -0.012188074 0.095304705
0001f0 20 5b e7 3d 5d 6d cc 3d 67 c0 36 be e1 6f ea bd
       0.112966776 0.09981797 -0.17846833 -0.114471205
000200 58 ee 09 be 3e f4 1c be a7 53 39 be 36 9b cc bd
       -0.13469827 -0.15327546 -0.18098317 -0.09990542
000210 cc db 52 bd f2 46 a8 bd 48 de 87 bd af 56 45 3d
       -0.051479146 -0.08216657 -0.06634194 0.04817837
000220 d8 28 0f 3e cb 6a 83 3d ff 42 8d 3d 9e 8a 1b 3d
       0.13980424 0.064168535 0.06897544 0.037973993
000230 b5 b8 4b 3d 0d d0 68 3c 80 26 3c 3d d0 95 ee 3d
       0.049736697 0.014209759 0.045935154 0.11649668
000240 8a 65 d7 bd 1b 43 ed bd ec 74 3e be 82 86 c1 bd
       -0.10517414 -0.11585065 -0.1859929 -0.094494835
000250 e3 97 c0 bd 5f 90 e3 bd 7b 69 ed bd 53 8f b4 bd
       -0.0940397 -0.11111521 -0.115923844 -0.088163994
000260 c2 da 26 be ea 3f f7 bd c4 e9 a2 bd 03 40 a7 bd
       -0.16294387 -0.120727375 -0.079547435 -0.08166506
000270 14 78 0a be f6 7b 13 be fb 22 e6 bd e9 87 fc bd
       -0.13522369 -0.14402756 -0.11237141 -0.1233061
000280 81 37 17 be 83 80 c2 bd 7e aa 02 be 88 e3 f0 bd
       -0.14767267 -0.09497168 -0.1276035 -0.11762148
000290 ab 2d 98 bd c6 fa 7a bd b5 9a 83 bd 60 5e ff bd
       -0.074305855 -0.061274312 -0.064259924 -0.124691725
0002a0 0e a3 91 bd 14 f0 8b bd 42 63 ac bd b9 90 bd bc
       -0.07111178 -0.06832901 -0.084173694 -0.023140298
0002b0 31 ed 81 bd ff e2 15 bd 96 22 e9 3b 7c 41 db bc
       -0.06344069 -0.036593433 0.0071147187 -0.026764624
0002c0 c8 ff 0e bc 4d 9c f6 bc 56 f4 3a 3c c8 1e 19 bd
       -0.008727975 -0.030103827 0.011410793 -0.03738287
0002d0 93 1d a6 bd d0 96 9b bd a3 91 6f bd bb e1 ec bd
       -0.081111096 -0.075971246 -0.0584885 -0.11566492
0002e0 b8 40 e7 bd 1c 1d ea bd 21 40 80 bd a3 e6 b4 bd
       -0.11291641 -0.114313334 -0.062622316 -0.08833053
0002f0 48 a9 cc bd b5 96 2b bd 4f 8f 8b bb e4 7a 9e bd
       -0.09993225 -0.041891772 -0.004259027 -0.07738283
000300 fb 76 0b 3c dc b0 17 bd b3 a2 a1 bd 87 90 36 bd
       0.008512254 -0.0370339 -0.078923605 -0.044571426
000310 94 bc d5 bd 03 53 e3 bc 2f b6 01 3e 45 8c 4d 3e
       -0.10436359 -0.027749544 0.12667154 0.2007304
000320 27 48 ca 3d 5d be 85 3d db fa 2c 3e b3 7f c4 3d
       0.09877043 0.065304495 0.16892569 0.09594669
000330 67 ee 65 3e 11 77 0e 3e 74 9c 23 3e 88 56 de bd
       0.22454225 0.13912608 0.15977651 -0.10856348
000340 08 e8 89 bc ba 65 0f be 26 1a ac bd e4 c5 2b 39
       -0.016834274 -0.1400365 -0.08403425 0.00016381551
000350 82 7e af bd 9c 6d 2d 3e f4 6c 00 3e e4 64 52 3d
       -0.08569051 0.16936344 0.12541562 0.051365748
000360 5d 2c 88 bd 84 03 e6 bd cb ec 0c bd e4 c9 3f 3c
       -0.066490866 -0.11231139 -0.03440551 0.011705849
000370 a3 2a c5 bc 5b 8c 4e 3d 3a 2d 4f 3e 23 67 3a 3e
       -0.024068182 0.050426822 0.20232096 0.18203406
000380 45 a9 0a 3e 2c 1a 91 3c 5c fe 10 bd ea ee 14 3e
       0.13541134 0.017712675 -0.035398826 0.14544263
000390 df ff ca 3d 9b b8 01 3d 72 33 b9 3d 56 ee 10 3d
       0.09912085 0.031670194 0.090430155 0.035383545
0003a0 37 06 68 3d ea 69 9b 3d a6 8e 18 be fd a8 56 bd
       0.056646552 0.07588561 -0.14898166 -0.052407254
0003b0 76 ab 1f bd ea 2c b1 bd 72 e7 a8 bd cf 1a af bd
       -0.038981877 -0.08651145 -0.0824727 -0.08550035
0003c0 1e 18 35 bd 6c 6f 3d bd 60 87 bc bd b5 45 d1 bd
       -0.044212453 -0.04624884 -0.09205508 -0.10218374
0003d0 c0 3b b9 bd f7 69 f3 bd b6 e6 4e bd ce f8 f9 3b
       -0.090445995 -0.118854456 -0.05051299 0.007628537
0003e0 e5 1d cd bb 35 a7 62 3d 3b 67 5b bd 3b da 0b bd
       -0.006259667 0.055335242 -0.053565245 -0.034143668
0003f0 ba 3c 08 be 69 2b 9f bd 0f b2 9d bd 59 76 f3 bd
       -0.13304415 -0.07771952 -0.076999776 -0.118878074

encoder5.features.0.bias f4 [64]
000000 34 e7 c8 3c 50 51 34 3d 4b d4 28 3d 2a c2 be 3c
       0.024524309 0.04402286 0.041218083 0.023285944
000010 2a 9b 66 3d f7 72 87 bc 19 b3 a9 3b 10 b2 85 bc
       0.05630032 -0.016534312 0.005178821 -0.016320258
000020 17 98 0a 3d 53 5f 6a 3d 06 14 41 bd aa c3 c4 3c
       0.03383645 0.057219815 -0.047138236 0.024019081
000030 ef c5 4f 3c 03 e5 97 bb f1 e1 f5 bb ec 96 6d 3d
       0.012681468 -0.0046354546 -0.007503741 0.05800526
000040 05 7d db bc 65 66 89 bc 52 a3 9a 39 3d 6c 4b 3d
       -0.026793012 -0.016772458 0.00029494852 0.04966377
000050 df ad 23 3c ef e0 35 bd 4d 1a 32 bd 41 7a cd 3c
       0.009990185 -0.044403967 -0.043482114 0.02508271
000060 09 5f 4a 3c 76 1d 1d bd d8 d5 b1 bc 10 63 a0 bc
       0.01235176 -0.038358174 -0.021708414 -0.019578487
000070 24 3e 60 3d b4 ff d5 bc 2c 0b 08 bd f7 b1 69 bb
       0.054746762 -0.026122905 -0.03321378 -0.0035659054
000080 b5 2e 13 3d 32 c1 50 3d d4 ce 53 bd 79 0b 01 3d
       0.035933215 0.050965495 -0.05171092 0.03150508
000090 d0 d7 f8 3c 24 78 fb 3c 62 d5 52 bc 74 27 a3 bb
       0.030376345 0.030696936 -0.012868257 -0.0049790684
0000a0 97 26 07 bd c5 2d 13 bd 83 c3 4a 3d de d0 25 3c
       -0.032995787 -0.03593232 0.04950286 0.010120599
0000b0 92 73 94 bc b1 19 58 3d 54 d5 56 bd de 05 1d bd
       -0.018121514 0.052758876 -0.05244954 -0.038335674
0000c0 d1 08 50 bd 4e 10 58 bc f1 21 2e 3c 79 be 3c 3d
       -0.050789658 -0.013187481 0.010628209 0.046080086
0000d0 ca 38 67 bd 9f 71 e8 3b 64 73 19 bd be 57 13 bd
       -0.056450643 0.007093623 -0.03746356 -0.03597235
0000e0 ae 0e e3 bb c1 3c 3a bd 45 d3 39 bd 21 0c 55 bd
       -0.00692924 -0.045468096 -0.045367498 -0.05201352
0000f0 df 50 43 3d e0 9c 59 3d 78 88 b9 bc f3 d3 62 3d
       0.047684547 0.053128123 -0.022648081 0.05537791

encoder5.features.1.weight f4 [64]
000000 c2 1f a0 3e 8f f6 97 3f da 1c 6f 3f da 99 55 3f
       0.3127423 1.1872119 0.934034 0.83437884
000010 37 1c a3 3e fe 75 19 3f 8e 3b 6a 3f 8c 77 02 3f
       0.31857464 0.59945667 0.91497123 0.50963664
000020 bd d7 aa 3e 99 c9 94 3f df cc 3f 3f 19 e6 a5 3e
       0.3336772 1.1624023 0.74921983 0.32402113
000030 15 22 3c 3f 43 1d 9d 3e c0 02 aa 3f 4f 3c 4a 3f
       0.73489505 0.30686387 1.3282089 0.78998274
000040 4e 47 8b 3e a4 ba a7 3f 06 bd 8b 3f 59 68 53 3f
       0.2720284 1.3103833 1.091706 0.82581097
000050 7f 1e 7d 3e ab b7 41 3f c2 88 80 3f 4d 71 87 3f
       0.24718665 0.7567088 1.0041735 1.0581452
000060 7a 1e 69 3f df e8 ed 3e 43 76 0b 3f 9e cf b3 3e
       0.9106213 0.4646673 0.5447733 0.35119337
000070 8c f8 07 3f d5 a4 09 3f 2e 02 46 3f 3a a8 8d 3f
       0.5311363 0.5376714 0.77347076 1.1066964
000080 a9 41 98 3f 29 b8 3a 3f 65 b3 dd 3e 5e 0d 0c 3f
       1.1895038 0.72937256 0.4330093 0.54707897
000090 51 47 24 3f 23 91 8f 3f 3e 09 c1 3e 43 40 80 3f
       0.6417132 1.1216167 0.37702364 1.0019611
0000a0 9c 02 fa 3e d1 94 99 3f f5 7e 3b 3f f7 7c eb 3e
       0.48830116 1.199854 0.73240596 0.45993778
0000b0 23 94 0e 3f 15 5b 0a 3f db 14 f3 3e 27 06 7d 3f
       0.5569479 0.5404523 0.4747685 0.9883751
0000c0 8d 41 79 3f a9 37 eb 3e ca 9e 60 3f ec 18 91 3f
       0.9736565 0.45940903 0.8774229 1.133573
0000d0 a9 cc 92 3f c0 ca 58 3f 5c 4d 0c 3f c9 4a 98 3f
       1.1468707 0.8468437 0.5480554 1.1897823
0000e0 c9 bf 03 3f 1c 26 14 3f 94 00 74 3f 8f 48 35 3f
       0.51464516 0.5787065 0.9531338 0.7081384
0000f0 6d 43 67 3f c7 a3 4b 3f ad 85 fc 3e 88 f9 a5 3e
       0.9033726 0.7954678 0.49320737 0.3241694

encoder5.features.1.bias f4 [64]
000000 90 99 32 bf 89 c3 66 bf 38 1c f2 be 77 cc 08 be
       -0.6976557 -0.9014211 -0.47287154 -0.13359247
000010 c2 7d 1c bf af 6b 8c bf 92 f3 10 3f e8 56 27 bf
       -0.6112939 -1.0970362 0.5662166 -0.65366983
000020 00 28 01 bf f2 e1 32 3f 18 82 a5 be bc 30 02 bf
       -0.5045166 0.69876015 -0.32325816 -0.5085561
000030 4d cd 3d bf dc 65 27 be 66 2d 1f bd 58 9c 4a 3f
       -0.7414139 -0.1634745 -0.038861655 0.7914481
000040 60 48 04 bf f3 7b 4f bf 3b 4b 91 3e fd dd 01 bf
       -0.51672935 -0.81048506 0.2837771 -0.5072935
000050 1b b7 2b bf a9 7b c5 be f2 2b 98 be fc f7 30 bf
       -0.6707627 -0.38570908 -0.29721028 -0.69128394
000060 62 c2 06 3f 6e 78 98 bf 2a 0d 47 bf 2c 90 15 bf
       0.52640355 -1.1911752 -0.7775446 -0.58423114
000070 7c 5a 96 bf 9c 5f 1d bf 52 c5 4e 3f 62 2b 0a bf
       -1.1746364 -0.61474013 0.80769837 -0.53972447
000080 4c 03 6c be 54 74 6b 3e bd 51 9f bf 89 84 94 bf
       -0.23048133 0.22993594 -1.244682 -1.1602947
000090 37 76 b2 bf 12 98 90 3e 2c 5e 0f bf e5 c2 1d 3f
       -1.3942326 0.2824102 -0.5600307 0.6162551
0000a0 11 cc 16 bf 90 d8 c8 3c 84 93 a0 3e ce a4 5e bf
       -0.5890513 0.024517328 0.31362545 -0.8697022
0000b0 69 ac ef be 0c c1 89 be 24 27 99 bf cd 65 bb be
       -0.46811226 -0.26905096 -1.196507 -0.36601105
0000c0 0c c5 9b be 7b 0d 15 bf f8 52 bd bd 8b 25 70 bd
       -0.30423772 -0.58223695 -0.09244341 -0.058629554
0000d0 49 a9 22 3f c5 51 15 be fe 51 77 bf d8 cd 28 3f
       0.6353956 -0.14581974 -0.96609485 0.6593909
0000e0 02 51 6b bf 08 e0 13 3f 8f 07 d3 bd 32 5f b1 bf
       -0.91920483 0.5776372 -0.10304176 -1.3857176
0000f0 e6 b5 e5 be ea 67 b0 be ff f6 50 bf 5d 1c 5d 3e
       -0.4486534 -0.3445428 -0.81626886 0.21592851

encoder5.features.1.running_mean f4 [64]
000000 26 1e cb bf cf 9b a6 3f e8 61 a8 c1 5e 41 0c c1
       -1.5868576 1.3016299 -21.047806 -8.765959
000010 0c 8f f0 bf 09 ae 73 c0 40 83 4e c0 90 40 4b c0
       -1.8793654 -3.8074973 -3.2267609 -3.1758156
000020 c6 ef 39 c0 f8 52 87 3f 81 7c e6 c0 a5 92 50 c0
       -2.9052596 1.0572195 -7.202698 -3.2589505
000030 ea 32 e0 c0 ba 39 c9 c0 8b 25 3a c1 13 b4 32 40
       -7.006215 -6.2882967 -11.634166 2.7922409
000040 20 18 d7 c0 d7 5f 55 40 6a a0 58 c0 29 3e 46 c0
       -6.721695 3.3339746 -3.384791 -3.097544
000050 8a 98 a6 c0 39 ac 8c c0 e4 eb 96 c0 f3 a2 88 c0
       -5.2061205 -4.3960233 -4.7162952 -4.2698913
000060 7f 23 12 c0 3d ce 35 c0 4f 21 b6 c0 01 1b 6c c0
       -2.2834165 -2.8407128 -5.691566 -3.6891482
000070 37 37 9d bf bf 02 13 c0 2a d2 20 c0 e1 2d 90 bf
       -1.2282475 -2.2970426 -2.5128274 -1.1264001
000080 f5 c2 01 c1 a7 2d 53 bf 8c 39 8b c0 84 4e d9 bf
       -8.110097 -0.82491535 -4.350775 -1.6977086
000090 ca 38 49 3f 63 24 11 c0 4f 74 c5 bf 5b 91 78 3f
       0.7860228 -2.2678459 -1.542612 0.97096795
0000a0 b4 b7 dc bf 3e 99 e5 bf 62 41 54 c0 ff 6f b8 bf
       -1.7243562 -1.7937391 -3.3164907 -1.4409178
0000b0 40 10 97 c0 f6 58 cf c0 16 f6 07 c0 b6 db b7 bf
       -4.7207336 -6.4796095 -2.124395 -1.4363925
0000c0 58 cc 9c 3e c1 cd a5 c0 bb bb 3c c1 bd 66 25 c1
       0.30624652 -5.1813664 -11.795833 -10.337583
0000d0 3b d4 90 40 3b 2a 40 c1 1c 9b 0e 40 12 38 a2 40
       4.525907 -12.01031 2.2282171 5.0693445
0000e0 51 02 a9 bf 8e 6b ae c0 2a f4 19 c1 3c f9 36 c0
       -1.3203832 -5.450629 -9.62211 -2.858962
0000f0 ec 86 b4 40 5e 21 e9 c0 26 00 23 c0 15 bf 8e c0
       5.64147 -7.285323 -2.546884 -4.4608254

encoder5.features.1.running_var f4 [64]
000000 0a 01 87 40 cc 64 ee 41 9e f5 94 42 81 6f 50 42
       4.218877 29.799217 74.47972 52.10889
000010 8d b2 b3 41 51 29 79 42 b6 e7 5b 42 ec 6a 10 41
       22.462183 62.290348 54.97628 9.026104
000020 69 5f aa 40 c8 df 34 43 b6 3b f8 41 20 31 13 41
       5.3241467 180.87415 31.029156 9.199493
000030 e1 e5 03 41 2f 0d 3b 41 f7 c5 e8 42 a6 44 ac 42
       8.243623 11.690719 116.38665 86.13408
000040 1f 2c 5c 41 5b 40 1f 42 69 6c 9e 42 94 61 8e 42
       13.760772 39.812847 79.21174 71.19058
000050 b8 9e e7 41 d7 79 ae 42 1f ba be 42 a0 04 2b 42
       28.9525 87.23797 95.36352 42.754517
000060 1c ff be 42 20 eb 6a 42 07 c7 9f 41 79 be 0d 40
       95.49826 58.729614 19.972181 2.2147505
000070 8b b9 4f 42 cb 1e 7f 41 67 8c 7d 42 b0 5f 1e 42
       51.931194 15.945018 63.38711 39.593445
000080 2b ab 75 42 7e 47 29 42 0b 64 38 42 9a c5 fc 41
       61.417156 42.319817 46.0977 31.596485
000090 96 8e 16 42 8d 7e 88 42 14 48 a8 40 e9 74 e7 42
       37.639244 68.24717 5.2587986 115.72834
0000a0 ef e7 22 41 0f 8a 84 42 3a 32 75 42 27 0c 50 42
       10.181624 66.269646 61.29905 52.011868
0000b0 43 37 fd 40 9f b7 77 41 f3 6f 83 42 77 b4 0d 42
       7.912996 15.482329 65.71865 35.426235
0000c0 eb fb 7e 42 dd d6 fa 41 5e 3c 9a 42 6a cb c9 42
       63.746014 31.354914 77.117905 100.89729
0000d0 97 48 d9 42 d8 c6 c1 42 d7 38 72 42 2e 70 0c 43
       108.64178 96.88837 60.555508 140.4382
0000e0 f8 6c d3 41 ad 3e 21 42 53 05 00 43 21 78 96 42
       26.428207 40.311207 128.0208 75.23463
0000f0 dc d7 f9 41 d1 27 a3 42 e0 36 1d 42 4e e7 a0 41
       31.2304 81.57777 39.30359 20.112942
