model/SRNet_2021-07-18_23-03-57.pth (torch, 226039 bytes, 102 tensors)

encoder1.features.0.weight f4 [4, 3, 3, 3]
0	0xbe73be9d	-0.23803182
1	0xbe956e8b	-0.291859
2	0xbb0e6278	-0.0021726172
3	0xbe8954e9	-0.26822594
4	0xbe60a101	-0.21936418
5	0xbe01bf5e	-0.12670657
6	0xbdf67c01	-0.120353706
7	0xbeb42d34	-0.35190737
8	0xbd961f36	-0.07330172
9	0xbe2f6389	-0.17127813
10	0xbe05060c	-0.12990588
11	0xbe9a937f	-0.30190656
12	0xbe163434	-0.14668351
13	0x3d59cba3	0.05317272
14	0xbe5bff36	-0.21484074
15	0xbe63b1f3	-0.22235851
16	0xbe35b0e6	-0.17743263
17	0xbea547db	-0.32281384
18	0x3eb6b286	0.35683078
19	0x3d653b17	0.055964556
20	0x3e9e4cdd	0.30918017
21	0x3ec62223	0.3869792
22	0x3e03cf86	0.12872133
23	0x3e62afd4	0.22137386
24	0x3dc1cdf5	0.09463111
25	0x3ea403a1	0.3203402
26	0xbc2b5974	-0.010458339
27	0xbca21c70	-0.01978895
28	0xbe540c7c	-0.20707887
29	0xbe6e1c37	-0.2325295
30	0xbd395dfb	-0.045255642
31	0x3e6977ca	0.22799602
32	0xbd94f78f	-0.072737806
33	0x3cefcc04	0.029272087
34	0xbe04bc26	-0.12962398
35	0xbe0d40b1	-0.13794209
36	0xbd3c5f82	-0.04598952
37	0x3eb3d9d5	0.3512713
38	0x3e4f4db8	0.20244491
39	0x3cfa4324	0.030549593
40	0x3f76c8f2	0.9640037
41	0x3f44ec67	0.7692322
42	0xba9983ce	-0.0011712254
43	0x3e8ea3f0	0.2785945
44	0x3b9aab0f	0.004720099
45	0xbe7605ed	-0.24025698
46	0x3dd3d268	0.10342866
47	0x3c9dc1ec	0.019257508
48	0x3e03b699	0.12862624
49	0x3f904f0b	1.1274122
50	0x3f4632c0	0.7742119
51	0xbeaa2e7f	-0.332386
52	0x3e410ae8	0.18851817
53	0x3e29b0d6	0.16571364
54	0x3e16a1f7	0.14710222
55	0x3dc648b6	0.09681837
56	0x3b35c692	0.0027736765
57	0x3e2ff65e	0.17183825
58	0x3e4b788e	0.19870207
59	0x3e297e7e	0.16552159
60	0x3d062e9c	0.032759294
61	0x3e214a14	0.15750915
62	0x3e6475dc	0.22310585
63	0xbea180ee	-0.31543678
64	0x3dc83664	0.09775999
65	0xbe03536f	-0.12824796
66	0xbe11a18c	-0.14221781
67	0x3c783499	0.015149259
68	0xbe75d6b5	-0.24007685
69	0xbe7b813f	-0.24561022
70	0x3c9ec4df	0.019380985
71	0xbe8db0b2	-0.2767387
72	0x3e53de82	0.20690349
73	0x3e829050	0.25500727
74	0x3e0d5954	0.13803607
75	0x3e5ef3b7	0.21772657
76	0x3e9faa5b	0.31184658
77	0xbd18891e	-0.03724014
78	0x3e3cda01	0.18442537
79	0xbdf6adaa	-0.120448425
80	0xbda4156e	-0.080119
81	0x3db3097d	0.08742044
82	0x3d0c5aac	0.03426616
83	0xbde3c134	-0.11120835
84	0x3c56c501	0.013108493
85	0x3d8ea308	0.069646895
86	0xbba85713	-0.005137333
87	0x3d815574	0.06315127
88	0x3e1a8a1e	0.1509175
89	0x3d1285b2	0.035772033
90	0xbde80322	-0.113287225
91	0x3d80b3bd	0.06284282
92	0xbe01f79f	-0.12692116
93	0xbe21c47c	-0.15797609
94	0xbd6f8535	-0.058476645
95	0x3daef4cc	0.08542785
96	0xbe1f667c	-0.15566438
97	0xbe41a17f	-0.18909262
98	0xbd76b678	-0.06023261
99	0xbdef8268	-0.11694795
100	0xba92ab09	-0.0011189888
101	0x3d997efa	0.07494922
102	0xbe37bb0a	-0.17942443
103	0xbe639844	-0.22226053
104	0xbe81e64f	-0.25371024
105	0x3d9360a5	0.07196168
106	0xbe88348a	-0.26602584
107	0xbe60255d	-0.21889253

encoder1.features.0.bias f4 [4]
0	0x3e3ff5b9	0.1874608
1	0x3d96dbb5	0.073661245
2	0x3bdba47f	0.006702959
3	0xbc2e7fed	-0.010650617

encoder1.features.1.weight f4 [4]
0	0x3f7c1070	0.9846258
1	0x3f9e3cee	1.2362344
2	0x3f34840f	0.70514005
3	0x3f9faf34	1.2475343

encoder1.features.1.bias f4 [4]
0	0xbf165bf8	-0.58734083
1	0x3e9d440e	0.30715984
2	0xbefd1b7f	-0.4943504
3	0xbe02891a	-0.12747613

encoder1.features.1.running_mean f4 [4]
0	0xbf53400e	-0.82519615
1	0x3fed753a	1.85514
2	0x3f1986c0	0.5997124
3	0xbf2b25ec	-0.6685474

encoder1.features.1.running_var f4 [4]
0	0x3e5a00bb	0.21289341
1	0x3f436b35	0.7633546
2	0x3d9cc96d	0.076556064
3	0x3de53bc9	0.11193044

encoder2.features.0.weight f4 [8, 4, 3, 3]
0	0x3db6b263	0.08920743
1	0x3ddc5369	0.10758097
2	0xbd50e345	-0.05099799
3	0xbd8dfa6f	-0.06932532
4	0x3e0f983b	0.14022915
5	0x3debe3f3	0.11518087
6	0x3dab46ca	0.08363111
7	0xbe04d29a	-0.12970963
8	0x3e0a2574	0.1349085
9	0x3d830ebf	0.06399297
10	0xbd8e8244	-0.0695844
11	0xbd116007	-0.03549197
12	0xbe2365ce	-0.15956804
13	0x3dbf8345	0.093512096
14	0xbd34b6ba	-0.044119574
15	0xbe166a07	-0.14688884
16	0xbd9ba2af	-0.07599389
17	0xbe15abc8	-0.1461631
18	0xbd0556e6	-0.032553576
19	0xbe4eeb67	-0.20206986
20	0xbdf4e8dd	-0.11958478
21	0xbe3839ac	-0.1799075
22	0xbdb69766	-0.08915596
23	0xbca7348a	-0.020410795
24	0xbd86ea4e	-0.06587659
25	0xbd967af3	-0.073476695
26	0xbd9272c3	-0.07150795
27	0x3d94d61f	0.07267403
28	0x3e48d568	0.19612658
29	0x3e011677	0.12606226
30	0x3e8200b0	0.2539115
31	0x3df13db5	0.11779348
32	0x3e51682a	0.20449892
33	0x3e906f4e	0.2820992
34	0x3db9c532	0.09070815
35	0x3d5aa8cf	0.053383645
36	0xbd8cba7e	-0.06871508
37	0xbe84abce	-0.25912327
38	0xbe91f53d	-0.28507414
39	0xbd17f824	-0.03710188
40	0xbea33f96	-0.3188445
41	0xbe6c4b07	-0.23075496
42	0x3ebede75	0.37279096
43	0xbe46bea6	-0.19408664
44	0xbeb46a5c	-0.35237396
45	0x3c37da0c	0.01122142
46	0x3eef3b9f	0.46725175
47	0x3ecae782	0.3962975
48	0xbd06db14	-0.032923773
49	0x3e8f057d	0.27933875
50	0x3eb5aeb2	0.35484844
51	0xbf320093	-0.69532126
52	0xbe119a6b	-0.14219062
53	0x3e695226	0.22785243
54	0xbd9601d7	-0.0732457
55	0x3da6d0ef	0.0814532
56	0x3b8b3103	0.004247786
57	0xbe004db8	-0.12529647
58	0x3db6837b	0.08911797
59	0xbd10fc71	-0.035396997
60	0xbebcc855	-0.3687159
61	0xbe5934c9	-0.21211542
62	0xbd3ff8dc	-0.04686819
63	0x3e801ab8	0.25020385
64	0xbcf6bda4	-0.030119725
65	0x3dde615f	0.10858416
66	0x3d14d2b9	0.036333773
67	0x3e27e2ff	0.16395186
68	0x3e3aa21c	0.18225902
69	0x3d5a4c1e	0.053295247
70	0x3d13edb1	0.036115352
71	0x3deed2b7	0.116612844
72	0xbd8d00c4	-0.06884912
73	0xbe36aed6	-0.17840132
74	0xbe8643f9	-0.26223734
75	0xbe4d53df	-0.20051526
76	0xbe399340	-0.18122578
77	0x3d0d6bf1	0.03452677
78	0xbde02902	-0.109453216
79	0xbdfbe957	-0.123003654
80	0x3db3be7b	0.08776566
81	0x3e48cb86	0.19608888
82	0x3e1a6815	0.15078767
83	0xbca70e4a	-0.020392556
84	0x3e9bfe45	0.3046743
85	0x3e1f5af0	0.15562034
86	0xbe895c50	-0.2682824
87	0x3e611a2c	0.2198264
88	0x3d931ee6	0.07183628
89	0x3d0f3210	0.034959853
90	0xbc89b1e2	-0.016808454
91	0x3ca1dab9	0.019757615
92	0xbda3a569	-0.07990534
93	0xbe012d72	-0.12614992
94	0x3ca08b12	0.019597564
95	0x3dce9023	0.10086086
96	0x3cee5e39	0.029097663
97	0xbd8ff8d0	-0.07029879
98	0xbdee85e5	-0.11646632
99	0xbe2ad4b1	-0.16682698
100	0xbe9c6473	-0.30545387
101	0xbdedd3ac	-0.11612639
102	0xbdf7e640	-0.121044636
103	0xbe4cec19	-0.20011939
104	0xbdf75574	-0.12076846
105	0x3d19cc1d	0.037548173
106	0xbe5e0483	-0.21681409
107	0x3dc37605	0.09543995
108	0x3e8362f8	0.25661445
109	0x3dcac7b7	0.09901374
110	0x3e2c2d02	0.16814044
111	0x3d1637c2	0.03667427
112	0x3dfdf816	0.12400834
113	0x3e91d7bf	0.28484914
114	0x3d15c0b2	0.03656072
115	0x3e339fb8	0.17541397
116	0x3e92bca8	0.28659558
117	0xbe00bd41	-0.12572195
118	0xbdb23efd	-0.0870342
119	0xbdd582b4	-0.1042532
120	0xbe1d0830	-0.15335155
121	0xbe46d755	-0.1941808
122	0xbcf0f7e8	-0.029415086
123	0x3d2b3f6b	0.041808527
124	0xbe6f02f7	-0.23340975
125	0xbd9a5f04	-0.07537654
126	0x3d645974	0.05574937
127	0xbafd413f	-0.0019321813
128	0xbd862fe7	-0.065521054
129	0xbdb5f826	-0.08885221
130	0x3e478021	0.19482471
131	0x3d93d7df	0.072189085
132	0x3e304396	0.17213282
133	0x3ddb0404	0.10694125
134	0x3e017b85	0.12644775
135	0x3e149350	0.1450932
136	0x3e017cbc	0.12645239
137	0x3d94fb96	0.07274549
138	0x3e94ee58	0.29088092
139	0x3e03c6c9	0.128688
140	0x3e014f01	0.12627794
141	0x3be11513	0.0068689673
142	0x3d8efffe	0.069824204
143	0x3dc80acb	0.097676836
144	0x3c133095	0.008983751
145	0x3e207791	0.15670611
146	0x3d835e05	0.06414417
147	0xbe20e55a	-0.1571249
148	0xbd9ce97c	-0.07661721
149	0xbd5e3929	-0.05425373
150	0xbd71c9f4	-0.059030488
151	0xbd8352c1	-0.064122684
152	0xbc8ac658	-0.01694028
153	0x3c3342cd	0.0109412195
154	0x3d9f60a3	0.07782104
155	0xbed75804	-0.42059338
156	0x3eb5b8d6	0.3549258
157	0x3f04e933	0.51918334
158	0xba52dd99	-0.0008043885
159	0x3f027443	0.5095865
160	0x3f4b8964	0.79506516
161	0x3e9aef79	0.30260828
162	0xbefb7df7	-0.4911954
163	0xbe529e69	-0.20568241
164	0xbdf0d148	-0.11758667
165	0xbd8b0434	-0.06787911
166	0xbdd7e285	-0.10541252
167	0xbe858d7c	-0.26084507
168	0xbe7fe7c8	-0.24990761
169	0xbd612caa	-0.054974236
170	0xbe560202	-0.20899203
171	0x3d31bd63	0.043393504
172	0x3dfbb3fa	0.12290187
173	0x3e955e78	0.29173636
174	0x3d2fc9ee	0.042917185
175	0xbe7d08ee	-0.24710438
176	0xbcfe70d1	-0.031059654
177	0x3e137737	0.14400946
178	0xbeb3c38f	-0.35110137
179	0xbca86352	-0.020555172
180	0xbe375ec4	-0.17907244
181	0xbebcff2e	-0.36913437
182	0xbe51be4f	-0.20482753
183	0xbe74e86c	-0.23916787
184	0xbe8e4e55	-0.27794138
185	0xbe99a96c	-0.3001207
186	0xbec7bdcb	-0.39011988
187	0xbe4e7cf3	-0.20164852
188	0xbe88ef71	-0.2674518
189	0xbde4cabd	-0.11171482
190	0x3b72711e	0.0036993693
191	0xbe3c4d4e	-0.18388864
192	0x3da0ee72	0.0785798
193	0xbe1df57b	-0.15425675
194	0xbe49acd4	-0.19694835
195	0xbc834ace	-0.01602688
196	0xbe4986bf	-0.19680308
197	0x3e3587f6	0.17727646
198	0x3bdf9029	0.006822605
199	0xbd75fc96	-0.060055338
200	0xbd1cac69	-0.03825036
201	0x3e5c6798	0.21523893
202	0xbb8391d8	-0.0040151887
203	0xbd0b291a	-0.033974744
204	0x3c524a10	0.012835041
205	0x3dea42e2	0.11438538
206	0x3e87c1a3	0.2651492
207	0xbed4348b	-0.41446337
208	0xbeca5a56	-0.39522046
209	0xbec9096a	-0.39264995
210	0xbee04ede	-0.4381017
211	0xbe5ab945	-0.21359737
212	0xbef742e5	-0.48293224
213	0xbf00418a	-0.50100005
214	0xbef0c2a9	-0.47023514
215	0xbe831bad	-0.25607052
216	0x3e120c9e	0.14262626
217	0x3e35ebfa	0.17765799
218	0x3dc81e89	0.09771449
219	0x3d96fcb2	0.073724166
220	0xbd32ea80	-0.043680668
221	0x3d4ca59f	0.049962636
222	0x3c7956eb	0.015218477
223	0x3e100a22	0.14066365
224	0x3dadc99e	0.08485721
225	0xbd2caf09	-0.042159114
226	0x3cc2e118	0.023788974
227	0xbd1e7a68	-0.038690954
228	0xbd5c5b7f	-0.053798195
229	0xbc656c4c	-0.014002871
230	0xbd79f506	-0.06102469
231	0x3e06ac0b	0.13151567
232	0x3e2dc444	0.169694
233	0xbc1f06ad	-0.0097061815
234	0x3da773c3	0.08176377
235	0xbd3add48	-0.045621186
236	0xbe2934cf	-0.16524051
237	0xbddf6c2a	-0.109093025
238	0x3df8bbb3	0.12145176
239	0x3dc6c55f	0.09705614
240	0x3dea4529	0.114389725
241	0xbdb2ad52	-0.087244645
242	0x3e0d7bd2	0.13816765
243	0x3e72798c	0.23679179
244	0x3d098566	0.033574484
245	0x3e812995	0.25227037
246	0x3e9b2667	0.30302736
247	0x3e9220c3	0.2854062
248	0x3c68e04c	0.014213633
249	0x3c998737	0.018741233
250	0x3e552af3	0.20817165
251	0x3e8b1116	0.27161473
252	0x3e9c8cb5	0.305761
253	0x3e6fde2b	0.23424594
254	0x3d78aad6	0.060709797
255	0x3e846439	0.25857714

encoder2.features.0.bias f4 [8]
0	0xbcc611c9	-0.024178402
1	0x3d1b3ea2	0.03790153
2	0xbe1a9472	-0.1509569
3	0x3db7b9f7	0.08971017
4	0xbdfebcb2	-0.124383345
5	0xbe097c66	-0.1342636
6	0x3c9d552f	0.019205658
7	0xbe305ff4	-0.17224103

encoder2.features.1.weight f4 [8]
0	0x3f763d87	0.96187633
1	0x3f31bb10	0.6942606
2	0x3f71604d	0.9428757
3	0x3f6aee14	0.9176953
4	0x3f4da8e0	0.8033581
5	0x3f649c6e	0.8930119
6	0x3f738dbf	0.9513816
7	0x3f3e3db8	0.74312925

encoder2.features.1.bias f4 [8]
0	0xbe8cfd62	-0.27537066
1	0xbe260851	-0.1621411
2	0x3ea03731	0.31292108
3	0xbf4526e7	-0.77012485
4	0x3e8ba3f8	0.27273536
5	0x3de84e59	0.11343069
6	0xbf2e6b20	-0.6813221
7	0xbed99881	-0.42499164

encoder2.features.1.running_mean f4 [8]
0	0x3e79ba8e	0.24387571
1	0x3f4229ae	0.7584485
2	0xbe973499	-0.29532316
3	0x3e79cb95	0.24394067
4	0x3f9283d7	1.1446484
5	0xc02a31d2	-2.6592908
6	0x3f82d42b	1.0220999
7	0xbe908675	-0.28227583

encoder2.features.1.running_var f4 [8]
0	0x3fe9ea8e	1.8274705
1	0x3f125551	0.5716143
2	0x3ffca68c	1.9738326
3	0x40163cbc	2.347457
4	0x403e7ce9	2.976374
5	0x40a81c30	5.253441
6	0x3f853f86	1.0410011
7	0x3e9efc0b	0.3105167

encoder3.features.0.weight f4 [16, 8, 3, 3]
0	0xbc31aea0	-0.0108448565
1	0x3dcdbf02	0.100461975
2	0x3cd3f8ba	0.025875438
3	0xbd498e40	-0.049207926
4	0xbdaab7fa	-0.08335872
5	0xbcbf72c1	-0.023370149
6	0xbdbe6cc8	-0.09298092
7	0x3d3d1e1f	0.046171304
8	0xbe328045	-0.17431743
9	0xbe38b020	-0.18035936
10	0x3d35546f	0.044269975
11	0xbc27b221	-0.01023534
12	0x3d147ef4	0.036253884
13	0xbc905507	-0.01761867
14	0xbdf29a7e	-0.11845873
15	0x3d9f9129	0.07791359
16	0x3da90d2c	0.082544655
17	0xbd034716	-0.032050215
18	0xbe9188a5	-0.28424564
19	0xbee4f554	-0.4471842
20	0xbebd8686	-0.37016696
21	0xbe471f41	-0.19445516
22	0xbda10538	-0.078623235
23	0xbdd2b7a4	-0.10288933
24	0xbd7647bc	-0.060127005
25	0xbdbb5b15	-0.09148232
26	0xbd628556	-0.05530294
27	0x3e6b3a3f	0.22971438
28	0x3e803ce1	0.25046447
29	0x3e342420	0.17591906
30	0x3e9d0efa	0.3067549
31	0x3da01c8a	0.078179434
32	0x3e6c90ad	0.23102064
33	0x3eb366ec	0.3503946
34	0x3e65933d	0.22419448
35	0x3e7ab81e	0.24484298
36	0xbe01b170	-0.12665343
37	0xbe0c9feb	-0.13732879
38	0x3c649fda	0.013954127
39	0x3dc86cb3	0.09786358
40	0x3ddbfb9b	0.10741349
41	0x3dac96dd	0.084272124
42	0x3e59fc74	0.2128771
43	0x3e02a5bc	0.12758535
44	0x3ea1b31b	0.3158196
45	0xbf0ea8ff	-0.5572662
46	0xbef26d59	-0.4734905
47	0xbf136dd7	-0.5758948
48	0xbec49464	-0.38394463
49	0xbf064f09	-0.5246435
50	0xbeafac19	-0.34310988
51	0xbdabb8e4	-0.083848745
52	0xbe29c213	-0.1657794
53	0xbec9985f	-0.39374062
54	0xbc8fc254	-0.017548718
55	0x3ba6a18f	0.0050851773
56	0x3d6a1c7a	0.057156064
57	0x3d157b57	0.03649458
58	0x3e2c18e2	0.16806367
59	0x3daacc72	0.08339776
60	0x3cdd6612	0.02702621
61	0x3dd1ecdf	0.10250258
62	0x3d244c3f	0.040111776
63	0x3dfd2c99	0.12362022
64	0x3daace6d	0.08340154
65	0x3db4460f	0.08802425
66	0x3e0b5254	0.13605624
67	0x3d22790d	0.039666224
68	0xbdac5501	-0.08414651
69	0x3d8525ea	0.06501372
70	0x3e05ab5e	0.13053653
71	0xbcf7e0ff	-0.030258654
72	0xbe8291f4	-0.25501978
73	0xbe571c82	-0.21006969
74	0xbd59d1aa	-0.053178467
75	0xbe8d781e	-0.27630705
76	0xbe628fad	-0.2212512
77	0xbe3c591d	-0.18393369
78	0xbdc0bf18	-0.09411448
79	0xbe9ae1da	-0.30250436
80	0xbd8f9f02	-0.0701275
81	0x3f35a560	0.7095547
82	0x3eae47cd	0.34039155
83	0x3ec6c46e	0.3882174
84	0xbca55342	-0.020181302
85	0xbd857259	-0.06515951
86	0x3e2c843c	0.16847318
87	0xbe054007	-0.13012706
88	0xbf07acf5	-0.52998286
89	0xbed306d6	-0.41216153
90	0x3f78f1b8	0.97243834
91	0x3eea981f	0.45819184
92	0x3e5af8dc	0.21383995
93	0x3ea5c533	0.32377014
94	0x3e067460	0.13130331
95	0xbe76a04b	-0.24084584
96	0x3c3f98e8	0.011694171
97	0xbeae270c	-0.34014165
98	0xbf1c3660	-0.6102047
99	0xbe16e652	-0.14736298
100	0xbe2261a1	-0.15857555
101	0xbc7e7fbc	-0.015533384
102	0xbdd50998	-0.104022205
103	0xbe05f361	-0.13081123
104	0xbcd119ac	-0.025524937
105	0xbe341f6b	-0.1759011
106	0xbdf58790	-0.11988747
107	0xbd2b9374	-0.04188867
108	0x3f089247	0.533482
109	0x3e676a4f	0.22599147
110	0x3e2a0406	0.16603097
111	0x3e873a80	0.2641182
112	0x3ded97f1	0.11601246
113	0xbe3a61ad	-0.18201323
114	0xbe75bcaf	-0.23997758
115	0xbe89bcb0	-0.2690177
116	0xbf113d71	-0.5673438
117	0x3d8b159c	0.06791231
118	0xbdb4a847	-0.08821159
119	0xbe77330b	-0.24140565
120	0x3d86d511	0.06583608
121	0x3e1e430e	0.15455267
122	0x3e1b9b8b	0.15196054
123	0xbdb28342	-0.08716442
124	0x3e35a956	0.17740378
125	0x3d49e347	0.049289014
126	0xbe6addc7	-0.22936164
127	0xbda0f567	-0.07859307
128	0xbd4bdc78	-0.049770802
129	0xbe299f14	-0.1656459
130	0xbdcf7113	-0.10128989
131	0xbdd906d5	-0.10597006
132	0xbe5b372f	-0.2140777
133	0xbe1ba3c2	-0.15199187
134	0xbdbdf37c	-0.092749566
135	0xbe367aec	-0.17820328
136	0x3d91f646	0.07127051
137	0x3d428cc4	0.047497526
138	0x3b15f53a	0.0022881762
139	0x3d6e826c	0.05822985
140	0x3e3288e3	0.1743503
141	0x3cc962ba	0.02458321
142	0x3e26ff85	0.1630841
143	0x3e3bdb67	0.18345414
144	0x3df281e2	0.118411794
145	0x3d02748c	0.03184943
146	0x3e10b993	0.14133291
147	0x3ddd2a46	0.10799079
148	0x3da966bd	0.08271549
149	0x3e16c9af	0.14725374
150	0x3e5843a0	0.21119547
151	0x3e27484b	0.16336171
152	0x3b16a3ab	0.0022985737
153	0xbec7be46	-0.39012355
154	0xbeafbc3f	-0.34323308
155	0xbe73024b	-0.23731343
156	0xbe2fd06b	-0.17169349
157	0xbda1a47a	-0.078926995
158	0xbd799af9	-0.06093881
159	0x3e5dba71	0.21653153
160	0x3e819faf	0.2531714
161	0xbc446e2d	-0.011989159
162	0xbe13fcdf	-0.14451931
163	0xbe659774	-0.22421056
164	0xbda74f0f	-0.08169376
165	0x3c03e1c9	0.008049437
166	0x3ded7a73	0.11595621
167	0x3e63c12c	0.22241658
168	0x3e47263d	0.1944818
169	0x3edbab05	0.42903915
170	0x3eccc099	0.3999069
171	0x3e52da49	0.20591082
172	0x3e33ca7a	0.17557707
173	0x3ea4932c	0.32143533
174	0x3e805d74	0.250713
175	0x3db4a8cc	0.08821258
176	0x3e5e7d3a	0.21727458
177	0x3ebe5e0c	0.37181127
178	0x3ea885e4	0.3291465
179	0x3e9ced10	0.30649614
180	0xbde2cf1f	-0.110746615
181	0xbe036d80	-0.1283474
182	0xbccacd41	-0.024756076
183	0x3d9c8779	0.07643027
184	0x3ecd3e30	0.40086508
185	0x3ed00e2a	0.40635806
186	0x3e59aab0	0.21256518
187	0x3ed237de	0.41058248
188	0x3ee30de7	0.44346544
189	0x3f0b0d63	0.543173
190	0x3f2652f2	0.64970315
191	0x3e9802d4	0.29689658
192	0x3ea2a9fa	0.31770307
193	0x3f061f22	0.52391255
194	0x3ee0940e	0.43862957
195	0x3de34bb4	0.110984236
196	0x3e6e2da5	0.232596
197	0x3d964d2d	0.07338939
198	0x3e2f4be0	0.17118788
199	0x3c8bd98a	0.017071504
200	0x3d1b7ceb	0.037960928
201	0x3c2fea75	0.010737051
202	0x3d488cbd	0.048962343
203	0xbc8a812a	-0.016907293
204	0x3e1e44b7	0.154559
205	0x3c8fda15	0.017560044
206	0x3df4b45f	0.119484656
207	0xbd323914	-0.043511465
208	0xbd3ac08b	-0.04559378
209	0x3db80de3	0.08987024
210	0xbd4db06e	-0.050217085
211	0x3d7a5626	0.061117314
212	0xbc9ed91c	-0.019390635
213	0x3daf8de5	0.08571986
214	0x3de29f1c	0.11065504
215	0x3e0888a7	0.13333379
216	0xbdeb50c9	-0.11490018
217	0xbcb93c56	-0.022611778
218	0xbdb32d8e	-0.08748923
219	0xbcd919c2	-0.02650154
220	0x3dcc159d	0.0996506
221	0x3da9b5eb	0.08286651
222	0xbcf30a7e	-0.029668089
223	0xbd3bea58	-0.045877784
224	0xbe667778	-0.22506511
225	0x3ea56028	0.32299924
226	0x3d3791fc	0.044816956
227	0x3e02edae	0.1278598
228	0xbd8d53f5	-0.06900779
229	0xbe03fd1c	-0.12889522
230	0xbe89dd56	-0.26926678
231	0xbec04b3b	-0.37557396
232	0xbef83537	-0.484781
233	0xbe9f33e2	-0.3109427
234	0xbd536917	-0.051613893
235	0xbe2a2968	-0.16617358
236	0xbd8538a3	-0.06504943
237	0xbeb88eae	-0.36046356
238	0xbf0bab95	-0.5455869
239	0xbefd51ae	-0.4947638
240	0xbeb5095a	-0.35358697
241	0xbea9319f	-0.3304567
242	0xbdc2bb58	-0.09508389
243	0xbf01351a	-0.5047165
244	0xbeb2a13c	-0.34888637
245	0xbdad7bce	-0.084708795
246	0xbca86d0b	-0.020559808
247	0xbe003060	-0.12518454
248	0x3cf38a2a	0.029728968
249	0xbe41ef10	-0.18938851
250	0xbe4b246b	-0.19838111
251	0xbc232e87	-0.009959823
252	0xbd3a2740	-0.045447588
253	0xbe8442d8	-0.25832248
254	0xbc9c35f6	-0.0190687
255	0xbf0bc1dc	-0.5459268

encoder3.features.0.bias f4 [16]
0	0xbd6952ea	-0.05696384
1	0xbd582f40	-0.052779436
2	0xbc075fe7	-0.008262611
3	0x3da55c4e	0.08074246
4	0xbd9b2826	-0.07576017
5	0xbbd7856d	-0.006577185
6	0xbd65dc89	-0.05611852
7	0x3d404aef	0.046946462
8	0x3d7e1813	0.062034678
9	0x3d06075b	0.03272186
10	0x3d80f078	0.06295866
11	0x3d04d6b8	0.032431334
12	0xbdeb9dc0	-0.11504698
13	0x3d3aeac6	0.045634054
14	0xbdb66bd0	-0.08907282
15	0x3dab786c	0.08372578

encoder3.features.1.weight f4 [16]
0	0x3ee0a794	0.43877852
1	0x3f6602fa	0.8984829
2	0x3f4daeb4	0.803447
3	0x3f651b9d	0.8949526
4	0x3f357c10	0.7089243
5	0x3f3c9e22	0.7367879
6	0x3f4df9b7	0.8045916
7	0x3f84e4e8	1.0382357
8	0x3f852933	1.0403198
9	0x3f14381f	0.57898134
10	0x3f3783c7	0.7168545
11	0x3f3d16be	0.73862827
12	0x3f4e2d74	0.80538106
13	0x3f523d02	0.8212434
14	0x3f665525	0.8997367
15	0x3ef0412d	0.46924725

encoder3.features.1.bias f4 [16]
0	0xbeab6879	-0.33478144
1	0xbe1c057f	-0.15236472
2	0xbf47204c	-0.77783656
3	0x3ebb666c	0.3660158
4	0xbe04c1ec	-0.129646
5	0x3c9dbc04	0.019254692
6	0xbf7928e0	-0.97327995
7	0x3d0d66eb	0.03452198
8	0x3e94489c	0.28961647
9	0xbf462665	-0.77402335
10	0xbe6ef34f	-0.23335002
11	0xbec7ced7	-0.39024994
12	0xbe73c7b1	-0.23806645
13	0xbf35dd24	-0.7104056
14	0xbf8a0f20	-1.0785866
15	0xbecc5ed7	-0.39916107

encoder3.features.1.running_mean f4 [16]
0	0xbff4755e	-1.9098318
1	0xbe12a257	-0.1431974
2	0x40573a08	3.362917
3	0xc09a93a8	-4.8305244
4	0xbee33089	-0.44372967
5	0xbfdddef6	-1.7333667
6	0x400c5a98	2.1930294
7	0x3eefb10b	0.4681476
8	0xbf1f7a3c	-0.6229589
9	0x4077270d	3.8617585
10	0xbf7ecb74	-0.99529195
11	0xbf69abf8	-0.9127803
12	0xc0808b6e	-4.01702
13	0x40400217	3.0001276
14	0x3fad3155	1.353068
15	0x3fbcc9f2	1.4749129

encoder3.features.1.running_var f4 [16]
0	0x40b6ecfb	5.7164283
1	0x40ab902d	5.3613496
2	0x403efa7d	2.9840386
3	0x417f4387	15.953986
4	0x4088534e	4.260169
5	0x4138e451	11.555741
6	0x401a9c2d	2.4157822
7	0x40437c15	3.0544484
8	0x411c8170	9.781601
9	0x409cc713	4.899301
10	0x40b6079b	5.6884284
11	0x41690979	14.564813
12	0x40fc362d	7.8816133
13	0x4090d9f5	4.526606
14	0x401d60c8	2.459032
15	0x3fe5f531	1.7965451

encoder4.features.0.weight f4 [32, 16, 3, 3]
0	0x3e0bbb90	0.13645768
1	0x3e2c3fc7	0.16821204
2	0x3d8f0317	0.06983011
3	0x3e7e84ef	0.24855398
4	0x3d788d1b	0.060681444
5	0x3dfeded8	0.12444848
6	0x3ed511dc	0.41615188
7	0x3e012d78	0.12615001
8	0x3e020146	0.12695798
9	0xbe10b313	-0.14130811
10	0xbee362be	-0.44411272
11	0xbf3700b6	-0.7148546
12	0x3edbc1cb	0.4292129
13	0xbd0d3310	-0.034472525
14	0xbec5a4a5	-0.38602176
15	0x3f1bf300	0.60917664
16	0x3ebbbce2	0.36667544
17	0x3e565058	0.20929086
18	0xbeed1e9b	-0.46312413
19	0xbe4b9f1c	-0.19884914
20	0x3e3730fd	0.17889781
21	0xbe8f74ec	-0.28018892
22	0xbd8a4068	-0.06750566
23	0x3e900f02	0.2813645
24	0xbea656f4	-0.32488215
25	0xbd8b6495	-0.06806294
26	0x3e03c90a	0.12869659
27	0xbee3c6d7	-0.4448764
28	0x3d340404	0.043949142
29	0x3e88dc50	0.26730585
30	0xbec5cb34	-0.38631594
31	0xbe93d70c	-0.28875005
32	0xbe04f762	-0.12984994
33	0xbc7a7f87	-0.015289194
34	0x3dcd59d6	0.100269005
35	0x3d1d3af3	0.038386296
36	0x3e1cd3be	0.15315148
37	0xbe1b565e	-0.15169665
38	0xbee7017e	-0.45118326
39	0x3ebdcab0	0.370687
40	0x3d9fe836	0.078079626
41	0xbd15dd13	-0.036587786
42	0x3f57f1d2	0.84353364
43	0x3ed52d61	0.41636184
44	0x3ae0973c	0.0017134915
45	0x3ea19a31	0.3156295
46	0x3dbc1e82	0.091855064
47	0x3d7cdc30	0.061733425
48	0x3e5a6b75	0.21330054
49	0x3de0f6af	0.10984551
50	0x3e906af5	0.28206602
51	0x3ebfe00a	0.37475616
52	0x3ee8cc68	0.4546845
53	0x3f17f220	0.5935383
54	0x3b2192e8	0.0024654213
55	0x3e5b3946	0.21408567
56	0x3eee4a56	0.4654109
57	0xbe45bc4b	-0.1931011
58	0x3c9e9988	0.019360319
59	0x3e95010d	0.29102364
60	0xbe5ba100	-0.21448135
61	0xbc034f8d	-0.008014572
62	0x3e270452	0.16310242
63	0x3d34800d	0.04406743
64	0xbe85eeca	-0.26158744
65	0xbe8c7e77	-0.27440235
66	0xbe4608bb	-0.19339268
67	0xbe775b4f	-0.24155925
68	0xbe38b0d0	-0.18036199
69	0x3e9e29c8	0.30891252
70	0x3e5facf4	0.2184332
71	0xbe026890	-0.127352
72	0x3e26c492	0.16285923
73	0x3f39ccfb	0.725784
74	0x3f9654ca	1.1744626
75	0xbf02a14c	-0.5102737
76	0x3db7c68c	0.08973417
77	0x3f212bfd	0.62957746
78	0xbf558082	-0.8339921
79	0xbd60c5ea	-0.054876246
80	0x3f093e8a	0.5361105
81	0x3d13de1e	0.0361005
82	0x3cf59396	0.029977601
83	0x3eb9bac8	0.36275315
84	0xbdfb7954	-0.12279001
85	0x3d0c0dc4	0.034192815
86	0x3e4f62d1	0.20252539
87	0x3c6f1652	0.014592724
88	0x3dda0fee	0.106475696
89	0x3e1dde7c	0.15416902
90	0xbe18dfd7	-0.14929138
91	0xbd221a73	-0.039576005
92	0x3dab3a25	0.083606996
93	0xbe23910a	-0.15973297
94	0xbdca9bcc	-0.09892997
95	0xbcc89b1a	-0.02448802
96	0xbea92bd7	-0.3304126
97	0xbe874d06	-0.26425952
98	0xbd69534c	-0.056964204
99	0x3d68df24	0.05685343
100	0xbea053d3	-0.31313953
101	0xbf21d027	-0.6320824
102	0x3edff86f	0.43744227
103	0xbc2b32b2	-0.010449098
104	0xbeb8fce8	-0.36130452
105	0x3f29d385	0.6633838
106	0x3e71539d	0.23567052
107	0xbe9a112e	-0.30091232
108	0xbe9e10a6	-0.30872077
109	0xbddfc75f	-0.10926699
110	0x3ec9840b	0.39358553
111	0xbef4cb5c	-0.478114
112	0xbea98eb1	-0.33116677
113	0xbe0e1483	-0.13875012
114	0xbe42f1f6	-0.19037613
115	0xbe83d8d2	-0.25751358
116	0xbe94d57b	-0.29069123
117	0xbcdd69fc	-0.027028076
118	0x3e457bdc	0.1928553
119	0x3f0d73c6	0.5525478
120	0xbdb9bf8d	-0.090697385
121	0x3e1dfc67	0.15428315
122	0x3e993aac	0.29927576
123	0xbe132342	-0.14368919
124	0xbd4a0bba	-0.04932759
125	0x3ea06efb	0.3133467
126	0x3d74c073	0.059753846
127	0x3e9d5bbd	0.30734053
128	0x3f01e944	0.5074656
129	0xbe2ee4b0	-0.17079425
130	0x3d9c5e22	0.07635142
131	0x3e809b0d	0.25118294
132	0xbe39d1e5	-0.18146475
133	0xbd3b6497	-0.045750227
134	0x3e4d136b	0.20026939
135	0xbe2b9ebd	-0.16759773
136	0x3e8828f4	0.26593745
137	0x3f0964ec	0.5366962
138	0xbeb5c186	-0.3549921
139	0xbd56f43f	-0.052479025
140	0x3ea094cc	0.31363523
141	0xbe9baeec	-0.30406892
142	0xbdbb5713	-0.091474675
143	0x3e93cdfb	0.28868088
144	0x3c591264	0.013249014
145	0x3d2100c6	0.03930738
146	0xbdad9dd5	-0.0847737
147	0xbdadf7e3	-0.08494546
148	0xbdaf047e	-0.08545779
149	0xbc07b7ea	-0.008283595
150	0xbcbdb023	-0.023155278
151	0xbd25597b	-0.04036854
152	0xbdf39930	-0.118944526
153	0x3eb522f0	0.35378218
154	0x3e880a56	0.26570386
155	0x3e63ffb6	0.22265515
156	0x3dab36df	0.08360075
157	0x3e3841ee	0.179939
158	0x3c9e3a6c	0.019314967
159	0xbd443042	-0.047897585
160	0x3d400710	0.046881735
161	0x3b9a93c6	0.004717323
162	0xbd34c166	-0.04412975
163	0xbe92f6e8	-0.28704
164	0xbee77baf	-0.4521155
165	0xbe4c7236	-0.19965443
166	0xbe69d151	-0.22833754
167	0xbefb204a	-0.49048072
168	0xbe9091d0	-0.28236246
169	0xbe6905db	-0.2275614
170	0xbed3ade8	-0.41343617
171	0x3dd7f921	0.105455644
172	0xbcb6410d	-0.022247816
173	0x3a13449a	0.00056178274
174	0xbd0bf56e	-0.034169607
175	0xbe9cbf3b	-0.30614647
176	0xbe55f83b	-0.20895474
177	0x3f0046c1	0.5010796
178	0x3e9e82db	0.3095921
179	0x3e58e11a	0.2117962
180	0x3de779ab	0.11302503
181	0x3d470bea	0.048595347
182	0xbc73e33b	-0.014885719
183	0xbd73f03b	-0.059555274
184	0xbcb3a9ca	-0.021931548
185	0x3c3e09eb	0.011599044
186	0xbe9d997f	-0.3078117
187	0xbe17470e	-0.14773199
188	0xbe8359b3	-0.25654373
189	0x3d34937d	0.04408597
190	0xbc8e9fd3	-0.017410195
191	0xbdf13462	-0.11777569
192	0xbd8564ba	-0.06513353
193	0xbe1d38d3	-0.15353708
194	0xbe9329fc	-0.2874297
195	0xbe63d7df	-0.22250317
196	0xbe8c7f2f	-0.27440783
197	0xbe9b43ea	-0.30325252
198	0xbeae19a8	-0.3400395
199	0xbf038256	-0.5137075
200	0xbeb3baf0	-0.3510356
201	0xbf01840e	-0.50592124
202	0xbea1b748	-0.31585145
203	0xbea127ea	-0.31475765
204	0xbea91df6	-0.3303067
205	0xbec3d0ef	-0.3824534
206	0xbec95ea2	-0.39330012
207	0xbe4600c7	-0.19336234
208	0xbe844d2f	-0.25840136
209	0xbc1dbbeb	-0.009627323
210	0xbed8186a	-0.42206126
211	0xbed6d237	-0.41957256
212	0xbe60bd17	-0.21947132
213	0xbe7cbd6d	-0.24681635
214	0xbec4abff	-0.38412473
215	0xbe5a17b7	-0.21298109
216	0xbdf38045	-0.118897
217	0xbe7ee78d	-0.24893017
218	0xbe2c38ec	-0.16818589
219	0xbe31b5de	-0.17354533
220	0xbe9a2e38	-0.30113387
221	0xbe23f910	-0.16012979
222	0xbdaaa0b6	-0.083314344
223	0x3cd0754a	0.025446553
224	0x3d8103f9	0.06299586
225	0xbec21315	-0.37905183
226	0xbeab57c2	-0.3346539
227	0xbebd6320	-0.3698969
228	0xbea52c4a	-0.32260352
229	0xbe9eca8a	-0.310139
230	0xbe96f0c2	-0.2948056
231	0xbdede40d	-0.11615763
232	0xbe88e588	-0.26737618
233	0xbe66c0d0	-0.2253449
234	0xbe0a3e6c	-0.13500375
235	0xbe8645c8	-0.26225114
236	0xbe42d3d9	-0.19026126
237	0xbe3ad88c	-0.18246669
238	0xbe220c9d	-0.15825124
239	0xbe66c3ad	-0.22535582
240	0xbb8e9c2c	-0.004352113
241	0x3d3feb37	0.046855178
242	0xbded198a	-0.11577137
243	0x3e147d9e	0.14501044
244	0x3e869512	0.26285607
245	0x3e87e02b	0.26538214
246	0x3cf2906f	0.029609887
247	0xbc32acb8	-0.010905437
248	0x3d1b6c08	0.037944824
249	0xbe01434f	-0.12623332
250	0xbe080c0b	-0.13285844
251	0xbe43924f	-0.19098781
252	0x3da54506	0.08069806
253	0x3df363ec	0.11884293
254	0x3d9b744e	0.07590543
255	0xbe74a6eb	-0.23891799

encoder4.features.0.bias f4 [32]
0	0x3d33780d	0.04381566
1	0xbcecafc1	-0.0288924
2	0xbc69593a	-0.014242465
3	0xbd268ea3	-0.040663373
4	0xbcccbc40	-0.024992108
5	0x3d50f996	0.051019274
6	0xbce63707	-0.028102411
7	0xbd85ca52	-0.0653273
8	0xbd6863d7	-0.05673584
9	0x3c118452	0.008881645
10	0xbc18094f	-0.009279563
11	0xbc8f3a27	-0.017483784
12	0xbae02c69	-0.0017103079
13	0xbda96624	-0.08271435
14	0xbc256b3f	-0.01009637
15	0x3ce11e6f	0.027480332
16	0x3cfe6c48	0.031057492
17	0x3cbd8bf7	0.02313803
18	0xbbba6b85	-0.005689087
19	0xbd5d2402	-0.053989418
20	0xbd83773d	-0.06419227
21	0xbd88c902	-0.06678964
22	0x3d9d00bf	0.07666158
23	0x3d98cdc7	0.07461124
24	0xbcc392a7	-0.02387364
25	0xbd5298fa	-0.05141542
26	0xbc0d4f0f	-0.008624806
27	0x3da6ffef	0.08154284
28	0x3c99fb3d	0.018796558
29	0x3d8f0bb1	0.06984652
30	0xbbe1aa3a	-0.0068867477
31	0xbd720669	-0.059088144

encoder4.features.1.weight f4 [32]
0	0x3f55bed9	0.83494335
1	0x3ec81f24	0.39086258
2	0x3f766e6e	0.9626225
3	0x3eb369d4	0.35041678
4	0x3f3c181f	0.73474306
5	0x3f480ea6	0.7814735
6	0x3ef68f4f	0.4815621
7	0x3f236d01	0.638382
8	0x3f9e9d2b	1.2391714
9	0x3f404c24	0.7511618
10	0x3f7ac933	0.97963256
11	0x3f3fde88	0.7494893
12	0x3fa0e31d	1.256931
13	0x3f2eb653	0.68246955
14	0x3f32a22c	0.69778705
15	0x3f7ce196	0.98781717
16	0x3f4f813d	0.81056577
17	0x3f99de3a	1.2020943
18	0x3ebd03f0	0.36917067
19	0x3f38c533	0.721759
20	0x3f4c7cca	0.79877913
21	0x3f925b76	1.1434162
22	0x3ee6012f	0.44922778
23	0x3ef1d13c	0.47229946
24	0x3f80f6de	1.0075338
25	0x3edce31e	0.43142027
26	0x3f6c7e22	0.92379963
27	0x3f074bb9	0.5284992
28	0x3f07e68d	0.5308617
29	0x3efa951d	0.4894189
30	0x3f055633	0.52084655
31	0x3f6d7f73	0.927726

encoder4.features.1.bias f4 [32]
0	0x3d44da43	0.048059713
1	0x3ed56e05	0.416855
2	0xbd8cc939	-0.06874318
3	0x3ed28345	0.41115776
4	0xbf51aa27	-0.81900257
5	0x3ecb40ca	0.39697868
6	0xbea40a36	-0.3203904
7	0xbfa4cda7	-1.287526
8	0x3e1be293	0.1522315
9	0xbe9ab7d0	-0.30218363
10	0x3ee00ab5	0.4375817
11	0xbf4969aa	-0.78676856
12	0xbcd7aca2	-0.026327435
13	0xbf3b460d	-0.73153764
14	0x3e204e39	0.1565484
15	0x3e90cb3b	0.28280053
16	0x3de4e539	0.11176533
17	0x3e48fa3c	0.19626707
18	0xbd77a29c	-0.06045781
19	0xbf79b9ea	-0.9754931
20	0x3f240c99	0.6408172
21	0xbdaaa2f5	-0.08331863
22	0xbf5a2d41	-0.852253
23	0xbf271462	-0.65265477
24	0x3e3068ed	0.17227526
25	0x3e3dde9d	0.18541951
26	0xbf404e75	-0.75119716
27	0xbf73fb26	-0.953051
28	0x3eb7b455	0.3587977
29	0xbf056bcc	-0.5211761
30	0xbdcd93cb	-0.10037955
31	0xbd431ca9	-0.047634754

encoder4.features.1.running_mean f4 [32]
0	0x3fa4175d	1.281963
1	0xc0849ab8	-4.1438866
2	0xc0ab1c0e	-5.3471746
3	0xc012ca99	-2.2936156
4	0x40e20e70	7.0642624
5	0xc0aa151d	-5.3150773
6	0xbe59b4ab	-0.21260326
7	0x40547341	3.3195345
8	0xc097b957	-4.7413745
9	0x41040540	8.251282
10	0x404bbf61	3.1835558
11	0xbfa5f95e	-1.2966726
12	0x3fc92674	1.571486
13	0xbfc1b5e9	-1.513364
14	0xbf252a8a	-0.64518034
15	0xbf8b670b	-1.0890821
16	0xbf2303f5	-0.6367791
17	0xbfb8695b	-1.4407152
18	0xc0938f87	-4.6112704
19	0x4101e4ce	8.1183605
20	0xc030f075	-2.7646763
21	0xc0b5843a	-5.672391
22	0x400bc863	2.1841056
23	0x3ea7bb31	0.32760003
24	0xc10864c3	-8.5246
25	0xc03c5bc9	-2.9431021
26	0x3fcbedac	1.5931907
27	0x400f37e5	2.2377865
28	0xc00d995d	-2.2124856
29	0xc03dbf4b	-2.9648006
30	0xc01aaf08	-2.416933
31	0x3e93bec0	0.28856468

encoder4.features.1.running_var f4 [32]
0	0x40c38062	6.1094217
1	0x41b8c16d	23.094446
2	0x41492ceb	12.573466
3	0x4121b842	10.107485
4	0x41ae42b6	21.782574
5	0x4143eca1	12.245271
6	0x4114e9d6	9.307089
7	0x41420800	12.126953
8	0x4214f1f8	37.236298
9	0x41acdb38	21.60704
10	0x419fdc58	19.98259
11	0x41349340	11.28595
12	0x414c9bc8	12.788033
13	0x4175124d	15.316968
14	0x41ce9a2a	25.825275
15	0x41d82fa4	27.023262
16	0x418e744d	17.806787
17	0x4193700c	18.42971
18	0x40a8645a	5.26225
19	0x419662d6	18.79826
20	0x41e41028	28.507889
21	0x413b7472	11.715929
22	0x418dbe2c	17.717857
23	0x4068bba2	3.6364522
24	0x41395cfd	11.585202
25	0x41240c45	10.2529955
26	0x40e848e6	7.2588987
27	0x40fd35d3	7.9128203
28	0x41b216e5	22.261179
29	0x41726743	15.15021
30	0x4188c706	17.09718
31	0x41864433	16.7833

encoder5.features.0.weight f4 [64, 32, 3, 3]
0	0xbec0e252	-0.3767267
1	0xbee52ef4	-0.44762385
2	0xbf8603a8	-1.0469866
3	0x3e312f82	0.17303279
4	0x3d320848	0.04346493
5	0xbf145ace	-0.57951057
6	0xbe2c3e70	-0.16820693
7	0xbe2b579c	-0.16732639
8	0xbf316aa1	-0.6930333
9	0xba92ec13	-0.0011209272
10	0xbe3942c4	-0.18091875
11	0xbdde97af	-0.10868775
12	0x3e8980de	0.2685613
13	0x3e8e40ea	0.277839
14	0x3e0b3065	0.1359268
15	0xbe166456	-0.14686713
16	0xbe58f055	-0.2118543
17	0xbe58c3eb	-0.21168487
18	0x3e6d4c1c	0.23173565
19	0x3e7bdcd3	0.24595957
20	0xbe714b92	-0.23563984
21	0x3e3757cf	0.1790459
22	0x3e18759b	0.14888613
23	0xbeaa8f0e	-0.33312267
24	0xbe7b735b	-0.24555723
25	0xbdbd0e0c	-0.09231195
26	0xbf300967	-0.68764347
27	0xbe63eaf0	-0.2225759
28	0xbe831ad3	-0.25606403
29	0xbf09a614	-0.5376904
30	0x3ddb5757	0.10710018
31	0x3dc962c7	0.098332934
32	0xbe1e6401	-0.15467836
33	0xbe250c65	-0.1611801
34	0xbe5c7ff6	-0.21533188
35	0xbe77e44b	-0.2420818
36	0xbdecd0d8	-0.11563271
37	0xbe9b3f2e	-0.3032164
38	0xbe9ef25d	-0.31044284
39	0xbdcd386a	-0.10020526
40	0xbe78d7fb	-0.2430114
41	0xbe87f953	-0.26557407
42	0xbdd88a75	-0.105732836
43	0xbe74d71f	-0.23910187
44	0xbe0f347f	-0.1398487
45	0xbedd6ba2	-0.4324618
46	0xbe06f822	-0.13180593
47	0xbe26a936	-0.16275486
48	0xbdb768d4	-0.08955541
49	0x3dc58cb7	0.0964598
50	0x3a8888c5	0.0010416737
51	0xbebac287	-0.36476538
52	0xbb06340a	-0.0020477795
53	0xbee5b1eb	-0.44862303
54	0x3d9daf59	0.076994605
55	0x3de3f108	0.111299574
56	0x3e0dfff7	0.13867174
57	0x3ce6be55	0.02816693
58	0x3dc44146	0.095827624
59	0x3de504ef	0.11182582
60	0x3e08c388	0.13355839
61	0x3db1ce17	0.08681887
62	0x3d8f401e	0.06994651
63	0xbdddba3f	-0.10826539
64	0xbd392573	-0.04520173
65	0x3ca1939d	0.019723708
66	0xbd100e3e	-0.035169832
67	0xbd472e5d	-0.0486282
68	0x3b3c026b	0.0028687965
69	0x3bbaf9c6	0.005706045
70	0xbc9544a4	-0.018221207
71	0x3d018f58	0.031630844
72	0xbe177f9a	-0.1479477
73	0xbdcfaac2	-0.10139991
74	0xbd8b6031	-0.068054564
75	0xbdaded8f	-0.08492576
76	0xbe20c44a	-0.15699878
77	0xbd0dd87a	-0.034630276
78	0xb8653e20	-5.4655713e-05
79	0xbe50faa8	-0.20408118
80	0xbd66b9ef	-0.056329664
81	0xbe500cdc	-0.20317405
82	0xbe97f318	-0.29677653
83	0xbed538a9	-0.4164479
84	0xbe7b1cf4	-0.24522763
85	0xbe857399	-0.26064757
86	0xbeb08861	-0.3447905
87	0xbe8d0892	-0.275456
88	0xbe960cd8	-0.29306674
89	0xbec5ff2e	-0.3867125
90	0xbea49d36	-0.32151192
91	0xbea5de9b	-0.32396397
92	0xbd0a7853	-0.033806156
93	0xbefb95a0	-0.49137592
94	0xbeca1456	-0.3946864
95	0xbe9fc70e	-0.31206554
96	0xbefdc59c	-0.49564826
97	0xbec2457e	-0.37943643
98	0xbe766e96	-0.24065623
99	0xbd2c77b6	-0.042106353
100	0xbc55e63f	-0.013055383
101	0x3c959ce1	0.018263282
102	0xbd9848d5	-0.074357666
103	0xbd669742	-0.056296594
104	0x3cedae07	0.029013647
105	0xbd5613f9	-0.05226514
106	0xbd2187a8	-0.039436013
107	0x3e192859	0.14956798
108	0x3c706a42	0.014673771
109	0xbef051b1	-0.46937326
110	0x3e5f3ed8	0.21801317
111	0xbe8edbc5	-0.27902046
112	0xbea8d53b	-0.32975182
113	0xbed00932	-0.40632015
114	0x3dd470ed	0.103731014
115	0xbe36012f	-0.17773889
116	0x3e2d09bd	0.16898246
117	0xbdf1d289	-0.118077345
118	0xbe0f4776	-0.13992104
119	0xbe1e74fb	-0.15474312
120	0xbdad981a	-0.08476277
121	0xbe259aa3	-0.1617227
122	0xbdcf2c1f	-0.10115837
123	0xbea5d43a	-0.3238848
124	0xbe804d32	-0.25058895
125	0xbe67c094	-0.22632056
126	0xbea09cb0	-0.31369543
127	0xbd8bf6cf	-0.068341844
128	0xbeefaa42	-0.46809584
129	0xbd8526a6	-0.06501512
130	0x3e21c51e	0.1579785
131	0xbda4451d	-0.08020995
132	0xbec26e96	-0.37974995
133	0xbda1771d	-0.07884047
134	0xbf32d4bd	-0.6985586
135	0xbef9f733	-0.4882141
136	0xbed5e6ae	-0.41777557
137	0xbe7825a0	-0.24233103
138	0xbcda8fc9	-0.02667989
139	0xbb055a45	-0.0020347994
140	0x3dda2cf9	0.10653109
141	0xbe5d8a82	-0.21634868
142	0xbeaf8222	-0.3427897
143	0xbd9d8997	-0.07692259
144	0xbe8848cd	-0.26618043
145	0xbad02851	-0.0015881156
146	0xbf17af43	-0.59251803
147	0xbe8c2963	-0.27375326
148	0x3d1d62ba	0.03842423
149	0xbebcc540	-0.3686924
150	0xbf3ee3dd	-0.7456644
151	0xbeda1c43	-0.42599687
152	0xbf7f5a66	-0.9974731
153	0xbd6670e9	-0.056260023
154	0x3db158ee	0.0865954
155	0x3e8f1958	0.27949023
156	0x3e0f7718	0.14010274
157	0x3e0a66fc	0.13515848
158	0xbcd3a7be	-0.025836822
159	0xbea47988	-0.3212397
160	0xbe6f75da	-0.233848
161	0xbf1ce744	-0.61290383
162	0xbd94467d	-0.07240007
163	0xbc7e0df4	-0.015506256
164	0xbe3d4e99	-0.18487014
165	0x3e29de23	0.16588645
166	0x3e152cac	0.14567822
167	0x3befe4da	0.0073209824
168	0xbdd7c3a1	-0.1053536
169	0xbe0718cd	-0.13193054
170	0xbeb9ec7b	-0.36313233
171	0xbe74f368	-0.23920977
172	0xbea3cf9c	-0.3199433
173	0xbea3be76	-0.31981248
174	0xbe547d97	-0.20751034
175	0xbe96af38	-0.29430556
176	0xbe6f75c1	-0.23384763
177	0xbdd83464	-0.10556868
178	0xbdf5e6c9	-0.120069094
179	0xbdbfa243	-0.09357121
180	0xbdf91fcf	-0.1216427
181	0xbe79aacc	-0.2438156
182	0x3d5bc3ad	0.053653408
183	0xbe8673b5	-0.26260152
184	0xbeb2bca5	-0.3490955
185	0xbe33fb15	-0.17576249
186	0x3e2b2343	0.1671267
187	0xbded8334	-0.11597291
188	0x3e2e632e	0.17030022
189	0xbf376a70	-0.71646786
190	0xbe972b34	-0.2952515
191	0xbec93461	-0.39297774
192	0x3e1cc4ff	0.15309523
193	0x3eb75d51	0.35813382
194	0x3e923f74	0.28564036
195	0xbe32632c	-0.17420644
196	0x3ecf05de	0.40434164
197	0x3e90b098	0.2825973
198	0xbbda3f71	-0.006660395
199	0xbabf9b59	-0.0014618441
200	0xbc9a6e51	-0.018851431
201	0xbbac7905	-0.00526345
202	0x3cd214d4	0.025644697
203	0xbd8801b7	-0.06640952
204	0x3cd33cea	0.025785882
205	0x3d90feed	0.07079873
206	0x3cc3f3c6	0.023919951
207	0x3d5960d1	0.053070847
208	0x3db4f0fe	0.08835028
209	0x3d035fa8	0.032073647
210	0xbd68a73d	-0.056800116
211	0x3d6b49da	0.057443477
212	0x3c02c32e	0.007981105
213	0x3d20b68a	0.039236583
214	0x3b65c70a	0.0035061263
215	0xbc8f18c2	-0.01746786
216	0xbef41a57	-0.47676346
217	0xbf2a70e5	-0.66578513
218	0xbea12eff	-0.31481168
219	0xbf1ce9d2	-0.6129428
220	0xbe8eee90	-0.27916384
221	0xbe70e8c5	-0.23526295
222	0xbf18c37f	-0.59673303
223	0xbe8a062a	-0.26957828
224	0xbe489c4c	-0.19590873
225	0xbed214b5	-0.41031423
226	0xbef8ac26	-0.4856884
227	0x3dd9239b	0.10602494
228	0xbefbe2b6	-0.49196404
229	0xbe062eb5	-0.13103755
230	0xbe0951c3	-0.13410096
231	0xbd42cb14	-0.04755695
232	0xbe7372b0	-0.23774219
233	0x3c0dab1b	0.008646752
234	0xbb6b51d1	-0.003590692
235	0xbc8b6968	-0.017018035
236	0xbd9cc390	-0.07654488
237	0xbd833e03	-0.06408312
238	0xbdea6b8a	-0.11446293
239	0xbe49cf3e	-0.19707963
240	0xbde456e2	-0.11149384
241	0xbdb17920	-0.08665681
242	0xbdb59b7b	-0.08867546
243	0xbd953d82	-0.07287122
244	0xbe09c20e	-0.13452932
245	0xbe0ff131	-0.14056851
246	0xbe48f74b	-0.19625585
247	0xbe065509	-0.13118376
248	0xbe1ba1be	-0.15198418
249	0xbe05a2de	-0.1305041
250	0xbe28a45c	-0.16468948
251	0xbdd68a37	-0.10475581
252	0xbeac609c	-0.33667457
253	0xbeb4da3a	-0.35322744
254	0xbee2b4fc	-0.44278705
255	0x3e1cfa68	0.15329897

encoder5.features.0.bias f4 [64]
0	0x3b9dd090	0.0048161224
1	0xbce83627	-0.028346134
2	0x3cbad394	0.022805966
3	0xbcd9bf21	-0.026580395
4	0xbbde2cdc	-0.00678025
5	0xbd667a48	-0.05626896
6	0xbb3da6af	-0.0028938462
7	0x3d0622f5	0.03274818
8	0x3cd42bee	0.025899854
9	0x3cc1cbcc	0.023656748
10	0x3ce2a74e	0.027667668
11	0xbd57162e	-0.052511387
12	0xbc24d68e	-0.010060919
13	0xbcf0417b	-0.029328099
14	0xbc91055f	-0.017702756
15	0x3cfa1e20	0.030531943
16	0xbd198531	-0.037480537
17	0x3cca4ff9	0.024696337
18	0x3cfffdaf	0.031248895
19	0x3ce13f44	0.027495988
20	0xbbff508c	-0.0077915844
21	0xbd70542a	-0.058674015
22	0xbd0309a2	-0.03199161
23	0x3d35b252	0.044359513
24	0xbd2a0ecd	-0.04151802
25	0x3cd61adc	0.026135854
26	0xbcb8c100	-0.022552967
27	0xbd55982d	-0.05214708
28	0x3adc5d40	0.0016812459
29	0xbc88f283	-0.016717201
30	0xbcdc55c0	-0.026896358
31	0x3d5e99dc	0.05434595
32	0x3d391f62	0.045195945
33	0x3cbb33d6	0.022851866
34	0xbba366b2	-0.0049866075
35	0xbbaf6bdc	-0.005353434
36	0xbc26b245	-0.010174339
37	0xbd3d2074	-0.046173528
38	0xbd25c4e9	-0.04047099
39	0x3cce1b3c	0.02515947
40	0x3d6deaf7	0.058085408
41	0xbd633124	-0.055466786
42	0xbd329cc2	-0.043606527
43	0x3c197587	0.0093664
44	0xbd4cfe17	-0.050047006
45	0xbd4257fa	-0.047447182
46	0x3d4a1ab8	0.049341887
47	0x3d382866	0.044960402
48	0xbd2ef68e	-0.0427156
49	0x3d5f3a7d	0.05449914
50	0x3c28fbd5	0.010313948
51	0xbb5a6599	-0.0033324717
52	0x3d2c0414	0.041996077
53	0x3cf1b932	0.029507253
54	0x3b846a03	0.004040958
55	0xbd4d7743	-0.050162565
56	0xbacb82c6	-0.0015526644
57	0xbcbd9378	-0.023141608
58	0xbd60f22d	-0.054918457
59	0xbc83a9e5	-0.016072223
60	0xbd0a5293	-0.033770155
61	0xbcec5204	-0.028847702
62	0x3d6fc689	0.058538947
63	0x3ccbdbfe	0.024885174

encoder5.features.1.weight f4 [64]
0	0x3f40ec76	0.7536081
1	0x3f8e812a	1.1133168
2	0x3f310c70	0.69159603
3	0x3fac8ebc	1.3481059
4	0x3f6e5d85	0.9311145
5	0x3f6ecddf	0.93282884
6	0x3f15006e	0.5820378
7	0x3f1bb328	0.60820246
8	0x3f26b3dc	0.65118194
9	0x3f74171f	0.9534778
10	0x3f037792	0.51354325
11	0x3f0ae96e	0.54262435
12	0x3f84f32b	1.0386709
13	0x3f2a9fc1	0.66650015
14	0x3f6e2138	0.9301944
15	0x3f6d0fad	0.92602044
16	0x3f7e45a6	0.99325025
17	0x3ecfb73b	0.4056948
18	0x3f587d34	0.84566045
19	0x3f493c05	0.7860721
20	0x3f33a5ed	0.7017506
21	0x3f3b3451	0.73126704
22	0x3e8f29d6	0.27961606
23	0x3efbd49a	0.4918564
24	0x3f792f45	0.9733775
25	0x3f43e2b9	0.76517826
26	0x3f622307	0.883347
27	0x3eec6113	0.46167812
28	0x3f453ade	0.7704295
29	0x3f58a967	0.8463349
30	0x3f66be35	0.9013398
31	0x3f80c9bd	1.0061566
32	0x3f4c805e	0.7988337
33	0x3f883cac	1.0643516
34	0x3f40d552	0.753255
35	0x3f7a8149	0.97853523
36	0x3f946c46	1.1595542
37	0x3f0efcd5	0.5585454
38	0x3f8f1ea6	1.1181228
39	0x3f8cb2fc	1.0992122
40	0x3f1a9771	0.6038733
41	0x3f7d852e	0.9903134
42	0x3f1e0625	0.61728126
43	0x3eaf9288	0.34291482
44	0x3f34292e	0.70375335
45	0x3f8b88aa	1.0901082
46	0x3fb897aa	1.4421284
47	0x3f14186b	0.5784976
48	0x3f712b70	0.94206905
49	0x3f8e6d5d	1.1127125
50	0x3f8999cc	1.075006
51	0x3f90c6c1	1.1310655
52	0x3f801fd1	1.000971
53	0x3f9c63e3	1.2217983
54	0x3f2bb79b	0.67077035
55	0x3fb0a69b	1.3800844
56	0x3f70af87	0.94017833
57	0x3f4d73fb	0.802551
58	0x3f12971f	0.5726184
59	0x3f61b7b7	0.8817095
60	0x3f6ff457	0.9373221
61	0x3ebbfaee	0.36714882
62	0x3f5540fd	0.8330229
63	0x3f4ebf5d	0.8076075

encoder5.features.1.bias f4 [64]
0	0xbf21ed7c	-0.63253
1	0xbf25f9c4	-0.6483424
2	0x3d11c3a0	0.035586953
3	0x3f6006aa	0.8751017
4	0xbef1936e	-0.47182792
5	0x3f807bc0	1.0037766
6	0xbf314ae0	-0.69254875
7	0xbbbb5854	-0.0057173166
8	0xbef7d57f	-0.48405072
9	0xbf4b8007	-0.7949223
10	0xbe95076c	-0.29107225
11	0xbf1c6ef9	-0.6110683
12	0x3eda3f22	0.42626292
13	0xbf176e37	-0.5915255
14	0x3f1de734	0.6168091
15	0x3e8e4925	0.2779018
16	0x3e92b3a9	0.28652695
17	0xbf0b3508	-0.54377794
18	0xbe736e15	-0.23772462
19	0xbf6941e7	-0.91116184
20	0x3e756f8a	0.2396833
21	0xbeecb7b2	-0.46233898
22	0xbf2b81b2	-0.66994774
23	0xbebc3d97	-0.3676574
24	0xbf278a64	-0.6544554
25	0xbf13a540	-0.57674026
26	0xbe8fc52a	-0.28080112
27	0xbf19aadc	-0.60026336
28	0x3e120d3a	0.14262858
29	0xbf6c69bd	-0.92348844
30	0xbf27f569	-0.6560884
31	0xbd18b22d	-0.037279297
32	0xbea3beda	-0.31981546
33	0x3e234a0f	0.1594622
34	0x3e520854	0.2051099
35	0x3f4f1f4f	0.8090715
36	0xbe844cc1	-0.2583981
37	0xbf195fd7	-0.59911865
38	0x3f32629e	0.6968173
39	0x3f519777	0.8187174
40	0x3e4d4808	0.20047009
41	0x3f30e854	0.69104505
42	0xbf31ccc7	-0.6945309
43	0xbe931df6	-0.28733796
44	0xbf0aaa82	-0.54166424
45	0x3eb81b27	0.35958216
46	0x3f66683a	0.9000279
47	0xbf91194b	-1.1335844
48	0x3f6e63be	0.93120944
49	0x3ee86877	0.453922
50	0x3c0b439d	0.008500007
51	0x3f55e9a2	0.8355962
52	0xbf82ac6b	-1.0208868
53	0x3eabdfdb	0.33569226
54	0xbf08992e	-0.53358734
55	0x3df38ce8	0.1189211
56	0xbde87d77	-0.113520555
57	0x3db4ccd8	0.08828133
58	0xbf1686c5	-0.5879939
59	0xbdc4b77c	-0.09605309
60	0xbe3cbb90	-0.18430924
61	0xbf2f97bb	-0.685909
62	0x3ebf062a	0.3730939
63	0x3d895e12	0.067073956

encoder5.features.1.running_mean f4 [64]
0	0xc17baf17	-15.730247
1	0xc09a47c6	-4.8212614
2	0x4012705b	2.2881076
3	0xbf80434a	-1.0020535
4	0xc0cd33ce	-6.412574
5	0x41164761	9.3924265
6	0xc03c2f7e	-2.9403987
7	0xc0808c63	-4.017137
8	0xc042d44c	-3.0442076
9	0xbf892c73	-1.071669
10	0xbff4457d	-1.9083706
11	0xc0c59632	-6.1745844
12	0x40a1b629	5.0534863
13	0xc10a2e57	-8.636313
14	0x3fb51a00	1.414856
15	0xc0a7ddb9	-5.2458158
16	0xbffddd8f	-1.9833239
17	0x3e059fc8	0.13049233
18	0xc0d6c733	-6.7118163
19	0x40942982	4.630067
20	0x40a06366	5.0121336
21	0xc0d7ff75	-6.7499337
22	0xc09a0320	-4.8128815
23	0xc03fe28f	-2.998203
24	0x411f80ef	9.968978
25	0xbfecea97	-1.8509091
26	0xc08d9716	-4.424693
27	0xc08bc52c	-4.367819
28	0xc117864b	-9.470286
29	0xbfd57bc4	-1.6678395
30	0xc011299f	-2.2681653
31	0xc0c8115d	-6.2521195
32	0xc14b1647	-12.692939
33	0x40d835c9	6.7565656
34	0x40b01dcd	5.503638
35	0x4115b0c4	9.355656
36	0xc1821fc5	-16.265512
37	0x3e8508b8	0.25983214
38	0xc0a0447a	-5.008359
39	0x3f9bd6a3	1.2174877
40	0xbea5ea72	-0.3240543
41	0x409a307e	4.8184195
42	0xbf969647	-1.1764611
43	0xbfbf6dd1	-1.4955388
44	0xc00b029e	-2.1720347
45	0xc0f3a0ac	-7.6133633
46	0xbfdbdcdc	-1.7176776
47	0xc0aa7425	-5.326678
48	0x40c37b96	6.108836
49	0xc0e48894	-7.141672
50	0xc0c88e9d	-6.267409
51	0x3fbd2146	1.4775779
52	0xc060fb5a	-3.5153413
53	0xc0c2e282	-6.09015
54	0xc12d2529	-10.821572
55	0x408223ed	4.0668855
56	0xc12e7610	-10.903824
57	0xc0a6a543	-5.2076735
58	0xc03eeb99	-2.9831297
59	0xc0984a60	-4.759079
60	0xc143cbdb	-12.237269
61	0x409887ac	4.7665615
62	0x40b3873d	5.6102586
63	0xc137e938	-11.494438

encoder5.features.1.running_var f4 [64]
0	0x422538f0	41.305603
1	0x42455176	49.32955
2	0x429ef8a8	79.48566
3	0x42fa0f90	125.030396
4	0x426ee5de	59.72448
5	0x429d6992	78.70619
6	0x42932bd2	73.58559
7	0x420d676b	35.350994
8	0x41254c7a	10.331171
9	0x425a3a8d	54.55718
10	0x41e01095	28.008097
11	0x42821cf1	65.056526
12	0x42bdc564	94.88553
13	0x41a57b01	20.68506
14	0x42bcf457	94.47723
15	0x42bf5731	95.670296
16	0x42565331	53.58124
17	0x41ad2ac5	21.645884
18	0x42b7faf5	91.99015
19	0x4190ca73	18.098852
20	0x42ebaa0a	117.83211
21	0x41eb5e41	29.421022
22	0x41286fb5	10.527272
23	0x424f8b31	51.88593
24	0x425ce8b3	55.227245
25	0x42810123	64.50222
26	0x420d8863	35.38319
27	0x41aa2a94	21.27079
28	0x42933050	73.59436
29	0x4266321e	57.548943
30	0x422bb2cc	42.924606
31	0x42cc7b7e	102.241196
32	0x4266e18c	57.72026
33	0x42ed15a5	118.542274
34	0x42bfc68d	95.887794
35	0x429cc88e	78.39171
36	0x42e818b5	116.048256
37	0x41c69da0	24.826965
38	0x42cd881a	102.76582
39	0x428066ba	64.20064
40	0x423cb613	47.177807
41	0x42534ec9	52.82694
42	0x41d55c2f	26.670012
43	0x41ad78c8	21.683975
44	0x42a848f7	84.14251
45	0x42c5c42e	98.88316
46	0x426f0ff5	59.765583
47	0x429848ba	76.142044
48	0x426c43f0	59.066345
49	0x429a6b4b	77.20956
50	0x42d77c9c	107.74338
51	0x42f88969	124.26838
52	0x4279679e	62.35119
53	0x429286e6	73.26347
54	0x420cae7d	35.1704
55	0x42f60a7c	123.02048
56	0x42a4d993	82.42495
57	0x42c29041	97.281746
58	0x41712241	15.070863
59	0x428a63b9	69.19477
60	0x42c7ad4a	99.838455
61	0x421e96ed	39.64739
62	0x42db1d61	109.55738
63	0x42c6f679	99.48139
